pytorch/template/saved/models/Mnist_Model/0121_234515/checkpoint-epoch2.pth (torch, 359983 bytes, 32 tensors)

conv1.weight f4 [10, 1, 5, 5]
0	0x3e1f6734	0.15566713
1	0x3e4923de	0.19642588
2	0xbc292cdc	-0.010325637
3	0x3e6cab42	0.23112205
4	0xbd79b6dd	-0.060965408
5	0x3adcd283	0.0016847405
6	0xbd8e8749	-0.06959397
7	0x3e1dfc6e	0.15428326
8	0x3e5739d4	0.21018153
9	0xbe353170	-0.1769464
10	0x3e34cac6	0.17655477
11	0x3dd084f2	0.10181607
12	0x3e641a10	0.22275567
13	0x3da2d6b3	0.07951107
14	0x3e056627	0.1302725
15	0xbbef5357	-0.007303636
16	0x3e717405	0.23579414
17	0x3df757e9	0.120773144
18	0xbc70fedb	-0.0147092
19	0x3ddbb1ee	0.10727297
20	0xbe1113c4	-0.14167696
21	0xbc156803	-0.009119037
22	0xbce7576d	-0.02823993
23	0x3e3b9f42	0.18322471
24	0xbe090cc4	-0.13383776
25	0xbdf8f8ad	-0.12156806
26	0xbdde0bf8	-0.108421266
27	0xbe046cf7	-0.12932192
28	0xbba40c18	-0.0050063245
29	0xbe937eee	-0.28807777
30	0x3e52bf8d	0.20580883
31	0xbe24af33	-0.16082458
32	0x3e2ec55c	0.17067474
33	0xbc919a0b	-0.017773649
34	0xbe55c006	-0.20874032
35	0x3e37c238	0.17945182
36	0x3dc2c5e9	0.095104046
37	0x3e642589	0.22279944
38	0x3d19d622	0.03755773
39	0xbdd693ab	-0.10477384
40	0x3d586c09	0.052837405
41	0xbc643ee4	-0.01393101
42	0x3e194187	0.14966403
43	0x3e8712ec	0.26381624
44	0x3e43c387	0.19117557
45	0xbe4df26f	-0.20112012
46	0x3dbddcb9	0.09270615
47	0x3d7e3098	0.06205806
48	0x3e25bff0	0.161865
49	0xbd171438	-0.036884516
50	0xbdf2e0b6	-0.118592665
51	0x3da8345e	0.08213113
52	0xbc92453c	-0.01785528
53	0x3e453048	0.19256699
54	0xbc14ea50	-0.009089068
55	0x3e060a85	0.1308995
56	0x3e4c83f4	0.19972211
57	0x3ddb62c8	0.107122004
58	0x3e12fd79	0.14354505
59	0xbe985d2d	-0.29758587
60	0x3e117320	0.14204073
61	0x3d6077a8	0.054801613
62	0x3e493f26	0.19652995
63	0xbdeb1b68	-0.11479837
64	0xbe372885	-0.1788655
65	0x3dee74ef	0.11643397
66	0x3ead61c8	0.33863664
67	0xbc098f21	-0.008395941
68	0xbe543368	-0.20722735
69	0xbeaa795b	-0.33295712
70	0x3ea36f7b	0.3192099
71	0x3e45860d	0.19289418
72	0x3e690f4b	0.2275974
73	0xbe9acf5f	-0.30236337
74	0xbed6f09d	-0.41980448
75	0xbec57826	-0.38568228
76	0xbe7a0140	-0.2441454
77	0x3de7e40e	0.11322795
78	0x3e2427b6	0.16030774
79	0x3e916c6a	0.28403026
80	0xbea8a906	-0.32941455
81	0xbe5205c9	-0.2051002
82	0x3e53d902	0.2068825
83	0x3d873167	0.066012196
84	0x3e85b579	0.26115015
85	0xbe6b062c	-0.22951573
86	0x3e1410ad	0.14459486
87	0xbb123ea2	-0.0022315164
88	0x3d719f89	0.058990035
89	0x3dfedf87	0.12444978
90	0xbd74cc5b	-0.0597652
91	0x3c9533b7	0.018213136
92	0x3e7aee20	0.245049
93	0x3e811645	0.25212303
94	0xbe26d226	-0.16291103
95	0xbdb7bba9	-0.0897134
96	0x3e858fed	0.2608637
97	0x3ccdfb9a	0.025144387
98	0xb9a35b20	-0.00031157676
99	0xbe7cb60e	-0.24678823
100	0xbe9e1ccb	-0.30881342
101	0xbd516adc	-0.0511273
102	0xbd8fc2ea	-0.07019599
103	0xbe48988d	-0.19589444
104	0xbd9143e2	-0.07093026
105	0xbe8ae64e	-0.27128834
106	0xbe87e623	-0.26542768
107	0xbe412505	-0.18861778
108	0xbe809636	-0.25114602
109	0xbe5bf6b4	-0.21480829
110	0x3d556bb7	0.052104678
111	0xbdd58c94	-0.10427204
112	0xbd60d976	-0.054894887
113	0xbe8ca33a	-0.27468282
114	0xbe6cef4c	-0.2313816
115	0xbdc5a285	-0.09650139
116	0xbcb93e97	-0.022612853
117	0xbe80dce9	-0.2516854
118	0xbe2e7b28	-0.17039168
119	0xbe6a70d2	-0.228946
120	0x3d8ba137	0.06817859
121	0xbd0c7d5d	-0.034299243
122	0xbcd69dbb	-0.026198259
123	0xbe6b6fcb	-0.22991864
124	0xbea27a6d	-0.31734028
125	0xbe5f292e	-0.21793053
126	0xbdc16c95	-0.094445385
127	0xbe2963df	-0.16542004
128	0x3cea3be6	0.028593015
129	0xbdd3fae2	-0.103505865
130	0x3c4d7da0	0.012542158
131	0xbe0843e2	-0.13307145
132	0xbed79b3c	-0.42110622
133	0xbdb08a30	-0.08620107
134	0xbe242f76	-0.1603373
135	0xbdd83e94	-0.10558811
136	0xbe80d8e4	-0.25165474
137	0xbe956d20	-0.29184818
138	0xbc102d51	-0.008799867
139	0xbaf4a8a4	-0.0018665981
140	0x3e66f7ad	0.22555418
141	0x3d60596d	0.054772783
142	0x3ea3c47b	0.3198584
143	0xbc791bff	-0.015204429
144	0x3dd71d48	0.10503632
145	0x3e402a83	0.18766217
146	0x3ea1386a	0.31488353
147	0x3eb3f5fc	0.3514861
148	0x3ea32b6a	0.3186906
149	0xbd74647a	-0.059666134
150	0x3d77f07e	0.060532086
151	0xbd071dc9	-0.03298739
152	0x3c058dff	0.00815153
153	0xbe1cf9b4	-0.15329629
154	0x3e421b21	0.18955661
155	0xbe194b37	-0.14970098
156	0x3e43fcb7	0.19139372
157	0x3e00477f	0.12527274
158	0x3d96dbde	0.07366155
159	0xbe036358	-0.12830865
160	0x3e7ea106	0.24866113
161	0x3e21b6d6	0.15792403
162	0x3daf30ed	0.08554254
163	0xbe6fd6d8	-0.234218
164	0x3d1262a6	0.03573861
165	0xbd4778f0	-0.04869932
166	0xbd1b23e9	-0.037876043
167	0x3e61686c	0.2201249
168	0x3cbca455	0.023027578
169	0xbe1bf154	-0.15228778
170	0xbe83d79c	-0.25750434
171	0xbd4bb02e	-0.049728565
172	0x3e0ff581	0.14058496
173	0xbcf75889	-0.030193584
174	0xbe1ad99a	-0.15122071
175	0xbe2f3900	-0.17111588
176	0xbdfb991f	-0.12285065
177	0x3e37134f	0.1787846
178	0x3e71ec31	0.23625256
179	0xbe51a0a2	-0.20471433
180	0x3d445b70	0.047938764
181	0x3e4393a5	0.1909929
182	0x3e05642f	0.13026498
183	0xbd50753a	-0.050893046
184	0x3c4858cd	0.012228203
185	0x3e029b75	0.12754615
186	0x3df963fa	0.12177272
187	0x3c208735	0.009797861
188	0xbd820031	-0.06347693
189	0xbc049d36	-0.008094123
190	0xbd177d23	-0.036984574
191	0xbd1a02a3	-0.03760017
192	0x3e3c0c26	0.1836401
193	0x3e81b392	0.25332314
194	0x3d813279	0.06308455
195	0xbd84f607	-0.064922385
196	0xbb72f015	-0.003706937
197	0x3d3e5d1b	0.04647551
198	0x3e1e3360	0.15449286
199	0x3e3ccd23	0.18437628
200	0xbe3c7ba1	-0.18406536
201	0xbe6120f6	-0.2198523
202	0x3cc67fe1	0.0242309
203	0x3dae64b6	0.08515303
204	0x3dfe13ce	0.12406121
205	0xbdbf8700	-0.09351921
206	0xbed0b9b6	-0.40766686
207	0xbf0062d8	-0.50150824
208	0xbe6b6fb6	-0.22991833
209	0x3dab13ed	0.0835341
210	0x3e96dbf0	0.29464674
211	0x3d42c3de	0.047550075
212	0xbec78a0a	-0.38972503
213	0xbeb49795	-0.35271898
214	0xbe74293e	-0.23843858
215	0x3eb70bfe	0.35751337
216	0x3e66e437	0.22547995
217	0xbcd8df8e	-0.026473787
218	0xbd99673d	-0.07490394
219	0xbe98fded	-0.2988123
220	0x3c2807b3	0.010255742
221	0x3eb5b828	0.35492063
222	0x3de624a0	0.112374544
223	0x3dbd75fb	0.092510186
224	0xbe59b945	-0.21262081
225	0x3e7bf55d	0.24605317
226	0x3e917980	0.2841301
227	0x3e7d5101	0.24737932
228	0x3d8328c3	0.06404259
229	0x3cd13cb8	0.025541648
230	0xbcabd393	-0.02097491
231	0x3ea445fe	0.3208465
232	0x3e999cb7	0.30002376
233	0x3ec47efd	0.38378134
234	0x3e9a016f	0.3007922
235	0x3db76a16	0.08955781
236	0x3cdf970f	0.02729371
237	0xbe061453	-0.1309369
238	0xbdde7d49	-0.1086374
239	0xbdee873d	-0.116468884
240	0xbddba161	-0.1072414
241	0xbe9cb327	-0.30605432
242	0xbe7b9b64	-0.24570996
243	0xbe79fb1b	-0.24412195
244	0xbe098f53	-0.1343358
245	0xbed27172	-0.41102177
246	0xbeb2fbb7	-0.34957668
247	0xbde27618	-0.11057681
248	0xbe01e63e	-0.12685487
249	0xbb9a2ec6	-0.004705283

conv1.bias f4 [10]
0	0x3c0a8b2d	0.008456034
1	0xbd120d16	-0.03565701
2	0xbc2b3899	-0.010450506
3	0xbdb139b2	-0.08653583
4	0x3c645f39	0.0139387185
5	0xbd904bd3	-0.07045712
6	0x3e106a9a	0.14103165
7	0xbc37254d	-0.011178327
8	0x3df7bbd0	0.12096369
9	0x3dee1ac3	0.11626198

conv2.weight f4 [20, 10, 5, 5]
0	0x3cdb5820	0.02677542
1	0xbdad0491	-0.084481366
2	0xbc4b1243	-0.012394491
3	0xbd8fb476	-0.07016842
4	0xbce4571d	-0.02787357
5	0x3d8bd932	0.06828536
6	0xbc23547a	-0.009968871
7	0xbc996c71	-0.018728467
8	0xbd00b4da	-0.031422473
9	0xbd254735	-0.04035111
10	0x3d7c19a4	0.06154789
11	0xbd388738	-0.04505083
12	0x3d40a58a	0.04703287
13	0x3d87faee	0.06639658
14	0x3de4994a	0.1116205
15	0xbc98bcca	-0.01864471
16	0xbdd9bb49	-0.10631425
17	0xbd22431e	-0.03961479
18	0x3caf246c	0.021379672
19	0xbd05f4d5	-0.032704193
20	0xbd1af134	-0.037827685
21	0xbe057bd3	-0.13035516
22	0xbe0229e7	-0.12711297
23	0xbdfc5031	-0.12319983
24	0xbd50bd46	-0.050961755
25	0xbc856fa0	-0.016288579
26	0xbd525a33	-0.051355552
27	0x3d16f502	0.03685475
28	0x3d7ab7a2	0.061210282
29	0x3bc154a7	0.005899984
30	0x3bf0d390	0.007349439
31	0x3ba187c3	0.004929514
32	0xbd2f2272	-0.04275746
33	0xbcbd10f1	-0.023079367
34	0x3da7a85e	0.0818641
35	0xbd01f000	-0.031723022
36	0xbc7cccf5	-0.015429725
37	0x3c6a286d	0.014291865
38	0x3d35df9a	0.044402696
39	0x3d8731e3	0.06601312
40	0xbd0cd748	-0.034384996
41	0xbde320c0	-0.11090231
42	0xbdf85d0b	-0.121271215
43	0xbdb663cc	-0.089057535
44	0xbcb7445e	-0.022371467
45	0x3da64efe	0.08120535
46	0xbd00bf18	-0.03143224
47	0xbcab4315	-0.02090601
48	0xbd4807a0	-0.048835397
49	0xbd5ca8c0	-0.05387187
50	0x3c0d36be	0.008619009
51	0x3cfb22e5	0.030656287
52	0xbcfb4d56	-0.030676525
53	0xbb7b3b20	-0.0038334802
54	0x3dbc5d84	0.09197524
55	0xbcc609b0	-0.024174541
56	0x3d3ba350	0.045810044
57	0x3d8e071e	0.06934951
58	0xbd4347ac	-0.047675774
59	0x3d43ef52	0.047835656
60	0xbd9da316	-0.07697122
61	0xbd718c59	-0.058971737
62	0xbcefc8b0	-0.0292705
63	0xbdc37afb	-0.09544941
64	0xbdd6a0d6	-0.10479896
65	0xbd528d85	-0.051404495
66	0xbd98a0e8	-0.074525654
67	0xbe38d72e	-0.18050835
68	0xbe58524d	-0.21125145
69	0xbe0277ff	-0.12741087
70	0x3d6ef2be	0.058336966
71	0x3cfb4ae6	0.030675363
72	0xbdbd9c4f	-0.09258329
73	0xbdf9d2f4	-0.12198439
74	0x3d6ee8e3	0.058327567
75	0xbdd70b43	-0.10500195
76	0xbda01f6a	-0.07818492
77	0x3cb0a7c5	0.021564374
78	0xbc76d2b4	-0.015064884
79	0x3cffa91c	0.031208567
80	0xbd8bf069	-0.06832964
81	0xbcd0a0f7	-0.025467379
82	0xbd83c4eb	-0.064340435
83	0xbd7aaac7	-0.061198022
84	0xbdb8488b	-0.089982115
85	0xbdaae0aa	-0.083436325
86	0x3d752b13	0.059855532
87	0xbc2a11f3	-0.010380256
88	0xbd4a3ced	-0.04937451
89	0xbd3d458c	-0.046208903
90	0xbd7c16ec	-0.061545298
91	0x3d37426e	0.044741087
92	0x3da67ebd	0.08129642
93	0x3d478c2b	0.04871766
94	0xbdc6cd66	-0.097071454
95	0xbdfefcb7	-0.12450545
96	0xbd98e67b	-0.07465836
97	0xbdacbce6	-0.08434467
98	0xbb73ca35	-0.0037199382
99	0x3ddd2ab2	0.10799159
100	0x3c40e4fb	0.011773343
101	0xbcb5246b	-0.022112092
102	0xbdad315b	-0.084566794
103	0xbcc34e60	-0.023841083
104	0x3c40f7a8	0.011777796
105	0x3d089451	0.03334457
106	0xbd0b66ea	-0.034033693
107	0xbe025852	-0.12729004
108	0xbe2725b0	-0.1632297
109	0xbd2a78d4	-0.041619137
110	0x3dbc40ec	0.0919207
111	0x3bc86540	0.0061155856
112	0xbdc54e2e	-0.09634052
113	0xbde88b99	-0.11354751
114	0xbdc04207	-0.09387594
115	0x3d07ba19	0.03313646
116	0x3d81920b	0.063266836
117	0x3de79a4f	0.11308729
118	0x3d452d79	0.04813907
119	0xbc922cba	-0.017843593
120	0x3db82b9b	0.08992692
121	0x3ce482c3	0.027894383
122	0x3dee0cac	0.11623511
123	0x3df8ed6d	0.121546604
124	0x3de5d63e	0.11222504
125	0xb820b940	-3.83195e-05
126	0xbd365e96	-0.044523798
127	0x3b157392	0.002280448
128	0x3d674bd8	0.056468815
129	0x3d5c0883	0.053719055
130	0x3bdb033f	0.0066837366
131	0x3ccf20e5	0.02528424
132	0x3e114fb7	0.14190565
133	0x3e0f8509	0.14015593
134	0x3e1028eb	0.14078109
135	0xbd0001a8	-0.03125158
136	0xbd16386a	-0.036674894
137	0x3da446d4	0.08021322
138	0x3dfc2086	0.12310891
139	0x3d950f94	0.07278362
140	0x3d323de0	0.04351604
141	0x3d7b1723	0.06130136
142	0xbd6fe6ca	-0.058569707
143	0xbac1bfae	-0.0014781856
144	0xbdc5e8c7	-0.096635394
145	0x3d302ca3	0.04301132
146	0x3d7da856	0.061928116
147	0x3ddc8de3	0.1076925
148	0x3dd83a9f	0.10558056
149	0x3cea8685	0.028628597
150	0xbd720de6	-0.059095286
151	0xbcef707b	-0.02922844
152	0x3d113110	0.03544718
153	0x3cf04a29	0.029332237
154	0x3d8c8cc1	0.06862784
155	0xbd5ce283	-0.053926956
156	0xbbbb7393	-0.0057205646
157	0x3d51775e	0.051139228
158	0xbcd9140c	-0.026498817
159	0x3cb1fabd	0.021726007
160	0xbb21dd70	-0.0024698637
161	0x3b6ce7bf	0.0036148874
162	0xbcef5c72	-0.029218886
163	0x3d62c088	0.055359393
164	0x3e0aa179	0.1353816
165	0xbcaffb16	-0.021482032
166	0xbd8d6ccb	-0.06905516
167	0xbdf29be6	-0.118461415
168	0xbda3b844	-0.0799413
169	0x3d0e2ccf	0.0347107
170	0x3d2bfad3	0.04198725
171	0xbd5af58b	-0.053456824
172	0xbdfed468	-0.12442857
173	0xbd64acd7	-0.055828895
174	0xbdcbf6e3	-0.09959199
175	0x3d085a77	0.0332894
176	0xbd3ca68c	-0.04605727
177	0xbd117021	-0.035507325
178	0xbb278ac5	-0.002556489
179	0x3c1ebcb0	0.009688541
180	0xbca177d4	-0.019710459
181	0x3d6db956	0.05803808
182	0xbb90e9c8	-0.0044224
183	0x3dad0755	0.08448664
184	0x3dc0e68c	0.09418973
185	0xbd7cf5f2	-0.06175799
186	0xbd575cd0	-0.052578747
187	0x3d122f10	0.035689414
188	0x3dc0544f	0.093910806
189	0x3d0d4853	0.034492802
190	0xbd909d19	-0.07061214
191	0xbe33e763	-0.17568736
192	0xbe1fd824	-0.15609795
193	0xbcee9435	-0.029123405
194	0x3d12b2b7	0.035814967
195	0xbc828e00	-0.015936852
196	0xbdbac462	-0.09119488
197	0xbc8a356f	-0.016871182
198	0xbd6c1c13	-0.05764396
199	0xbdd98b80	-0.10622311
200	0xbd397692	-0.045279093
201	0xbc0fa82e	-0.0087681245
202	0x3d09e468	0.03366509
203	0xbdc33b62	-0.09532811
204	0x3ca99807	0.020702375
205	0xbd71bae5	-0.059016127
206	0xbcd496f9	-0.025950896
207	0x3d4e3082	0.05033923
208	0x3d9d964c	0.076946825
209	0x3dc74af2	0.097310916
210	0x3d9c8168	0.0764187
211	0x3dc9ddd2	0.09856762
212	0x3dfbdb4b	0.12297686
213	0x3d59a217	0.053133097
214	0x3d45a88a	0.048256435
215	0x3e35a997	0.17740475
216	0x3dd23655	0.10264269
217	0x3cd1be59	0.02560346
218	0xbc8856c5	-0.016642937
219	0xbc686a76	-0.0141855385
220	0x3e3e9da6	0.18614826
221	0x3e267669	0.16256107
222	0x3da34508	0.07972151
223	0x3cfbaf13	0.03072313
224	0xbd9fc829	-0.078018494
225	0xbd589257	-0.052873936
226	0xbcddafbe	-0.02706134
227	0xbd9e8ccb	-0.07741698
228	0xbb1c5638	-0.0023855101
229	0x3c4ce3fe	0.012505529
230	0xbbaa05aa	-0.0051886635
231	0x3cb2b676	0.02181552
232	0x3d45e556	0.048314415
233	0x3d6303d2	0.055423565
234	0x3d471c40	0.048610926
235	0xbbc42f5b	-0.0059870905
236	0x3d49d67b	0.04927681
237	0x3db99627	0.090618424
238	0x3ceeecd7	0.029165668
239	0x3d4013d5	0.046893913
240	0x3c2c88a6	0.010530626
241	0x3d2bb427	0.041919854
242	0x3e17e436	0.1483315
243	0x3e4b7dc5	0.19872196
244	0x3e44b629	0.19210114
245	0x3da5e817	0.08100908
246	0xbbd123ce	-0.006382442
247	0x3c3a6118	0.011375688
248	0xbd127b52	-0.03576214
249	0xbc3abd66	-0.011397695
250	0xbbbbd8e9	-0.005732645
251	0xbd80ee65	-0.0629547
252	0x3c48b621	0.012250454
253	0xbd6a2697	-0.05716571
254	0xbda4f089	-0.08053691
255	0xbd39832c	-0.04529111

conv2.bias f4 [20]
0	0x3d909dac	0.070613235
1	0xbd2cd52b	-0.04219548
2	0xbca53d85	-0.020170936
3	0xbd90a9d5	-0.07063643
4	0xbd2c4f42	-0.042067774
5	0x3c21c56f	0.009873732
6	0x3d6a23c0	0.057163
7	0xbd7044e2	-0.05865944
8	0x3bc688dc	0.0060587954
9	0xbd8424ce	-0.064523324
10	0x3c929031	0.017891021
11	0x3d36be7f	0.044615265
12	0xbd0d61e1	-0.034517173
13	0xbb960bb6	-0.004579033
14	0x3d5abf7f	0.05340528
15	0xbd1504ee	-0.036381654
16	0xbd0409c8	-0.03223589
17	0xbd0205e1	-0.031743888
18	0x3d20b7c1	0.03923774
19	0x3c82cc10	0.015966445

fc1.weight f4 [50, 320]
0	0xbc417a65	-0.011808966
1	0x3d3367b3	0.043800067
2	0x3d1389d9	0.036020134
3	0x3ccb9aa4	0.024854012
4	0xbd868871	-0.06568993
5	0xbdb10e8c	-0.08645353
6	0x3cc28c8c	0.023748659
7	0x3c661f2b	0.014045517
8	0xbdf002fb	-0.117193185
9	0xbd542004	-0.051788345
10	0xbda6f07c	-0.081513375
11	0x3c9d78d9	0.019222664
12	0x3cd2eb67	0.025747014
13	0x3d63d85b	0.055626255
14	0x3d01eb7f	0.031718727
15	0x3e1bf77b	0.15231125
16	0x3cd630f0	0.026146382
17	0x3c8ec06f	0.017425744
18	0xbda28f26	-0.0793746
19	0xbd7dd919	-0.06197462
20	0xbc5778c4	-0.013151351
21	0xbd734e2d	-0.059400726
22	0xbd9a9a86	-0.07549004
23	0xbc0f08a0	-0.008730084
24	0xbc80f4b7	-0.01574169
25	0x38d73912	0.00010262629
26	0xbcd9b3ba	-0.026574958
27	0x3d274389	0.04083589
28	0xbc6ceb69	-0.014460423
29	0x3c8e15ff	0.017344473
30	0x3dc855b5	0.09781972
31	0x3d317eed	0.043333936
32	0x3bcb0b2c	0.0061964
33	0x3d38500c	0.044998214
34	0x3dd3510f	0.10318195
35	0x3d05b554	0.03264363
36	0xbd4cedcd	-0.050031472
37	0xbcb7fb36	-0.022458654
38	0x3c660e8f	0.014041557
39	0x3dcf6db6	0.101283476
40	0x3d8c5f44	0.06854108
41	0x3ca7945a	0.020456482
42	0xbc13b90e	-0.009016288
43	0x3c5332c5	0.012890522
44	0xbd0d95db	-0.03456674
45	0x3cab4449	0.020906584
46	0xbddd379b	-0.108016215
47	0xbe1e3e1c	-0.1545338
48	0x3d870dfe	0.06594466
49	0x3d9735e8	0.07383329
50	0x3e05deb2	0.13073233
51	0xbd14176a	-0.036155142
52	0x3d88865a	0.066662505
53	0x3c813b0d	0.015775228
54	0x3e094fa8	0.13409293
55	0xbd272177	-0.0408034
56	0xbd9510c2	-0.07278587
57	0xbb748259	-0.0037309139
58	0x3b8234a0	0.0039735585
59	0xbd441429	-0.04787079
60	0xbdbd7589	-0.09250934
61	0xbcab8e91	-0.020942004
62	0xbdb7c62c	-0.08973345
63	0xbd2a8293	-0.04162843
64	0x3d8309db	0.06398364
65	0x3defd481	0.11710454
66	0x3e0d6199	0.13806762
67	0x3d338ea4	0.043837205
68	0x3d7c85a1	0.061650876
69	0x3d605a04	0.054773346
70	0x3cd540bd	0.026031846
71	0xbd10f0c3	-0.03538586
72	0xbd4ac3f9	-0.0495033
73	0x3ce44f35	0.0278698
74	0x3d16b0a1	0.03678954
75	0xbca05edd	-0.019576484
76	0x3d0d80f8	0.034546822
77	0x3d823136	0.063570425
78	0xbd0e5cda	-0.03475652
79	0xbd1d0a61	-0.038339976
80	0x3d853786	0.06504731
81	0x3de9f53b	0.11423727
82	0x3dc8d7d9	0.09806795
83	0xbd68ea47	-0.05686405
84	0x3d7326e5	0.059363265
85	0x3cf0c68a	0.029391546
86	0xbd8536cb	-0.065045916
87	0xbdcf3bf0	-0.10118854
88	0xbda5d9ff	-0.0809822
89	0xbd39ebdd	-0.045390952
90	0x3ce41773	0.027843213
91	0x3c3c35cf	0.011487438
92	0x3d6b704a	0.057480134
93	0x3dc96c81	0.098351486
94	0x3d0f303d	0.034958113
95	0xbdbc87b6	-0.09205572
96	0xbd39770a	-0.04527954
97	0x3c8305d5	0.015993992
98	0x3d4c4148	0.049866945
99	0x3c760d8a	0.015017876
100	0x3d7ccfab	0.061721485
101	0x3db2409d	0.0870373
102	0xbd1d47ad	-0.038398433
103	0x3d732a83	0.059366714
104	0x3d11143f	0.0354197
105	0x3d0e2d32	0.03471107
106	0xbd0eaa6f	-0.034830507
107	0xbc97042b	-0.018434605
108	0x3d33d337	0.043902602
109	0x3d89818c	0.06714162
110	0x3c869af2	0.016431306
111	0xbda96765	-0.08271674
112	0xbd03073f	-0.031989332
113	0xbd2da658	-0.042394966
114	0x3d2e707d	0.042587746
115	0xbccd4c67	-0.025060846
116	0xbd4616ba	-0.048361517
117	0x3cda7a6f	0.026669709
118	0x3d73e2d2	0.059542485
119	0x3c088d4a	0.008334467
120	0x3d099d97	0.033597555
121	0x3d189ac0	0.037256956
122	0x3d8252c2	0.06363441
123	0xbc4a5d4f	-0.012351348
124	0xbc85d274	-0.016335703
125	0xbda82573	-0.08210268
126	0xbd008116	-0.031373106
127	0x3c7db7af	0.015485688
128	0xbd5e84ba	-0.054325797
129	0x3d178724	0.036994115
130	0x3ca3ab2c	0.019979082
131	0x3b913314	0.004431138
132	0x3d08679e	0.033301942
133	0x3bc12e86	0.0058954386
134	0x3cfc66ef	0.030810801
135	0xbb953409	-0.004553322
136	0xbd1b331f	-0.03789055
137	0xbdcecf40	-0.100981236
138	0xbdafd782	-0.08586027
139	0xbc3f1ca5	-0.011664544
140	0x3be01689	0.006838624
141	0xbd73bab7	-0.059504237
142	0x3d23bf66	0.039977454
143	0x3dc7c644	0.09754613
144	0xbd78c814	-0.060737684
145	0x3be663f0	0.0070309564
146	0xbc256690	-0.010095254
147	0xbcdf2dcb	-0.027243515
148	0xbd62aeb5	-0.055342395
149	0x3bc118ad	0.005892834
150	0x3be3624d	0.0069392086
151	0xbd9dba83	-0.0770159
152	0xbcc1dd9a	-0.023665238
153	0x3c39a8f5	0.011331786
154	0x3d16c665	0.036810298
155	0xbd520a7f	-0.05127954
156	0x3d77cfc4	0.060500875
157	0x3df566a0	0.11982465
158	0x3cf6c58c	0.030123495
159	0xbc5bc1a1	-0.013412864
160	0xbda54e7b	-0.080716096
161	0xbd6c3f71	-0.05767769
162	0xbd11d1c4	-0.03560044
163	0xbd2766f6	-0.040869676
164	0xbda1cff2	-0.079009905
165	0xbd58660b	-0.05283169
166	0xbd5c65ad	-0.053807903
167	0xbd00617a	-0.03134296
168	0xbc2323d1	-0.00995727
169	0x3cbe8864	0.023258395
170	0xbb407bcf	-0.002937067
171	0x3cb10496	0.021608632
172	0x3c80bed5	0.015715996
173	0x3d33312a	0.04374806
174	0x3d8f0a8a	0.06984432
175	0x3e1148ac	0.14187878
176	0x3c92b583	0.017908817
177	0x3cea1157	0.028572721
178	0x3dda65cd	0.10663948
179	0xbdaeae8e	-0.085293874
180	0xbd0cf4c7	-0.034413125
181	0xbd0aaa8a	-0.033854045
182	0xbd4122c5	-0.0471523
183	0xbcdf4eb8	-0.027259216
184	0x3d2a214c	0.04153566
185	0x3c95dc50	0.01829353
186	0x3c84d9d7	0.016217155
187	0x3d122f4f	0.03568965
188	0xbd172e20	-0.036909223
189	0xbbc83fb9	-0.006111112
190	0xbd8b10da	-0.067903236
191	0x3c2481ef	0.010040744
192	0x3d124080	0.035706043
193	0x3cb5d8d9	0.022198128
194	0xbbd84731	-0.0066002836
195	0xbd3ebe99	-0.046568487
196	0x3b225f38	0.0024775993
197	0x3c7c411e	0.0153963845
198	0xbc27d51c	-0.01024368
199	0x3d2e2822	0.042518742
200	0x3c99a29a	0.018754292
201	0xbc0f6dfa	-0.008754248
202	0x3cb4fc24	0.022092886
203	0x3d198aec	0.037486
204	0xbd08478c	-0.033271357
205	0x3c472b7b	0.012156363
206	0xbd689bf1	-0.056789342
207	0xbca517e0	-0.020152986
208	0xbcc54261	-0.024079503
209	0x3d9b85d9	0.07593889
210	0x3ce40d85	0.027838478
211	0x3cb5989e	0.0221675
212	0xbd784ac4	-0.060618177
213	0x3d2288b4	0.03968115
214	0x3d7a2faa	0.061080612
215	0x3b4e22d6	0.003145387
216	0x3d05a2ce	0.032625966
217	0x3d8dec62	0.06929852
218	0x3c890d03	0.016729837
219	0xbd382397	-0.044955816
220	0xbd6367b6	-0.05551883
221	0x3d2fa06a	0.042877592
222	0xbc8eef2a	-0.017448027
223	0xbe2b98a1	-0.16757442
224	0x3d044655	0.032293636
225	0x3c140713	0.00903489
226	0x3d82186b	0.063523136
227	0x3cd240d8	0.025665686
228	0x3dcf4b7f	0.101218216
229	0x3d722a80	0.059122562
230	0x3dfbe5b0	0.12299669
231	0x3c1d3f41	0.0095976
232	0x3da8acf3	0.082361124
233	0x3dd5b1ed	0.10434327
234	0x3c523fe2	0.012832614
235	0xbd903493	-0.07041278
236	0xbc1b438f	-0.009476556
237	0x3d775409	0.060382877
238	0x3cb838b0	0.022487968
239	0xbd67983f	-0.056541678
240	0x3b11e3cc	0.0022261022
241	0xbbf5ed16	-0.0075050695
242	0xbbb44423	-0.0055012866
243	0xbc37dcf4	-0.011222113
244	0x3cc2b18a	0.023766298
245	0x3d3cfeec	0.04614155
246	0x3c8e9468	0.01740475
247	0xbd6a43a0	-0.0571934
248	0xbd88dcfe	-0.06682776
249	0xbd317797	-0.04332694
250	0xbd42c1d5	-0.047548134
251	0xbd69470b	-0.056952517
252	0xbdbf707d	-0.09347627
253	0xbc3b618d	-0.011436832
254	0x3de6efdb	0.112762176
255	0x3df42b26	0.119222924

fc1.bias f4 [50]
0	0x3d355490	0.0442701
1	0x3c27b2c5	0.010235493
2	0x3dca67fd	0.098831154
3	0x3d0c7a3d	0.034296263
4	0x3d19d905	0.03756048
5	0x3c879ac6	0.016553294
6	0x3da6e317	0.08148783
7	0xbbbabdab	-0.0056988797
8	0x3da5b665	0.080914296
9	0x3d14eeab	0.036360424
10	0x3d8ef013	0.06979384
11	0xbd4c1c73	-0.04983182
12	0xbbdf746a	-0.0068192976
13	0x3cae47f1	0.021274539
14	0xbc4c9ff7	-0.0124893105
15	0xbc22db15	-0.009939929
16	0xbd871177	-0.06595128
17	0x3d31b842	0.043388613
18	0x3d60d733	0.05489273
19	0x3b0e2cd7	0.0021694207
20	0x3d67b246	0.0565665
21	0x3d24a933	0.040200423
22	0x3d2cd079	0.042191003
23	0x3d13f1b2	0.03611917
24	0xbb500900	-0.0031743646
25	0x3b2ca175	0.0026341353
26	0x3d265dd7	0.040616836
27	0x3c7bb66e	0.015363319
28	0x3d50a05c	0.05093418
29	0x3d333aee	0.04375737
30	0x3d821574	0.06351748
31	0xbcca5b8d	-0.024701858
32	0x3d33f6d9	0.043936584
33	0x3cf74b57	0.030187292
34	0x3db3d62b	0.08781084
35	0x3c11afae	0.008891983
36	0xbb399f05	-0.0028323543
37	0xbd03056f	-0.031987604
38	0x3d2c5095	0.042069037
39	0x3d18ffc2	0.037353285
40	0x3cb5af9f	0.02217847
41	0x3d4b9be5	0.04970922
42	0xbbec672f	-0.007214449
43	0x3d952aee	0.07283579
44	0x3dc3a093	0.095521115
45	0xbb8e0190	-0.0043336824
46	0x3d2442e4	0.040102854
47	0x3ca147dd	0.019687587
48	0x3d994391	0.074835904
49	0x3b8ceb2d	0.004300496

fc2.weight f4 [10, 50]
0	0x3d9c3db7	0.07628959
1	0x3e14d8e2	0.14535859
2	0x3e134727	0.14382611
3	0xbe3b5d35	-0.18297274
4	0x3dc75339	0.0973267
5	0x3db45fe1	0.0880735
6	0xbe31301b	-0.17303507
7	0x3e23c2b1	0.15992238
8	0xbe091af0	-0.13389182
9	0xbe280b4a	-0.16410556
10	0x3de8199c	0.113330096
11	0x3da5e050	0.08099425
12	0xbe6ce2b3	-0.23133354
13	0xbe057b42	-0.130353
14	0xbe143818	-0.14474523
15	0x3e1f07f4	0.15530378
16	0x3c996d07	0.018728746
17	0xbe20f20a	-0.1571733
18	0xbdb0f7c7	-0.0864101
19	0x3e1d33da	0.15351811
20	0x3c049fd1	0.008094744
21	0x3e1a6e5a	0.15081158
22	0xbe5c8d45	-0.21538265
23	0xbc6e6305	-0.014549975
24	0xbe13ee8e	-0.1444647
25	0xbdce99af	-0.100879066
26	0xbe357229	-0.1771933
27	0xbdce59f1	-0.10075749
28	0xbe74e191	-0.23914172
29	0xbe5bc982	-0.21463588
30	0x3dc67a72	0.09691323
31	0x3dda2ec4	0.10653451
32	0xbe61fcb6	-0.22069058
33	0xbe144d62	-0.14482644
34	0xbe09a269	-0.13440861
35	0x3ddcdc2e	0.107841834
36	0xbe529681	-0.20565225
37	0x3dc8f904	0.09813121
38	0xbdd5b08a	-0.10434063
39	0x3d46f230	0.04857081
40	0xbdab320e	-0.083591565
41	0xbe31a1ba	-0.1734685
42	0x3df55c3d	0.11980484
43	0x3e21d339	0.15803231
44	0xbe3819f7	-0.17978655
45	0x3de81735	0.113325514
46	0x3da596f3	0.08085432
47	0x3e17eab2	0.14835623
48	0xbe17bbb1	-0.14817692
49	0x3dfa1221	0.12210489
50	0x3dcb709b	0.09933587
51	0x3dd0c647	0.101940684
52	0x3c927c7b	0.017881623
53	0x3e3826e2	0.17983583
54	0xbe1729b5	-0.14762004
55	0xbd8cce6c	-0.06875309
56	0x3c9e183a	0.019298662
57	0xbe0614bd	-0.13093849
58	0x3e11ab3f	0.14225481
59	0x3e1bc64b	0.15212362
60	0xbdfa1197	-0.12210386
61	0xbe330ce1	-0.17485382
62	0x3df53f81	0.11975003
63	0xbdee0f31	-0.11623991
64	0xbde5b102	-0.11215402
65	0xbb51b52d	-0.0031998858
66	0xbdbd6500	-0.0924778
67	0xbdea4a32	-0.11439933
68	0x3dab85ab	0.083751045
69	0xbe279355	-0.16364796
70	0xbe45f1db	-0.19330542
71	0xbb416643	-0.0029510416
72	0xbdcbff58	-0.09960812
73	0xbdb6e19e	-0.08929752
74	0x3a38c987	0.0007049073
75	0x3d56ed05	0.052472133
76	0xbe079f06	-0.13244256
77	0x3dfd7591	0.1237594
78	0x3d6cc688	0.05780652
79	0x3d48229a	0.048861124
80	0x3e013f14	0.12621719
81	0xbe277656	-0.16353735
82	0x3ca3d943	0.02000106
83	0x3d5a69a3	0.0533234
84	0x3dd9c7bc	0.106337994
85	0xbe4e541d	-0.20149274
86	0xbd8945f0	-0.06702793
87	0xbe690aca	-0.22758022
88	0x3d67cedd	0.056593765
89	0x3da52620	0.080639124
90	0xbe639926	-0.2222639
91	0xbe31d407	-0.17366038
92	0xbe12b94e	-0.143285
93	0x3df80b75	0.1211156
94	0x3de8f7ee	0.11375414
95	0x3dcd2f7d	0.10018823
96	0xbe82ded2	-0.25560623
97	0x3e20f31a	0.15717736
98	0x3e2892f8	0.16462314
99	0xbe20049f	-0.15626763
100	0x3e03b114	0.12860519
101	0xbd85df14	-0.065366894
102	0x3e25ccfe	0.1619148
103	0xbd091806	-0.033470176
104	0xbe2bb097	-0.16766582
105	0xbe0e4054	-0.13891727
106	0x3dc06dc0	0.09395933
107	0xbd303371	-0.04301781
108	0xbe226afc	-0.15861124
109	0xbdbd6db6	-0.09249441
110	0x3e165fe4	0.14685017
111	0xbdbb4d6d	-0.09145627
112	0xbe02c347	-0.12769805
113	0xbe0570fc	-0.13031381
114	0xbd00ecc6	-0.031475805
115	0xbdaef625	-0.08543042
116	0xbd86855e	-0.065684065
117	0x3b38c634	0.002819431
118	0x3ccd14be	0.025034305
119	0x3e1b7613	0.1518176
120	0xbe3e90bd	-0.18609901
121	0xbc410be7	-0.011782623
122	0xbd35c71e	-0.044379346
123	0xbe231f1d	-0.15929838
124	0x3db27f55	0.08715693
125	0x3cf9f93d	0.030514354
126	0xbdb6ea98	-0.08931464
127	0xbd96c288	-0.07361323
128	0xbda21577	-0.0791425
129	0x3d397e06	0.0452862
130	0xbdd26631	-0.10273398
131	0x3d96b3f3	0.07358541
132	0xbe459de7	-0.19298516
133	0x3d5dcf5a	0.054152824
134	0x3dea845c	0.11451027
135	0x3d655f7f	0.055999275
136	0xbe06e51f	-0.1317334
137	0x3d9eca67	0.07753449
138	0xbdc240d6	-0.09485023
139	0xbbd0351d	-0.006353988
140	0x3da3522b	0.07974657
141	0x3d0ae9bb	0.03391431
142	0x3c9ca91a	0.019123603
143	0x3d966906	0.073442504
144	0x3de8baee	0.11363779
145	0xbd8672e4	-0.065648824
146	0x3d42787d	0.047478188
147	0x3e1a56c7	0.15072165
148	0x3e3c3f38	0.18383491
149	0x3dc53637	0.09629481
150	0xbdfcf7f3	-0.1235198
151	0x3cff2f2e	0.031150427
152	0x3e060e70	0.13091445
153	0xbe011b5b	-0.12608092
154	0xbc94bd7f	-0.018156765
155	0xbdea62c4	-0.11444619
156	0x3deb010c	0.11474809
157	0xbde8c6d4	-0.113660485
158	0xbcc022b6	-0.023454051
159	0xbe589b19	-0.21152915
160	0xbda1a7c9	-0.078933306
161	0x3dc241e6	0.094852254
162	0xbdbacbe1	-0.09120918
163	0x3e03d5a8	0.12874472
164	0xbde08dd5	-0.10964552
165	0xbda68554	-0.08130899
166	0xbc62f13d	-0.013851461
167	0x3e27714a	0.1635181
168	0x3e0c45d9	0.1369852
169	0x3dff9c32	0.12480964
170	0xbe313e10	-0.17308831
171	0xbc6a618d	-0.0143054845
172	0xbd9c3e18	-0.07629031
173	0xbe264d40	-0.16240406
174	0x3dafb846	0.08580069
175	0x3caeb92d	0.021328533
176	0x3e038e12	0.12847164
177	0x3e3049b2	0.17215613
178	0xbd9f7f65	-0.077879705
179	0x3d3fa960	0.046792388
180	0xbd897af0	-0.067129016
181	0x3df64c95	0.120263256
182	0x3d892dae	0.06698166
183	0x3d57b604	0.052663818
184	0xbe00f863	-0.12594752
185	0x3d1ffff9	0.039062474
186	0x3d56c72e	0.052436046
187	0xbc7241f3	-0.014786231
188	0xbd8a81a1	-0.06763006
189	0x3da535a8	0.08066875
190	0xbe0312f4	-0.12800199
191	0xbdaca95d	-0.08430741
192	0xbd03355e	-0.032033317
193	0xbde967f6	-0.11396782
194	0xbb846572	-0.0040404135
195	0xbdb09592	-0.08622278
196	0xbe1dfc76	-0.15428337
197	0xbd8fd44d	-0.07022915
198	0x3daad547	0.08341461
199	0x3d9fe9c5	0.0780826
200	0xbd6aa651	-0.057287518
201	0xbde10ca5	-0.1098874
202	0xbe476ef5	-0.1947592
203	0xbdcc3b20	-0.09972215
204	0xbd8336a9	-0.0640691
205	0x3e1d816c	0.15381402
206	0xbe0f1298	-0.13971937
207	0xbd35f0a5	-0.04441895
208	0x3e15edae	0.14641449
209	0x3dd57694	0.104230076
210	0x3dcf2ba9	0.101157494
211	0x3d9d842a	0.07691224
212	0x3e11b2d9	0.14228381
213	0xbce18e1a	-0.02753358
214	0xbe30dc6b	-0.17271583
215	0xbded9a63	-0.116017126
216	0x3d7d38ed	0.061821867
217	0xbe07b7ba	-0.1325368
218	0x3e0b4381	0.1359997
219	0xbdeae434	-0.114693075
220	0x3bd8a743	0.006611736
221	0x3e19b116	0.15008959
222	0xbe16bdb2	-0.147208
223	0x3db07bcb	0.08617362
224	0x3dbd4a56	0.09242694
225	0xbe3c3f0a	-0.18383422
226	0x3c529df7	0.012855045
227	0xbe28fa23	-0.1650167
228	0x3e1341a3	0.14380507
229	0x3d0f469b	0.034979444
230	0xbd6607cf	-0.05615979
231	0xbdb25d90	-0.08709252
232	0x3ca2e814	0.019886054
233	0xbd82794c	-0.06370792
234	0x3de2364d	0.11045513
235	0xbdff2269	-0.12457735
236	0x3de088d3	0.10963597
237	0xbe095a74	-0.13413411
238	0x3e1ac1e5	0.15113027
239	0xbe0665b9	-0.13124742
240	0x3d8da9da	0.06917162
241	0x3e03059c	0.12795109
242	0xbd82504a	-0.0636297
243	0xbe0489a3	-0.12943129
244	0xbdef175d	-0.11674378
245	0x3d75e83d	0.060035933
246	0x3c5aaa5d	0.013346282
247	0x3d9ce378	0.07660574
248	0xbe347bf3	-0.17625408
249	0xbda79226	-0.081821725
250	0xbdb88019	-0.09008808
251	0x3e088dbf	0.13335322
252	0x3d96f612	0.07371153
253	0xbc9b1052	-0.01892868
254	0x3deb4167	0.11487084
255	0xbe0cda7c	-0.1375522

fc2.bias f4 [10]
0	0x3d1a2494	0.03763254
1	0xbc6ac004	-0.014328007
2	0xbd4eca79	-0.05048606
3	0xbc5786b7	-0.013154677
4	0x3ccb9b63	0.024854368
5	0x3dd50588	0.104014456
6	0x3e078a1b	0.13236277
7	0xbdb1cffd	-0.08682249
8	0x3d1306ea	0.035895266
9	0xbe2180e3	-0.15771823

exp_avg f4 [10, 1, 5, 5]
0	0x3a949c68	0.0011338117
1	0x3a43f922	0.00074757833
2	0x3b693070	0.003558185
3	0x3b630882	0.0034642522
4	0x3b8f5b68	0.00437491
5	0x3b0eedee	0.0021809298
6	0x3a47c9c3	0.00076213124
7	0x3b40995e	0.002938829
8	0x3b1f2f59	0.0024289696
9	0x3b1d0af2	0.0023962823
10	0x3a2684f7	0.0006352211
11	0x3ac2e4d8	0.0014869226
12	0x3b87993e	0.004138141
13	0x3b6ea507	0.0036414282
14	0x3adc05cd	0.0016786397
15	0x3afb5942	0.0019176381
16	0x3adbebd5	0.0016778657
17	0x3b7af408	0.0038292427
18	0x3b22ed05	0.0024860513
19	0x3aea4368	0.0017872872
20	0x3b3cc321	0.002880283
21	0x3ad7a072	0.0016451015
22	0x3b5fb04d	0.0034132183
23	0x3b1850a4	0.0023241425
24	0x3b344c0e	0.0027511152
25	0x3b5181f2	0.0031968323
26	0x3b143a83	0.0022617884
27	0x3a980aee	0.0011599937
28	0x3b38a988	0.002817722
29	0x3b441667	0.002992058
30	0x3aee50f9	0.0018182091
31	0xba963015	-0.0011458421
32	0xbab0b708	-0.0013482282
33	0x3a686854	0.0008865644
34	0x3a68f571	0.0008886671
35	0x398de9cf	0.00027067817
36	0xbb3ea3a7	-0.0029089244
37	0xbb0f6319	-0.0021879135
38	0xb997a12d	-0.0002892105
39	0xbafc76da	-0.0019261495
40	0xba0581c1	-0.0005092882
41	0xbb21c7af	-0.002468567
42	0xbb1d4662	-0.002399825
43	0xbb46a961	-0.003031336
44	0xbb5a81cb	-0.0033341523
45	0xb99dfccf	-0.0003013373
46	0xbb2eb133	-0.0026655912
47	0xbaf948df	-0.001901891
48	0xbb72f452	-0.0037071896
49	0xbb3a656f	-0.0028441807
50	0xbb367ae0	-0.0027844235
51	0xbb50e538	-0.0031874906
52	0xbb1a8ff0	-0.0023584329
53	0x3b3a8ea8	0.0028466377
54	0x3b876adc	0.0041326117
55	0xba963be1	-0.0011461937
56	0x390c1c9e	0.00013362101
57	0x3b9368b5	0.004498566
58	0x3c01f1cf	0.007931187
59	0x3bc19832	0.0059080357
60	0xbaa5179e	-0.001259554
61	0x3a9becfa	0.0011896186
62	0x3bd3b238	0.0064604543
63	0x3bc93604	0.0061404724
64	0x3b8cbb6c	0.0042948034
65	0x3b2ab301	0.0026046636
66	0x3bec704f	0.0072155367
67	0x3c1322dd	0.00898048
68	0x3b639d6e	0.0034731287
69	0x3b3e0cce	0.0028999331
70	0x3bf49a26	0.007464665
71	0x3c3453d7	0.011006317
72	0x3c1d73bb	0.009610112
73	0x3b8c2c41	0.0042777364
74	0x3b9796f0	0.0046261474
75	0x38a83bde	8.0220154e-05
76	0x398d7024	0.00026977167
77	0x3aaa4d2c	0.001299297
78	0xb980b0bb	-0.00024545737
79	0x3a8c813f	0.0010719671
80	0xbadfc59a	-0.001707244
81	0xbac0128f	-0.0014653968
82	0x3b21cd01	0.0024688842
83	0x3b426220	0.0029660538
84	0x3bb9d97c	0.005671678
85	0xbad314a4	-0.0016104174
86	0xb9d2f0fa	-0.00040233863
87	0x3b8325b6	0.004002298
88	0x3bcb4928	0.0062037893
89	0x3bc08f39	0.0058764485
90	0x3a0c389b	0.0005349011
91	0x3b42b42b	0.002970944
92	0x3c013a22	0.007887395
93	0x3c0a125e	0.008427231
94	0x3ba8a054	0.0051460657
95	0x3ad3ea72	0.0016167893
96	0x3ba866bf	0.0051392014
97	0x3beeb6c5	0.0072849714
98	0x3bef1f05	0.007297399
99	0x3b9f499f	0.0048610712
100	0x39763a3a	0.00023482079
101	0xb94a8ef9	-0.00019317483
102	0xb80ecb53	-3.40448e-05
103	0xba16e632	-0.00057563477
104	0xba962d5a	-0.0011457608
105	0xb98b7db4	-0.00026605802
106	0xba2fd4ed	-0.00067074486
107	0xba87a768	-0.0010349574
108	0xba5a1959	-0.0008319817
109	0xba735b03	-0.0009283276
110	0x3a4e194b	0.00078620453
111	0xb8d4c438	-0.00010145496
112	0xba134295	-0.00056175265
113	0xba2eb260	-0.0006664153
114	0xb99ff1e8	-0.00030507077
115	0xb9363ea8	-0.00017380214
116	0xb9d01af9	-0.00039692948
117	0x38884eeb	6.499685e-05
118	0xba2ca7aa	-0.0006586263
119	0xb7fd1119	-3.0167912e-05
120	0xba94b88f	-0.0011346507
121	0xb99e99af	-0.00030250612
122	0x392f41ad	0.00016713767
123	0x39a7b251	0.00031985578
124	0x3b29c9e6	0.0025907694
125	0x3b9bc180	0.0047532916
126	0x3b4c3b71	0.003116336
127	0x3b163580	0.0022920072
128	0x3b0e15d5	0.0021680493
129	0x3a4ff1f4	0.0007932477
130	0x3b765b4b	0.0037591036
131	0x3b85b87a	0.004080829
132	0x3b5465dd	0.0032409348
133	0x3b3381aa	0.0027390518
134	0xba685850	-0.0008863257
135	0x39e89bc8	0.00044366554
136	0x38cb1bf4	9.685001e-05
137	0xbb1b4e8c	-0.002369794
138	0xbba6540b	-0.0050759367
139	0xbbf9466f	-0.0076072733
140	0xbbe10030	-0.0068664774
141	0xbc14d985	-0.009085064
142	0xbc3beb47	-0.011469669
143	0xbc58cc43	-0.013232294
144	0xbc6db960	-0.014509529
145	0xbc52d83f	-0.01286894
146	0xbc4b2247	-0.012398309
147	0xbc57b0dc	-0.013164725
148	0xbc7df751	-0.015500859
149	0xbc60468f	-0.0136886975
150	0xba549482	-0.00081092876
151	0x39875d1d	0.0002581858
152	0xb9f5cbb9	-0.00046881827
153	0xbb397b0d	-0.0028302104
154	0xbb22d13d	-0.0024843954
155	0xb9ec229c	-0.00045039214
156	0xbad2fa19	-0.0016096263
157	0xbb20681f	-0.0024476124
158	0xbb7df2e2	-0.0038749506
159	0xbb2cfb02	-0.002639473
160	0xbab8e14f	-0.0014105233
161	0xbb4b3321	-0.0031005817
162	0xbb54c246	-0.0032464429
163	0xbb4ca65f	-0.0031227095
164	0xba071535	-0.00051530014
165	0xbb111dc1	-0.002214298
166	0xbb6699dd	-0.0035186925
167	0xbb6822be	-0.0035421099
168	0xbb45b33b	-0.0030166644
169	0xb9e202f4	-0.0004310828
170	0xba72ddd4	-0.00092646223
171	0xbb053c62	-0.002033018
172	0xbb41e371	-0.0029585029
173	0xbb0dfc01	-0.0021665099
174	0xba53ec9f	-0.00080842705
175	0x3bb89c17	0.0056338417
176	0x3bb325d8	0.005467158
177	0x3b95fd0a	0.0045772837
178	0x3b2a2d02	0.0025966768
179	0x3b3ef7fc	0.002913951
180	0x3b8b5da0	0.0042531043
181	0x3b81a055	0.0039558806
182	0x3b3d7461	0.0028908479
183	0x3af90068	0.0018997313
184	0x3b0116f6	0.0019697524
185	0x3b91c089	0.004448001
186	0x3b818a30	0.003953241
187	0x3b41a967	0.0029550435
188	0x3b164d52	0.002293427
189	0xb92852de	-0.00016052599
190	0x3b6cbfc0	0.0036125034
191	0x3b465ac2	0.0030266498
192	0x3a857df1	0.0010184628
193	0xbb32bb6b	-0.0027272354
194	0xbb85815a	-0.004074258
195	0x3aba9223	0.0014234226
196	0x3a59700e	0.00082945905
197	0xbae1d9bf	-0.0017231031
198	0xbb7b512b	-0.003834794
199	0xbb702315	-0.0036642004
200	0x3acac32c	0.0015469543
201	0x3ae22a26	0.0017254993
202	0x3aa1dcad	0.0012349092
203	0x3b37a4a9	0.002802173
204	0xbb11f1ed	-0.0022269443
205	0x3aaec25e	0.0013333072
206	0x3b7c7c63	0.0038526289
207	0x3b76ada7	0.0037640126
208	0x3b118016	0.002220159
209	0xb919647c	-0.0001462865
210	0xb9d48165	-0.00040532197
211	0x3ab75993	0.0013988487
212	0x3aee6415	0.0018187786
213	0x3afb0b89	0.0019153218
214	0x3ac8fa72	0.0015333428
215	0x3adb522e	0.0016732865
216	0xbac00738	-0.0014650589
217	0xb90b5dfc	-0.00013291085
218	0xb982369c	-0.0002483622
219	0xb9fb8034	-0.0004796997
220	0x3b89d8e2	0.0042067626
221	0xb8e9c6fe	-0.00011147371
222	0xbafe03cf	-0.0019379797
223	0xbb471fe7	-0.0030384006
224	0xbae12d2b	-0.0017179599
225	0x3b6501f0	0.0034943782
226	0xba10bc95	-0.0005521265
227	0xbba446df	-0.0050133313
228	0xbc2cd27f	-0.010548233
229	0xbc3809cc	-0.0112328045
230	0xbb5f1dda	-0.0034044893
231	0xbbd31e09	-0.0064427895
232	0xbbd457ca	-0.006480192
233	0xbc1a1d28	-0.009406365
234	0xbc2917d0	-0.010320619
235	0xbbc63142	-0.0060483525
236	0xbbb0238c	-0.0053753313
237	0xbb4b6c9f	-0.0031040085
238	0xbb936b02	-0.0044988403
239	0xbbd8b2f9	-0.006613132
240	0xbbc8761f	-0.0061175968
241	0xbb179ab8	-0.002313299
242	0x3a0272c2	0.00049762067
243	0xba1d1ed0	-0.0005993666
244	0xbb840a74	-0.0040295664
245	0xbb83da60	-0.004023835
246	0xba763d88	-0.0009393324
247	0x3aa0c334	0.0012265206
248	0xb91f32a0	-0.00015182281
249	0xbb8c824e	-0.0042879945

exp_avg_sq f4 [10, 1, 5, 5]
0	0x39029f32	0.00012457071
1	0x391cbee2	0.00014948429
2	0x392910d6	0.00016123368
3	0x392062ef	0.00015295645
4	0x38f793dc	0.00011805419
5	0x38fa3286	0.0001193034
6	0x390e42e2	0.00013567091
7	0x391fd130	0.0001524135
8	0x390f4018	0.0001366142
9	0x38f50ee3	0.00011685283
10	0x3914e52b	0.00014199752
11	0x392bae7f	0.00016372836
12	0x392f1a1c	0.00016699027
13	0x391ed1b4	0.00015146175
14	0x3923c8f1	0.00015619748
15	0x390d0f44	0.00013452495
16	0x392faba0	0.00016753236
17	0x3932a390	0.00017036335
18	0x392841bc	0.00016046216
19	0x392acaf6	0.00016288072
20	0x38f07a41	0.00011466863
21	0x390a6c49	0.00013201045
22	0x390dd883	0.00013527465
23	0x3916e65e	0.00014390933
24	0x390acb13	0.00013236357
25	0x38c67f3c	9.465075e-05
26	0x38af186a	8.349198e-05
27	0x38c96b9a	9.604469e-05
28	0x38f1cef0	0.000115303206
29	0x38d5b58c	0.00010190447
30	0x39016b6c	0.00012342416
31	0x38d6f590	0.00010250055
32	0x38f9a309	0.00011903613
33	0x38f44fa1	0.00011649659
34	0x38e3bec3	0.000108597356
35	0x39203039	0.00015276753
36	0x391960a0	0.00014627213
37	0x392666f5	0.00015869348
38	0x39160d54	0.0001431008
39	0x39042652	0.00012602776
40	0x390b5bed	0.00013290318
41	0x390de142	0.00013530723
42	0x3929f1bb	0.00016207148
43	0x39378fdc	0.00017505832
44	0x392d5124	0.00016528793
45	0x38ddfef2	0.000105855885
46	0x39019b16	0.00012360173
47	0x39189f76	0.00014555253
48	0x392d275d	0.0001651323
49	0x391d18d8	0.00014981942
50	0x39603b6f	0.00021384445
51	0x39b07c2f	0.0003366186
52	0x39d9bd73	0.00041530616
53	0x39bfd46d	0.00036588628
54	0x39829693	0.0002490772
55	0x3991a9b3	0.0002778299
56	0x39ea6996	0.00044710626
57	0x39f2ec63	0.0004633396
58	0x39a39902	0.00031203782
59	0x392a0028	0.00016212522
60	0x39ad1886	0.00033015403
61	0x3a024e1a	0.00049707445
62	0x39d6734b	0.0004090316
63	0x3931e9c2	0.00016967117
64	0x38cc5094	9.742487e-05
65	0x39da11a8	0.00041593355
66	0x3a0c6bab	0.000535662
67	0x399f513b	0.00030387365
68	0x38ca04dd	9.6330165e-05
69	0x388252be	6.214295e-05
70	0x39f26487	0.00046232736
71	0x39fdc34a	0.00048401422
72	0x3989bfff	0.00026273725
73	0x38c81570	9.540736e-05
74	0x388c0e9c	6.6784414e-05
75	0x38291170	4.030898e-05
76	0x387cf850	6.031274e-05
77	0x390610f5	0.00012785553
78	0x394afbf0	0.00019358075
79	0x394a3f6d	0.00019287849
80	0x382b3d42	4.0826628e-05
81	0x389252a0	6.9772126e-05
82	0x393308de	0.00017074074
83	0x396d629e	0.00022638819
84	0x39415c81	0.00018440375
85	0x388c4695	6.688867e-05
86	0x39074c85	0.00012903109
87	0x3973162e	0.00023182548
88	0x39721058	0.00023085007
89	0x39193f74	0.00014614855
90	0x38eb52ec	0.000112211186
91	0x39549192	0.00020272125
92	0x398b4b8c	0.00026568433
93	0x39488bd6	0.0001912558
94	0x38d43214	0.000101182755
95	0x392224af	0.0001546319
96	0x3980cffe	0.0002456903
97	0x396c7356	0.0002254968
98	0x39051641	0.00012692159
99	0x38a263af	7.7433295e-05
100	0x380b756e	3.3249547e-05
101	0x37d839ef	2.5776184e-05
102	0x37e0e47f	2.6809283e-05
103	0x37e41770	2.7190632e-05
104	0x3806c15c	3.212817e-05
105	0x37bee448	2.2756067e-05
106	0x37d98234	2.5929046e-05
107	0x37e19200	2.6890077e-05
108	0x37dffeb4	2.6702277e-05
109	0x37d6b0fb	2.5593201e-05
110	0x37db80f2	2.616688e-05
111	0x37dc8dc8	2.6292066e-05
112	0x37e16d33	2.687294e-05
113	0x37e1fe4a	2.6940503e-05
114	0x37cfac8a	2.4756668e-05
115	0x3803c8e3	3.1419924e-05
116	0x37e217a4	2.6952308e-05
117	0x37deeed8	2.6575683e-05
118	0x37e0d9ad	2.6804244e-05
119	0x37c5ed12	2.3594625e-05
120	0x3860028d	5.3408137e-05
121	0x381178cc	3.4683195e-05
122	0x37f4d056	2.918408e-05
123	0x37dd8d58	2.6411071e-05
124	0x380451aa	3.1547308e-05
125	0x38d6b23c	0.00010237514
126	0x38972ef0	7.208984e-05
127	0x386991d0	5.5687327e-05
128	0x38cfce97	9.9090095e-05
129	0x391af8bf	0.0001477925
130	0x38d6d651	0.00010244235
131	0x388017fd	6.107984e-05
132	0x385248f8	5.013586e-05
133	0x39093774	0.00013085996
134	0x3948af68	0.0001913883
135	0x390040c4	0.00012231158
136	0x389f485b	7.595188e-05
137	0x38d55b8a	0.00010173682
138	0x3986a374	0.00025680254
139	0x39b0c3fc	0.00033715356
140	0x3988224a	0.0002596549
141	0x3988b012	0.00026071124
142	0x39d6f7a3	0.00041001764
143	0x3a0f3f32	0.0005464434
144	0x3a0de30f	0.00054125575
145	0x39d215e7	0.0004007064
146	0x3a04e93a	0.0005070154
147	0x3a32c799	0.00068199035
148	0x3a456837	0.0007530483
149	0x3a167709	0.00057397835
150	0x38aee8a1	8.340297e-05
151	0x38a890bc	8.037823e-05
152	0x38ba84ef	8.893932e-05
153	0x38c375fe	9.320302e-05
154	0x38e487d9	0.00010897191
155	0x38b72c89	8.734415e-05
156	0x38caf311	9.677385e-05
157	0x38c54392	9.406278e-05
158	0x38b0320d	8.401657e-05
159	0x38ac9795	8.2298335e-05
160	0x38ecd2b6	0.00011292605
161	0x38eb1370	0.00011209294
162	0x38cc4419	9.740162e-05
163	0x38a45783	7.83643e-05
164	0x38a22c10	7.732969e-05
165	0x38b793fe	8.753686e-05
166	0x38c6d568	9.481126e-05
167	0x38d43361	0.00010118518
168	0x38b5a6d6	8.661828e-05
169	0x38900494	6.867308e-05
170	0x389067a6	6.885761e-05
171	0x38aee81a	8.340199e-05
172	0x38d4fec8	0.000101564045
173	0x38b0a337	8.422735e-05
174	0x3886b21c	6.4227934e-05
175	0x38b96c75	8.841689e-05
176	0x3901133a	0.00012309561
177	0x39519c85	0.00019990101
178	0x394e7b2d	0.00019691577
179	0x391ebf43	0.00015139305
180	0x39064dfc	0.00012808287
181	0x3934d3a8	0.00017244986
182	0x3938a5ec	0.00017609418
183	0x3917dc88	0.00014482636
184	0x38ff926f	0.00012186623
185	0x3918c01b	0.00014567414
186	0x391e1164	0.00015074533
187	0x390dcaeb	0.000135224
188	0x38f144af	0.00011504569
189	0x38e1fc27	0.00010775803
190	0x38fee6b5	0.00012154636
191	0x3906bd0d	0.00012849663
192	0x3911c255	0.00013900672
193	0x3911eaad	0.00013915701
194	0x390dbe10	0.00013517612
195	0x3903de1e	0.00012575879
196	0x390a5f3f	0.00013196188
197	0x3917e549	0.00014485898
198	0x392112ee	0.00015361208
199	0x39219d84	0.00015412836
200	0x390b89b5	0.00013307373
201	0x38dea551	0.000106165775
202	0x38ae1d6f	8.302449e-05
203	0x38ad64d0	8.2680606e-05
204	0x38db9d33	0.000104720144
205	0x39216841	0.00015392994
206	0x38dc7e6c	0.000105139654
207	0x3878c71f	5.9313254e-05
208	0x383d33db	4.5109406e-05
209	0x38762123	5.868183e-05
210	0x3977466b	0.00023581988
211	0x39082097	0.00012982111
212	0x386ce44e	5.647941e-05
213	0x3859f457	5.196439e-05
214	0x387049b9	5.728912e-05
215	0x39ae2754	0.00033217168
216	0x397e2bbc	0.0002423962
217	0x390020cc	0.00012219249
218	0x38cc66db	9.746636e-05
219	0x38b4dff7	8.6247856e-05
220	0x39b532f2	0.00034560967
221	0x39a8b690	0.00032179477
222	0x39652a1f	0.00021854833
223	0x391cde22	0.0001496007
224	0x38eb748f	0.00011227384
225	0x39b560eb	0.0003459522
226	0x39fce36d	0.0004823463
227	0x3a15378e	0.0005692177
228	0x3a14bd18	0.0005673929
229	0x3a0b3c7e	0.0005311443
230	0x39c065e5	0.0003669701
231	0x3a002909	0.0004888927
232	0x3a098070	0.0005245274
233	0x3a0a9d1f	0.0005287695
234	0x39f911ae	0.00047506153
235	0x39a1e685	0.00030880063
236	0x398e0b34	0.00027092698
237	0x39827b5d	0.00024887445
238	0x3996b75f	0.00028746852
239	0x39a4fa7a	0.00031467137
240	0x39442ed6	0.00018709464
241	0x38fb4d8f	0.00011983059
242	0x3915daae	0.00014291212
243	0x394ab15f	0.00019330297
244	0x398e8026	0.0002717983
245	0x3907b26f	0.00012941075
246	0x38cbc24f	9.715987e-05
247	0x391120f6	0.00013840556
248	0x39550804	0.00020316249
249	0x39a8a8a7	0.00032169113
