pytorch/template/saved/models/Mnist_Model/0121_234515/checkpoint-epoch5.pth (torch, 359983 bytes, 32 tensors)

conv1.weight f4 [10, 1, 5, 5]
00000000: 1db3 4d3e 5cf1 5d3e c057 f0bc 8bfa 513e
00000010: f048 c1bd 0a7c f9b9 907b 75bd 8e65 d03d
00000020: 306a 293e 5d97 62be f453 113e bdca 9d3d
00000030: 8541 233e 3817 b83c 874c ce3d 4c61 f9bc
00000040: 04f0 643e 45f8 e03d 1895 36bc 2acd c83d
00000050: fb4f 19be 3bee f83b c7fd 663c 9879 633e
00000060: 0fe4 05be 2380 19be 8d68 1bbe 67c4 1cbe
00000070: 92dc 50bd 609b afbe 4da5 3b3e 9d25 16be
00000080: c596 313e daa6 76bd fe5b 99be d753 353e
00000090: c48c 143e e803 8e3e f00c 5e3d 0ded 00be
000000a0: bf13 a7b9 d0d0 31bd 139c 183e 93c4 893e
000000b0: be9d 413e c229 8cbe 6808 da3b ca9d 7dbc
000000c0: f0a7 fc3d 4757 0cbd c50f 06be 952a c93d
000000d0: 2d0a 4f3c 5511 583e 86d8 fbba 33a6 c33d
000000e0: a853 483e b9bc ea3d a98d 193e 725d 9fbe
000000f0: 461d 133e 812b b03d 91f4 4f3e 1468 0abe
00000100: e261 82be e6fc 053e e48f b23e 5d70 0bbd
00000110: b4b9 6abe 2b93 c2be f94d a13e bd42 2d3e
00000120: 0cb3 313e c9f2 a8be e94c f6be d022 e7be
00000130: c3aa 94be 4990 833d 14b1 153e 082a aa3e
00000140: 578e d0be da1c 52be 9e74 553e 59da aa3d
00000150: 223e a33e a4a7 9abe 6ff1 0e3e 3557 813c
00000160: f243 c23d 1415 333e d570 f5bd 7446 6abc
00000170: 13ae 713e c47c 833e ee1c 06be f34b d5bd
00000180: 3ef2 6c3e 213f 033c f90a d7bb 3f48 51be
00000190: c3a7 d6be fa84 bbbd 81df b0bd 0762 60be
000001a0: 4af7 91bd f809 a0be 2a40 95be ee36 48be
000001b0: 2fdd 7fbe 1b83 35be dcbe d63b 36f3 11be
000001c0: d7e0 afbd 6ed9 93be b329 6bbe ccf8 7abd
000001d0: 9c10 e73b cd43 7bbe c58c 48be b536 85be
000001e0: 8056 083e a4e6 fe3c 7b1b 7a3c 15fb 7dbe
000001f0: 2b6d d3be 95f9 1bbe 035d b43b e19b 8fbd
00000200: 8ee1 2b3d 4fb2 85bd 7c0d 50bc 469a 46be
00000210: 4408 0dbf c2e6 36be e0cc 36be d185 d3bd
00000220: 7c32 93be 842e 9dbe 9efd c4bc 287b a13c
00000230: 1716 783e 4d55 e23d 21ed b83e cafe c43c
00000240: 6869 1a3e 5d3d 1e3e f656 a63e f4da c43e
00000250: 5e50 aa3e 3a6e 32bd 8b0d 853d 5f35 a0bd
00000260: ae85 43bd 7748 13be c53a 653e 3f9a 23be
00000270: ffa8 473e b65b da3d 8629 0b3d 214f 31be
00000280: 87d7 823e 403c 433e 2f98 b93d e7d4 96be
00000290: 715d 31bb 1805 e2bd 3d49 02bd cf40 863e
000002a0: 1a7f 883c 53eb 34be 9e36 c3be aedd b9bd
000002b0: 72d3 403e 9fc8 0c3c 61be 20be 4e49 61be
000002c0: 63d4 f3bd 2aad 3c3e 5038 6e3e f882 54be
000002d0: 5900 843d 0977 693e f2f7 233e dc1b 59bd
000002e0: d138 f6bc 194f f13d 0d6b e43d cc58 2e3c
000002f0: 47cf e1bd 3965 6bbd b644 4fbd fbb4 75bd
00000300: 6038 2c3e 60df 763e ea15 983d 6875 0bbd
00000310: bec3 b5bc cd0f ab3c 59e7 2b3e 1b31 4b3e
00000320: 98e4 37be 2832 72be d6e0 543d f56e 123e
00000330: 32b2 503e 789d aebd e55e 03bf 5fcf 17bf
00000340: 99a1 85be 0003 4b3e 3640 b83e 83a9 203d
00000350: ccc4 eebe 5229 f0be 7d50 89be 8db8 c03e
00000360: c947 8e3e e062 c7bc 2ed3 0fbe 2190 b9be
00000370: 6697 acbc 7d32 c03e 6137 243e b416 ff3d
00000380: 96de 6ebe c66d 823e 1530 8f3e c431 793e
00000390: db1f 9f3d efec 823d 0164 083c 5a69 b13e
000003a0: 125e a53e 3a72 d23e 6f4b b03e 8084 c73d
000003b0: 56d1 4f3d 1e4f d1bd d0d1 c1bd 4926 d1bd
000003c0: 2eac fabd 63d6 a2be 08d0 8dbe d8b1 88be
000003d0: 2037 21be 0f92 f0be 9921 d0be d24d 27be
000003e0: dc94 09be 4dc0 28bd
0.20087858 0.21674103 -0.029338717 0.20505731 -0.0943774 -0.00047585397 -0.05993229 0.1017562
0.16544414 -0.22128053 0.14192182 0.07704685 0.15942962 0.022472009 0.1007319 -0.030441903
0.22357184 0.10984854 -0.011143945 0.09804757 -0.14971916 0.0075967587 0.014098591 0.22214353
-0.13075279 -0.14990287 -0.15176602 -0.15309297 -0.050991602 -0.3429823 0.18324776 -0.14662786
0.1734267 -0.060217716 -0.29952997 0.17707764 0.14506823 0.27737355 0.054211557 -0.12590428
-0.00031867434 -0.04341203 0.14903288 0.26907787 0.1890783 -0.2737561 0.006653834 -0.015479514
0.12336719 -0.03426292 -0.13091953 0.09822575 0.012636703 0.21100362 -0.0019214309 0.09553184
0.19563162 0.11461777 0.14995445 -0.3112598 0.14366636 0.08602048 0.20308138 -0.13516265
-0.25465304 0.13084754 0.34875405 -0.034042705 -0.22922403 -0.38002905 0.315048 0.1691999
0.17353457 -0.3299773 -0.48105553 -0.45143747 -0.2903653 0.064240046 0.14618331 0.33235192
-0.40733597 -0.20518818 0.20845267 0.08342428 0.3188334 -0.30206025 0.13959287 0.015788654
0.09485616 0.1748851 -0.119844116 -0.014299024 0.2360156 0.25681126 -0.13096973 -0.10414877
0.23139283 0.008010657 -0.0065625873 -0.20437716 -0.41924867 -0.09156223 -0.0863638 -0.21912394
-0.07127245 -0.31257606 -0.29150516 -0.19552204 -0.24986719 -0.17725794 0.006553514 -0.14252934
-0.08587807 -0.28876823 -0.22965126 -0.061272427 0.0070515405 -0.24537583 -0.1958495 -0.260183
0.13314247 0.031115837 0.015265341 -0.24802811 -0.41294226 -0.15231927 0.005504252 -0.070121534
0.041963153 -0.0652815 -0.012698527 -0.19394788 -0.5509074 -0.17861465 -0.17851591 -0.10328258
-0.28749454 -0.3069955 -0.024046715 0.019712046 0.24227177 0.11051426 0.36118415 0.024047274
0.15079272 0.15453096 0.3248822 0.38448298 0.3326444 -0.04356215 0.06496724 -0.0782268
-0.04773491 -0.14383112 0.223857 -0.15976809 0.1949806 0.10662024 0.033975147 -0.17315342
0.2555506 0.19065952 0.0906223 -0.29459307 -0.0027063752 -0.11036128 -0.031808127 0.2622132
0.01666217 -0.17667894 -0.38127607 -0.09075485 0.1883066 0.008592754 -0.15697624 -0.2200062
-0.11905744 0.18425432 0.23263669 -0.20753086 0.06445379 0.22799315 0.16012552 -0.053005084
-0.030056389 0.11782665 0.11153231 0.010641288 -0.11025863 -0.05746958 -0.050602637 -0.05998705
0.1681838 0.24108648 0.07426055 -0.034047514 -0.022188064 0.020881558 0.16787471 0.19842951
-0.17958295 -0.23651946 0.051972233 0.14300139 0.20380476 -0.085261285 -0.5131667 -0.593008
-0.26099852 0.19825363 0.3598649 0.03922416 -0.4663452 -0.46906525 -0.2681922 0.376408
0.27789143 -0.02433914 -0.14045402 -0.36242774 -0.021068286 0.3753852 0.1603675 0.12455502
-0.23327097 0.25474375 0.2796637 0.2433539 0.07769748 0.06392848 0.008324624 0.3465069
0.32298332 0.41102773 0.3443255 0.09742069 0.050736748 -0.102201685 -0.09463847 -0.102123804
-0.12239872 -0.3180419 -0.27697778 -0.26698184 -0.15743685 -0.46986434 -0.40650633 -0.1633828
-0.13435692 -0.041199017

conv1.bias f4 [10]
00000000: b880 28bd 0e74 aabd 4e7a b3bb 6c27 ffbd
00000010: 7bec 8c3c a02a 83bd 4222 d63d 6dcc 1bbd
00000020: 1b87 703d 9582 ba3d
-0.04113838 -0.08322917 -0.0054772263 -0.12458691 0.017202606 -0.064046144 0.10455753 -0.038036752
0.058722597 0.09106938

conv2.weight f4 [20, 10, 5, 5]
00000000: 71f2 633c a7bf b9bd 77d6 fcbc 16b0 b6bd
00000010: 37c0 98bd 2fb5 7d3d 5446 f5bb 5a09 dabc
00000020: 9a4b 67bd 6f38 90bd 9e2e 643d 8ec8 53bd
00000030: d3c9 473d 8bf2 443d 1d25 bb3d cf2b 12bd
00000040: 4e46 e1bd 0205 f3bc 5264 7c3c 550c 50bd
00000050: b3b5 94bd 19ac 17be e472 06be 8e7b 06be
00000060: 0def 83bd fd76 dbbc 0a86 07bd 949c 3e3d
00000070: c4c3 813d e876 3dbc b0b3 dc3b 4622 51bb
00000080: e751 8abd 59b0 24bd ebe6 6f3d d6ae d3bc
00000090: b8f0 70bb efa3 793c 66bb 4f3d 0cec a33d
000000a0: ad84 0ebd a9d0 f2bd 4702 bebd 9c60 7bbd
000000b0: fc40 88bb 54ad b03d 74a0 91bc b4ed 0cbc
000000c0: d70a 70bd 2ed1 b4bd 75ba a6bc 0c6b 433d
000000d0: 6c24 27bc 70b4 583b 3d3e b73d b3c8 9abc
000000e0: a4fe be3d db31 a33d 6f63 bebc 963a 4e3d
000000f0: 2c9e babd 17a1 a1bd 1572 67bd 8e40 b5bd
00000100: f9f6 fabd 45a9 dabd 940c 02be 2797 6bbe
00000110: b503 74be 3749 34be 6b57 a13c d0a5 553c
00000120: 6106 86bd 1ebd 14be 20ac 633d c91b f7bd
00000130: a4d4 3ebd f48a e43c 685a 393a b086 4c3d
00000140: 962f 2abd 6d8c 30bc a29c 83bd 9851 7fbd
00000150: 3026 82bd 76ea 03be 7cde 2a3d fcc5 9abc
00000160: 465b 24bd 4073 0fbd cdb5 fcbd 6469 e73c
00000170: aa4c a73d 497f 0e3d 1e94 c8bd d80f 47be
00000180: 7121 b2bd 5e34 e0bd ac38 cdbc aa47 af3d
00000190: aa53 21bc 6577 3abd 8995 eabd 077b 38bd
000001a0: a2d6 b7bc 9e1d 4cbb 0a81 78bd 7190 0abe
000001b0: 6fac 34be 60f5 54bd da98 823d 995d c73a
000001c0: 4f10 93bd 9466 17be d12a febd 466b 1c3d
000001d0: 424a 9e3d 0249 113e 588c c03c 5dda a03b
000001e0: 81f4 e73d 4d39 593d 2dd3 0f3e ac96 fb3d
000001f0: 3dc6 263e 0c5b c53b 4cdf 24bd d5d8 573c
00000200: 6a0b 5f3d eb05 a23d f4ab c33c c7d8 f13c
00000210: 3039 d13d fa87 e33d acc0 153e 596e 8fbd
00000220: 4de3 5abd c5a2 b03d a277 2d3e d182 013e
00000230: f443 fb3c 8084 413d 503f a6bd 77b6 d23b
00000240: e49c ffbd 16a7 213d 4658 3e3d 8a24 043e
00000250: fe5b 1a3e 4222 813d aeed 83bd fec3 83bb
00000260: b0a8 993d e051 123d 96b8 cb3c 35e7 31bd
00000270: 7c15 dd3c 42d9 813d 3c36 aabc bf5e 813c
00000280: b4aa 053c d18c a63a cf78 17bd 459d e43c
00000290: f401 063e a2cf 3ebd ddb3 d8bd e07e f4bd
000002a0: 5978 b8bd 7bb9 213d 6997 913b 5ef7 32bd
000002b0: 2f73 10be 0d80 9abd 9cbb ddbd cb40 193c
000002c0: 8aa1 33bd eb86 0fbd c697 313c f799 ef3a
000002d0: 6618 1cbd 1bf6 573d 9bd8 f8bc ee2e 943d
000002e0: 719f 993d 0b6c 72bd 7aa9 0cbd a662 e43c
000002f0: c4ed ba3d ec59 063d d613 d9bd d195 4cbe
00000300: 3f73 2fbe 8010 01bd dd39 103c b6e4 5fbd
00000310: 88e5 edbd 2e4c 16bc 302d 63bd 2e94 15be
00000320: 905b b5bd 63ce c7bc 1f06 b23a 3d52 0ebe
00000330: 4b77 8dbd a8fe a1bd 4c89 0bbc 3924 c83c
00000340: 17bd ff3c 3768 873d f4e2 553c 6a8d bc3d
00000350: bdd1 2f3e 22a3 6d3d f39c ca3d 6af6 3f3e
00000360: 74e7 0b3e 151c 953d 94cd 013c 46a9 423a
00000370: 2469 513e 6af2 4c3e edfa 153e b376 9d3d
00000380: cdf5 5ebd d9f5 1fbd 58f2 3cbc b8bd 85bd
00000390: 1c86 93bc ef9f 30bc 16b5 25bb f020 783d
000003a0: 59c1 ac3d b983 653d 942c 4b3d 31eb 3e3c
000003b0: ae75 d23c 3fce 2b3d bd74 ecb9 1b57 573d
000003c0: 645a 9d3c 786c 153d 120c 0a3e c528 513e
000003d0: 3b5b 713e 2a3d cd3d d400 103d f6ee 703d
000003e0: 24f2 4abc 3ee8 b5bb 9735 5a3c 81bd 90bd
000003f0: 0eb3 02bb cfd1 86bd 064e cdbd a656 40bd
0.013912783 -0.09069758 -0.030863984 -0.089203045 -0.07458537 0.06194037 -0.0074851904 -0.026615787
-0.056468584 -0.07042014 0.05570852 -0.051704936 0.04877646 0.04808287 0.09137938 -0.03568631
-0.10999738 -0.029665474 0.015404778 -0.05079301 -0.07261219 -0.14811744 -0.13129765 -0.1313307
-0.0644208 -0.026790136 -0.033086814 0.046536043 0.063361675 -0.011563994 0.0067352876 -0.0031911298
-0.06753903 -0.04020724 0.05856983 -0.025840204 -0.0036764573 0.015236839 0.050715826 0.08004007
-0.0347945 -0.11856205 -0.09277778 -0.06137143 -0.0041581374 0.0862681 -0.017776705 -0.008601595
-0.058604088 -0.0882896 -0.020352582 0.04770951 -0.010201555 0.0033066534 0.08947418 -0.018894529
0.093259126 0.079684936 -0.023240773 0.05034884 -0.091122 -0.078920536 -0.05650528 -0.088502035
-0.122541375 -0.10676817 -0.1270011 -0.23006879 -0.23829539 -0.17606054 0.019695004 0.013040021
-0.065441854 -0.14525267 0.055584073 -0.120658465 -0.04658951 0.02789829 0.00070706615 0.049933136
-0.041549288 -0.010775668 -0.0642636 -0.062333673 -0.0635494 -0.12882408 0.041716084 -0.018893234
-0.040126108 -0.03502202 -0.12339363 0.028248496 0.081689194 0.034789357 -0.09793876 -0.19439638
-0.08697785 -0.10947488 -0.025051437 0.08558591 -0.009846607 -0.04552402 -0.11454303 -0.045039203
-0.022441212 -0.0031145583 -0.060669936 -0.13531663 -0.17643903 -0.05199182 0.0637681 0.0015210389
-0.07180845 -0.14785224 -0.1241051 0.03818824 0.07729007 0.14188007 0.023504421 0.0049088434
0.11325932 0.053033162 0.14045401 0.12284598 0.1628656 0.0060228165 -0.040252015 0.013174255
0.054454245 0.07911285 0.023885705 0.029522313 0.10215986 0.1110992 0.1462428 -0.07003469
-0.053439427 0.08624796 0.16940168 0.12647559 0.030672051 0.047245502 -0.08117545 0.006430443
-0.124810964 0.039465986 0.046470903 0.12904564 0.15074155 0.06305362 -0.06441818 -0.004021167
0.07502878 0.035722613 0.02486829 -0.043433387 0.026987784 0.06340267 -0.020777814 0.015792249
0.008158375 0.0012706761 -0.036980446 0.027907023 0.13086683 -0.046584733 -0.10581181 -0.11938262
-0.090073295 0.03948353 0.0044430983 -0.04369294 -0.14106439 -0.07543955 -0.10826799 0.009353827
-0.043855228 -0.035040777 0.010839408 0.0018280138 -0.038109206 0.05272494 -0.030376723 0.07235514
0.07501114 -0.05918507 -0.034341313 0.02787907 0.091273814 0.0328006 -0.105994865 -0.19979025
-0.17133807 -0.031509876 0.008802858 -0.054661475 -0.11616045 -0.009173436 -0.055463016 -0.14607307
-0.08855355 -0.024390405 0.0013582146 -0.13898559 -0.06907519 -0.079099 -0.008516621 0.024431335
0.031218095 0.06611674 0.013054598 0.0920666 0.17169853 0.058016904 0.09893217 0.18746343
0.13662511 0.07280747 0.007922549 0.00074257364 0.20450264 0.20014349 0.14646502 0.07688656
-0.054433633 -0.039052818 -0.011532389 -0.065303266 -0.018008284 -0.010780319 -0.0025284938 0.060578287
0.08435316 0.056033824 0.04960306 0.011652754 0.02569088 0.04194474 -0.00045100405 0.052573305
0.01920814 0.036480397 0.13481167 0.20425709 0.23569958 0.10021432 0.03515704 0.05882164
-0.012386832 -0.005551367 0.013318441 -0.07067395 -0.001994315 -0.065829866 -0.100246474 -0.046957634

conv2.bias f4 [20]
00000000: a2dd 673d 8fdb 27bd e298 32bc 7b90 b6bd
00000010: a701 2bbd 698e f93b 3e40 843d 10fb 8ebd
00000020: 0524 05bb 8907 55bd 4049 d63c 17d8 4e3d
00000030: e161 0dbd a175 903a 4d4a 863d a302 46bd
00000040: 7a9b 21bd ef00 c4bc 0bcf 113d e5cf 7d3c
0.05660785 -0.04098087 -0.010900708 -0.08914276 -0.041749623 0.0076158536 0.06457566 -0.0698148
-0.0020315659 -0.05200914 0.026157975 0.050499048 -0.034517173 0.0011021384 0.065571405 -0.04834236
-0.039454915 -0.023926226 0.035597842 0.01549146

fc1.weight f4 [50, 320]
00000000: 831f 2dbd 8480 c23c 0601 d23c d22c 703d
00000010: 3c03 7cbd c6ad 9fbd d7de d23c 4b3c 213d
00000020: a06a 1fbe 86fc 34bd 2014 cebd 17e6 263c
00000030: b96d 853c 00b5 703d d34b fe3c 9e38 2b3e
00000040: b779 ae3b bfd2 e83a 7bd9 b0bd bb82 68bd
00000050: d47f dabc 90cf 5dbd 26a1 9bbd eaf3 9a3c
00000060: 6f69 77bd 38cc 67bd 3ce2 8abd d13c 2b3c
00000070: 3bbc 33ba 25de 023d 280c ec3d 2631 9e3d
00000080: c5ec 863c 37ca 923d 5d85 d13d ea85 e73c
00000090: e894 7abd 4921 a0bc 6d2f 07b9 8eb6 fd3d
000000a0: 4e1b 833d 1a2e 073c 8900 d73c 573a 943d
000000b0: 9bd8 5cbd af1a 7f3c 13f1 01be c6f2 49be
000000c0: 6d60 c13d 7a5a 683d c6ad da3d 7419 f8bb
000000d0: a7ce 4b3d 4b3e 093d 29fd 073e c845 46bc
000000e0: 62a9 dabc d995 423d 3c5d bf3c c9ff 2ebd
000000f0: d308 bebd 0016 8bbc 29a6 e0bd 2106 4abd
00000100: 8fdd 643d 1f45 733d 1b7e 1f3e bab7 763d
00000110: 3666 383d efd7 42bd f66d bdba abbf adbc
00000120: 2907 8dbd 099a 8f3b 1f04 cb3c 62b3 71bd
00000130: 0524 9e3d 2c84 973d 4b67 91bd 013c 68bd
00000140: cec8 c93d af5a 1f3e aa92 e83d 19fa 95bd
00000150: 30c5 7b3d 440f 113c 8e5a bbbd c7bf f9bd
00000160: 2e9f f6bd bf54 4dbd fcab ebbc 1e51 08ba
00000170: fc04 2c3d 1e0b aa3d 516d 193d fb99 91bd
00000180: cf4a 04bd ba03 8abb 1b48 b73d c7c0 0abd
00000190: 24fe 8d3d dad5 733d bd1b 1cbc 2976 843d
000001a0: ba21 f83c 5e70 003c 8f29 683c 6e48 87bd
000001b0: 18d5 973c fcd1 893d 0882 213d 902e 3bbe
000001c0: 1f5b f1bc b365 3bbd f0d8 233d cda9 91bc
000001d0: 8a0a 18bd 110f 283d 1c0c 683d 14e7 313d
000001e0: 456e 723d 316a 4c3d 8536 383d e0a2 cabc
000001f0: 6512 a9bc 89ed c3bd 14c4 73bd 8a27 a4bb
00000200: 5766 6abd 1722 373d 963c ac3c 72dc 24bc
00000210: e493 c03b 03d9 d9bb deb7 2a3d 8ba6 3d3c
00000220: ff1c 81bd 8056 b3bd 0f40 bbbd d025 8c3b
00000230: 97a3 b73b 72fb 0bbd 8f0d 713d 545f 033e
00000240: 82fb 21bd 14f0 d23c d4b5 70bc bc71 20bd
00000250: 44cd 68bd d3d7 253d 88e1 f0bc 72a2 1cbe
00000260: 7ccf 01bd df68 c13b a3a5 4e3d aed7 20bd
00000270: ef2e 833c f705 f13d 95e6 9f3d 6515 de3c
00000280: 16ac d8bd 5fb1 ecbd 7eda efbc 93c7 4bbc
00000290: 644d abbd 2c1f bbbd 0bf6 5ebd 8cca 83bd
000002a0: d944 a5bc 6e1f a13c c8c2 973c e138 0e3d
000002b0: 78f5 3ebb 5fbd 8b3d ef74 eb3d b573 453e
000002c0: 2911 2b3d ac2f ca3c 956d e03d e191 e9bd
000002d0: 245e 47bd 887f 30bd 1054 18bd d21c f1bc
000002e0: c59a 123d 8bcc a03c f16c 123d b389 4a3d
000002f0: 0212 24bd 479d fd3b bfd1 39bd a09a ecbc
00000300: 8040 123d d9d8 b53c 3147 d8bb 99be 3ebd
00000310: 385f 223b 1e41 7c3c 1cd5 27bc 2228 2e3d
00000320: 9aa2 993c fa6d 0fbc 24fc b43c ec8a 193d
00000330: 8c47 08bd 7b2b 473c f19b 68bd e017 a5bc
00000340: dd56 83bc 023c 2d3d a775 9a3d 34c2 03bb
00000350: 1ff2 aabd 30fd 863c 8a58 683d 9199 103d
00000360: a246 8b3d 3803 933d 85ab 44bc c864 1dbc
00000370: ebee 1bbd ed96 1d3d 1540 4bbc 3cb8 6bbe
00000380: 095f b53c de4a 13bd 5f2a a83d c64e 013d
00000390: 5d87 c43d 9ad9 0d3d 5cd4 0c3e f36f cbbb
000003a0: 685c c93d 56b2 333e eb6c b8bc c324 eabd
000003b0: 0cde 0a3c 0fe9 853c 19a4 f6bc a7ec c7bd
000003c0: a00d 5fbc 781b 41bc 55e1 a3bc b0da 99bd
000003d0: d55f 04bd 9098 c23c 621a 6f3d a066 65bd
000003e0: 2b84 cfbd df42 77bd b718 43bd 2a50 a5bd
000003f0: 269b fbbd a666 f1bb 4da1 b23d e396 d63d
-0.04226638 0.023742922 0.025635254 0.058636494 -0.061526522 -0.077968165 0.025741024 0.03936414
-0.15568018 -0.044186138 -0.10062432 0.010186694 0.016287671 0.058766365 0.031042015 0.16720816
0.005324568 0.0017763003 -0.08635231 -0.0567653 -0.026672281 -0.054153025 -0.07599096 0.018915135
-0.060403284 -0.056591243 -0.06781432 0.0104515115 -0.00068563566 0.031950135 0.11525756 0.07724218
0.016470322 0.07167476 0.10230515 0.028262097 -0.061177164 -0.019547122 -0.00012892271 0.12388335
0.06401692 0.008250738 0.026245372 0.0723769 -0.05391751 0.015570327 -0.12689619 -0.19721517
0.0944222 0.05672691 0.10677676 -0.0075713936 0.049757626 0.033506673 0.13280167 -0.012101598
-0.026692096 0.047506187 0.023359887 -0.042724404 -0.09279027 -0.016978264 -0.109691925 -0.04932225
0.055875357 0.05939209 0.15575449 0.06023381 0.04501935 -0.04756921 -0.0014452327 -0.021209558
-0.06886131 0.004382376 0.024782239 -0.059008963 0.07721714 0.07398257 -0.0709978 -0.05669785
0.098527536 0.15561937 0.11356099 -0.07323093 0.06146735 0.008853737 -0.09148131 -0.12194782
-0.1204208 -0.05012965 -0.028768532 -0.00052000757 0.04199694 0.08302902 0.037457768 -0.071094476
-0.032297906 -0.00421187 0.089493 -0.033875253 0.06933239 0.059530117 -0.009528098 0.0646785
0.03028952 0.00783929 0.014170065 -0.06605612 0.018534228 0.067295045 0.039430648 -0.18279481
-0.029462395 -0.045751285 0.04000181 -0.017781163 -0.037119426 0.041029993 0.056652173 0.043433264
0.059187192 0.04990596 0.04497387 -0.024735868 -0.020638654 -0.095667906 -0.059513167 -0.0050095962
-0.057226505 0.044710245 0.021024983 -0.010062324 0.005877005 -0.0066481843 0.041679256 0.0115753515
-0.06304359 -0.08756733 -0.091430776 0.0042769685 0.005604218 -0.034175344 0.05885082 0.12829334
-0.039546497 0.025749244 -0.014691789 -0.039170966 -0.05683638 0.04048903 -0.029404417 -0.15296343
-0.031692013 0.005902394 0.050450932 -0.03926819 0.01601359 0.11768716 0.07807652 0.027109811
-0.10579698 -0.11557268 -0.02927899 -0.012437719 -0.083643705 -0.09136805 -0.054433864 -0.06435117
-0.02017443 0.019668307 0.018525496 0.034722213 -0.002913801 0.06823229 0.11496913 0.1928242
0.041764412 0.024680935 0.10958401 -0.11404777 -0.048673764 -0.043090373 -0.037189543 -0.029432688
0.03579213 0.019628784 0.035748426 0.049447726 -0.040056236 0.007739696 -0.045366045 -0.028882325
0.035706043 0.022198128 -0.0066002836 -0.046568487 0.0024775993 0.0153963845 -0.01024368 0.042518742
0.018754292 -0.008754248 0.022092886 0.037486 -0.033271357 0.012156363 -0.056789342 -0.020152986
-0.01603263 0.042293556 0.07541972 -0.0020104768 -0.08346962 0.016478151 0.056725062 0.035302702
0.068005815 0.07178348 -0.012003784 -0.009606548 -0.038069647 0.038474012 -0.012405415 -0.23019499
0.022140043 -0.03596007 0.08211207 0.031569265 0.09596131 0.03463135 0.13752884 -0.0062084137
0.09832078 0.17548499 -0.022512874 -0.11432793 0.008475792 0.016346483 -0.030107545 -0.09761935
-0.013614088 -0.011786334 -0.020004908 -0.075124145 -0.032317955 0.023754388 0.05837477 -0.056006074
-0.10132631 -0.060366508 -0.04763099 -0.08071931 -0.122854516 -0.007366973 0.08722172 0.10477998

fc1.bias f4 [50]
00000000: 8a2f f43d 1c25 273d 9eab 2a3e 1659 e43d
00000010: d16f 943d edc0 ed3c a468 f33d dc9f 0b3d
00000020: ccb5 183e 48cc d23d 7303 b23d 8423 1bbd
00000030: 2507 c83c 0019 0f3d d992 bc3c f29b 333d
00000040: e80c 20bd 707a 333d 6d0d 813d cad7 ea3c
00000050: 777f 873d 1003 7f3d 8d10 993d 07fd 173d
00000060: 88df 5a3d 8fb9 433d a547 da3c 760a a23d
00000070: 6f9a c13d 7eb3 b33d 703f 143e 71c4 70bb
00000080: 9143 a43d 9606 793d 8ae8 123e ad95 3b3d
00000090: e125 863c a34e d43c 1f9a 843d 9d66 d13d
000000a0: 8401 133c b7c8 8c3d f8bb 243d 880d 0f3e
000000b0: 3b3b 1c3e 81da 553d 446a 8c3d c651 7d3d
000000c0: 8895 043e 40d0 2d3d
0.1192313 0.040806875 0.1666703 0.11149804 0.0724789 0.029022658 0.11885193 0.034088
0.149131 0.1029287 0.08692064 -0.037875667 0.02441747 0.03493595 0.023019241 0.043849893
-0.03907481 0.043817937 0.06301389 0.02866735 0.06616109 0.06225878 0.0747386 0.03710654
0.053435832 0.047784384 0.02664549 0.079121515 0.09453284 0.0877447 0.14477324 -0.0036738182
0.080207 0.060797296 0.14346519 0.04579704 0.016375484 0.025916403 0.06474709 0.1022465
0.008972529 0.06874221 0.040218323 0.13970006 0.1525697 0.052210335 0.06856206 0.061845563
0.12947667 0.04243493

fc2.weight f4 [10, 50]
00000000: 29be ad3d 7981 fc3d 7815 1d3e 9e85 32be
00000010: 279d c93d 488e d63d 3aa1 56be 43b5 3c3e
00000020: c89b 55be fd33 54be 91f4 ff3d 22f8 7c3d
00000030: c72c 89be efd7 0fbe 5ebe 0ebe 509d 1c3e
00000040: ccd6 df3d 74c8 3fbe fc26 2abe 9f20 103e
00000050: f005 933c df0d 153e 0120 70be 9e62 1ebd
00000060: 84ca 20be c1da b4bd 238f 0abe d227 20be
00000070: b897 78be dfa5 62be 2b0c ed3d b2e0 bd3d
00000080: 3fdb 8cbe 5026 1ebe 39ac 32be 1b0b cb3d
00000090: 370f 80be 1359 db3d ad3e 98bd 87fc 543d
000000a0: aae3 c6bd b5f9 65be 2324 f53d 3a1c 173e
000000b0: be3e 61be 4828 eb3d f539 ae3d 393f 143e
000000c0: b91d 3bbe 8913 003e 4158 f13d db0f ec3d
000000d0: 9a1f 463c 7693 283e e2ef 41be f7c4 21be
000000e0: 59cd 9c3c 0191 3cbe 9f1f 0e3e c0ae 2f3e
000000f0: c949 08be 4ef1 46be 83b0 0d3e 6e00 2cbe
00000100: 43f4 28be df3a 663b 36b3 54be 3b33 23be
00000110: bedd b63d aacf 0bbe 5a9b 55be abc8 83bd
00000120: e3c9 0cbe 7910 3abe 416a cfbc fb08 2b3d
00000130: d5c9 28be ca47 1f3e 4efe d23d ea05 5a3d
00000140: 0d15 053e 1d53 1dbe 2009 f13c 943b 873d
00000150: 8893 023e 06c3 46be 7752 eabd 54f3 61be
00000160: 4a65 e33d f84c b83d c8cb 6ebe 47cc 63be
00000170: e96e 45be 4dbc 123e f337 e23d 308e bf3d
00000180: 02ab 87be ac78 083e 56e8 443e 0f67 19be
00000190: 6f5c fe3d 22a4 afbd ff29 343e 1680 dbba
000001a0: bc54 2abe 6790 1dbe 9692 bd3d f11f d7bd
000001b0: 5b12 25be 7764 adbd ad43 263e f1f4 08bd
000001c0: 4264 01be 754b 35be 2d41 66bd 8159 19be
000001d0: a20c 5bbd 57a1 bcbc 647f 283a 6015 0d3e
000001e0: 29f2 4cbe fcae e0bb d49b 52bd bcfc 3ebe
000001f0: 3460 dd3d 8545 673d 60f6 d2bd 37f3 d3bd
00000200: 19df f9bd ac33 5d3d af4c fdbd 4b6c a23d
00000210: ee55 85be f281 813d e8a6 093e 44d1 8f3d
00000220: c096 18be 4048 a53d 5956 d1bd da4a fabc
00000230: ad87 8a3d 9515 bc3d 261c 643c 6a4b dc3d
00000240: f686 063e 894c c5bd 78a1 9c3d 981e 343e
00000250: e675 3f3e aec5 d13d 888e eabd 784d 643c
00000260: 4b2c 183e 19d1 45be a791 28bd 4580 44be
00000270: f790 033e b5f3 f1bd 2698 83bd fbf6 81be
00000280: 8850 a9bd 0a53 e23d 4aba 09be cd79 053e
00000290: e3ac 84bd 731d f2bd 33c5 efbd c9bb 363e
000002a0: cc18 153e 54e4 0f3e 8f25 33be 0c1b 71bd
000002b0: f13b 4ebd 2bee 21be aaef f23d d05e 383d
000002c0: 3e62 fa3d 0f0d 3e3e b162 bdbd d910 5d3d
000002d0: 0a38 c6bd 9c38 183e 3c84 813d 856f 803d
000002e0: 4dc8 1fbe c700 5a3d 90c9 693d 9ea5 03ba
000002f0: d218 ddbd 7995 e73d cc97 20be 00de cebd
00000300: da7c fabc b5dc 09be a32d 0f3d 849e 06be
00000310: 1cc1 11be a23d d8bd ed6d c53d bf86 973d
00000320: 3247 8cbc 0dd6 e3bd 99d5 5ebe 3f41 bbbd
00000330: 05e4 fabd 692c 183e aa7c 0bbe d9c9 82bd
00000340: 9a24 273e d3a8 fa3d 0380 073e 5ed3 a33d
00000350: 285f 173e 793a 89bd 4db4 49be c8a5 16be
00000360: 4e4a 93bc e8c7 2cbe 49e3 033e 3602 a4bd
00000370: 0e75 473b bbda 2b3e 3990 cebd 0bb5 ce3d
00000380: abb6 c93d 3992 52be fd63 f63a 0e9d 5abe
00000390: f911 133e f0cd 843d 3ed5 a2bd def7 edbd
000003a0: e251 053d 2e25 b5bd 211d ec3d 7803 0ebe
000003b0: f005 ec3d 26ee 39be 94c9 233e 24d6 32be
000003c0: 4fac b23d 6d72 0e3e d9ce e2bd 979a 04be
000003d0: 63d1 e8bd 3053 aa3d 94eb f83c 874c da3d
000003e0: 315d 18be 6f03 06be 0a5c f8bd bcd3 0a3e
000003f0: eaf5 e93c facd aa3c b2c5 f03d cb2e fcbd
0.08483536 0.123293824 0.15340221 -0.17433783 0.098444276 0.10476357 -0.2095994 0.18428521
-0.20860207 -0.20722957 0.12497819 0.061760075 -0.26791975 -0.14047216 -0.13939807 0.15294385
0.10929641 -0.1872881 -0.16616434 0.14074944 0.017947167 0.14556073 -0.23449709 -0.038668267
-0.15702254 -0.088307865 -0.13531165 -0.1564019 -0.24276626 -0.22133587 0.115745865 0.09271373
-0.27511021 -0.15444303 -0.1744851 0.099142276 -0.25011608 0.10710349 -0.074338295 0.05199864
-0.09711392 -0.22458537 0.11969783 0.14756861 -0.2199659 0.114822924 0.08507148 0.14477243
-0.18273057 0.12507452 0.11784411 0.11526462 0.012092495 0.16462502 -0.18939164 -0.15797792
0.019140886 -0.1841469 0.1387925 0.17156506 -0.13309397 -0.19427988 0.13836865 -0.16797039
-0.16499428 0.0035130305 -0.20771489 -0.15937512 0.08929013 -0.13653436 -0.20860043 -0.06434759
-0.13748889 -0.18170346 -0.02531922 0.04175661 -0.16483243 0.15554729 0.10302411 0.053228296
0.12996311 -0.15363736 0.029423296 0.066031605 0.12751591 -0.19410333 -0.1144151 -0.22065479
0.11103304 0.089990556 -0.23319924 -0.22245894 -0.1928059 0.14329644 0.11045828 0.09353292
-0.26497656 0.13327283 0.19229254 -0.1498072 0.12419974 -0.08576228 0.17594145 -0.0016746547
-0.16633886 -0.15387116 0.09256475 -0.10504139 -0.16120283 -0.08466428 0.16236754 -0.03343672
-0.12635902 -0.17704566 -0.0562145 -0.1497555 -0.053478844 -0.023026152 0.0006427674 0.13777685
-0.20014252 -0.0068567973 -0.05141814 -0.18651098 0.10809365 0.056462783 -0.103008986 -0.10349124
-0.122007556 0.054004356 -0.12368142 0.079308115 -0.26042122 0.06323613 0.13442576 0.07022336
-0.14901257 0.08070421 -0.10221548 -0.03055327 0.06764159 0.09183804 0.013922727 0.107565716
0.13137421 -0.096337385 0.07647985 0.17589796 0.18697318 0.102427825 -0.11452967 0.013934486
0.14860646 -0.19318046 -0.04115453 -0.19189556 0.12848268 -0.118140616 -0.064255044 -0.25383744
-0.08267313 0.11050995 -0.1344997 0.13034745 -0.06478288 -0.11822023 -0.11707535 0.17845072
0.1456024 0.14051944 -0.17494796 -0.058863685 -0.050350133 -0.1581351 0.118621185 0.045012295
0.122257695 0.18559669 -0.092473395 0.053971145 -0.09678657 0.14865345 0.0632405 0.06271271
-0.15603752 0.053223398 0.05707699 -0.00050219323 -0.1079575 0.113078065 -0.15682906 -0.10100937
-0.030577112 -0.134631 0.034955632 -0.13146406 -0.14233822 -0.105586305 0.09640107 0.07398748
-0.017123792 -0.11124811 -0.21761169 -0.09143304 -0.122505225 0.14860691 -0.13621774 -0.06386156
0.16322556 0.12239232 0.13232426 0.079992995 0.14782393 -0.06700606 -0.19697686 -0.14711678
-0.017979767 -0.16873133 0.12879671 -0.08008234 0.003043476 0.16782658 -0.10086102 0.10093125
0.09849294 -0.20563592 0.0018798109 -0.21348974 0.14362325 0.06484592 -0.07950829 -0.116195425
0.032548793 -0.08844982 0.115289934 -0.1386851 0.1152457 -0.18157253 0.15994865 -0.174645
0.087242715 0.13910837 -0.11074609 -0.12949596 -0.11368062 0.08316648 0.03038577 0.10659128
-0.148793 -0.13087247 -0.1212693 0.13557333 0.028559644 0.02085017 0.117564574 -0.123136126

fc2.bias f4 [10]
00000000: 23d8 b73d 7526 ec3d a8f4 54bd 5fe7 acbc
00000010: 47bf cbbc ec0a ba3d 9c44 b73d 82db f9bd
00000020: 1a26 9f3d 4569 56be
0.08976772 0.115307726 -0.051991135 -0.02110642 -0.024871482 0.090841144 0.08948633 -0.12200071
0.07770939 -0.20938595

exp_avg f4 [10, 1, 5, 5]
00000000: db7a 4c3b 3377 b23b 519d d53b 621b 1e3b
00000010: b6e0 053a 34e3 b83b 141d a43b 21c6 483b
00000020: 36e9 50b9 2042 89ba 227d c53b 6af5 5b3b
00000030: 4668 b0ba a6c7 7abb 2d3a a8bb 72c5 163b
00000040: b1c9 023b 81ed 92ba a1be 6fbb 26ba cdbb
00000050: d10f 07bb 48d0 86bb 8485 1fbb d351 19bb
00000060: 8733 87bb d0f6 d4bb c6f3 72bb 9ab4 46bb
00000070: bd93 85bb 4355 c0ba 6222 b3bb a5ab 8ebb
00000080: bbb3 39bb e12c 4abb 90aa 03bb cb78 55bb
00000090: 59ee 0e3a e00a 04b9 abfb d339 cef9 0bb8
000000a0: 7cd8 533b 0e85 8e3b 38c4 d03a 5f41 573b
000000b0: ea88 903b f71e f939 e4e4 5c3a 67b8 76ba
000000c0: 188a 643a 7365 b33a c9f9 e23b 1242 e73b
000000d0: f83e 0c3c 6788 073c 8b75 983b e550 2a3c
000000e0: a1ca 363c 399f 423c 606b 523c 40ac 263c
000000f0: 45a1 4c3c cbe8 283c 5550 0e3c 45cb 1c3c
00000100: 0299 cd3b 15ae 553c 1cb3 303c b7a3 233c
00000110: fa17 cd3b f8a7 273b e33a 783c 5d23 443c
00000120: 122e e53b e172 433b 9a90 7d3a b066 433b
00000130: 178e 1b3b a751 553b 3922 843b ce5b 9e3b
00000140: 87c3 8e3b 3cb5 8a3b 9611 923b b1b5 343b
00000150: e27b 8f3a 9e14 a43b e8ad 803b 31c4 113b
00000160: ac2b 203b a4f9 1abb 6e9f 963b b82f 313b
00000170: bcc3 39ba 137c f8ba 6265 70bb 7d58 ed3b
00000180: 9e70 683b 33e5 7fb9 c0c1 58bb 9362 c8bb
00000190: 8a07 c83a b941 11ba cff3 9bba 7bac e6ba
000001a0: f768 88ba a41f 203a 9723 34ba fe35 91ba
000001b0: 12f4 92ba 505b a6ba 70f7 af39 aeef bdba
000001c0: 33ce beba 2382 8fba 829f b7ba ca63 44ba
000001d0: 3830 50bb 33df 3cbb 48ce a4ba 366f d8ba
000001e0: 2a12 bdba 7bba 9ebb f95b b1bb 2384 0abb
000001f0: be8a c8ba 449a 1bbc 6b81 0bbc 67be 9ebb
00000200: c00e e33a f227 8a3b 2b40 c4bb 2b26 60bb
00000210: ee86 4d3a 72c1 bb3b 42ee 9a3b 07ba 6cbb
00000220: 532c 893a 2c5b a13b dec4 1c3c 9cfe 093c
00000230: 0e34 8fbb 8f06 06ba 5125 a63b bdc9 5f3c
00000240: 4110 7d3c 724f 17ba 907f 233a d109 b63b
00000250: 55e8 663c 7fed 693c 6781 3e3b 782b 683b
00000260: 13bd c63b 0c02 e73b 40d5 823b daa4 933b
00000270: 8461 a53b b878 d53b d10a ac3b f04b aa3b
00000280: c028 df3b d0de c73b f384 843b cfb6 7c3b
00000290: 7b7f a33b 8196 c23b 98a7 793b 959c 3b3a
000002a0: 4199 8d3b 0f89 963b b466 603b e224 f83a
000002b0: 49ba d73a 28e5 703b 5d3f 153b 11b2 203b
000002c0: b41e a038 12be 3abb 3052 91ba 2c19 74ba
000002d0: f67f 823b f36e b63a cb4e 123a 1847 773a
000002e0: c163 baba 1507 ce3b c31a 6b3b 617e a13a
000002f0: fc9d 713b 0658 1abb c692 5e3b 542d 3b3b
00000300: 29ca 553b 35cd 893b 3c64 f8ba cc14 8c39
00000310: 4dfe 463a 35b2 8e3a 06e3 65bb 6223 f3bb
00000320: d5ff 9bbc 6f0e 01bc 1359 dcba adca 4d3b
00000330: 0015 aa3b 2801 5dbc 1689 43bb 8e87 4eba
00000340: 4316 453b 0470 983b 4457 80bc 857b d9bb
00000350: a5fa 31ba 3a66 083b a4ec 5437 e133 a6bc
00000360: 7c78 7cbc 9ba8 c9bb 3789 13bb ef1b 27bb
00000370: 05a2 9dbc a3ae 91bc d551 30bc 35e6 08bc
00000380: fd48 f1bb ab3d 39bc 18aa 16bc f88f debb
00000390: 3916 0d38 2d5b 6f3b fe76 19bc ab86 31bc
000003a0: 9e29 e2bb ed60 4eba 01b5 d138 2d1a 23bc
000003b0: 14bc 15bc ff8c d5bb f5d4 d4bb ffcf ecba
000003c0: e602 dcbb 541f a2bb f632 a4bb e857 59bb
000003d0: 5a07 9b3a 1ebd a3bb 039b bbbb 475b 4dbb
000003e0: 52ae f13a 1772 e83b
0.0031201157 0.0054463386 0.0065189977 0.0024125208 0.0005107032 0.005642319 0.005008349 0.0030635672
-0.00019923304 -0.0010471977 0.00602688 0.0033563026 -0.001345881 -0.0038265972 -0.005133888 0.002300587
0.0019956643 -0.0011209698 -0.003658213 -0.006278294 -0.0020608793 -0.0041141845 -0.0024341056 -0.0023394718
-0.0041260156 -0.006499149 -0.003707157 -0.003032005 -0.0040764497 -0.0014673847 -0.0054667452 -0.0043539577
-0.0028335887 -0.0030849504 -0.0020090677 -0.003257322 0.00054523867 -0.00012592552 0.00040432563 -3.337283e-05
0.003232508 0.0043493574 0.0015927618 0.003284536 0.0044108527 0.00047516052 0.00084264413 -0.00094116334
0.00087180873 0.001368685 0.0069267494 0.0070574367 0.008559935 0.008272267 0.004652684 0.010395263
0.011156709 0.011878782 0.012842983 0.010172904 0.0124896215 0.010309408 0.008686145 0.009569948
0.0062743435 0.013041993 0.0107848905 0.009987763 0.0062589617 0.0025582295 0.015150758 0.011971322
0.0069940174 0.0029823112 0.00096727314 0.0029815845 0.0023735815 0.003254989 0.0040324 0.0048327213
0.004356805 0.0042330306 0.004457663 0.0027574117 0.0010946954 0.0050073406 0.0039269812 0.0022242183
0.0024440093 -0.0023647333 0.004596642 0.00270365 -0.00070863566 -0.0018957875 -0.0036681523 0.0072432146
0.0035467516 -0.00024404078 -0.0033074468 -0.0061152666 0.0015261036 -0.00055411045 -0.0011898222 -0.0017599011
-0.0010407259 0.00061082304 -0.00068717584 -0.0011078713 -0.0011211655 -0.0012692008 0.00033562956 -0.0014490986
-0.0014557302 -0.0010948818 -0.0014009329 -0.00074916764 -0.0031767022 -0.002881956 -0.0012573684 -0.0016512636
-0.0014424969 -0.0048440075 -0.0054125753 -0.0021135889 -0.0015300137 -0.009497229 -0.008514742 -0.004844475
0.0017323121 0.0042161876 -0.0059890947 -0.0034202437 0.00078402355 0.0057298476 0.0047281096 -0.0036121623
0.001046548 0.0049241986 0.009568421 0.00842252 -0.004370219 -0.00051126716 0.0050703664 0.013658938
0.01544577 -0.0005772031 0.0006236965 0.0055553694 0.014093478 0.014277815 0.002906883 0.00354263
0.00606502 0.0070498046 0.0039927065 0.004505736 0.005047025 0.006514635 0.005250313 0.0051970407
0.0068102777 0.0060995594 0.004044169 0.003856111 0.004989562 0.0059383516 0.0038094278 0.00071568164
0.004321248 0.0045939754 0.0034240903 0.001893189 0.0016458716 0.0036757682 0.0022773363 0.0024520198
7.6351134e-05 -0.0028494638 -0.0011087116 -0.0009311612 0.0039825393 0.0013918563 0.0005581199 0.0009432896
-0.0014220403 0.0062874653 0.0035874106 0.0012320989 0.0036867848 -0.0023551001 0.0033961996 0.0028560953
0.0032621718 0.004205371 -0.0018950771 0.00026718376 0.00075909944 0.001088685 -0.0035077943 -0.0074199894
-0.019042889 -0.007876976 -0.0016811214 0.0031401322 0.0051904917 -0.013489045 -0.0029836348 -0.00078784756
0.0030073083 0.004652025 -0.015666611 -0.006637039 -0.0006789363 0.0020812885 1.2691282e-05 -0.02028841
-0.015409585 -0.0061541325 -0.0022512206 -0.0025498827 -0.019242296 -0.017783469 -0.010761698 -0.008355667
-0.007363437 -0.011306207 -0.009195827 -0.0067920648 3.3637716e-05 0.003652285 -0.009366749 -0.01083533
-0.006901934 -0.00078727194 9.999611e-05 -0.009954971 -0.00913908 -0.006517052 -0.006495113 -0.0018067359
-0.0067142127 -0.0049475823 -0.005010958 -0.0033163968 0.0011827752 -0.0049969098 -0.005725266 -0.0031334923
0.0018438792 0.0070936787

exp_avg_sq f4 [10, 1, 5, 5]
00000000: 6825 8d39 517e 9139 eb39 8a39 4570 8c39
00000010: aad1 5939 6870 6839 db90 5839 3d7a 6f39
00000020: 906f 6439 4a75 3839 fba8 5b39 8f8d 6d39
00000030: 44b6 8439 df1e 7c39 d7f9 8439 cd62 4c39
00000040: 1410 8a39 8222 9e39 2425 a239 f90a a839
00000050: 6099 2939 e243 5a39 ec7e 9039 e229 a639
00000060: b7b4 9039 48fa 5739 264b 3c39 cf37 5539
00000070: b0e8 4e39 87b9 0039 0835 8739 eb3c 5739
00000080: 34be 7f39 fdc8 3f39 5bcf 1339 51b9 8939
00000090: 78c0 8239 fd19 9439 d7cf 6439 77be 6439
000000a0: ac6c 4039 c671 4c39 5ecf 8739 adae 9339
000000b0: 8f36 ad39 5121 0a39 e7b9 3b39 a1ba 8739
000000c0: bdcf a539 b8db ab39 e685 f239 4803 413a
000000d0: 8e50 6b3a a185 543a 5b80 083a 86fe 1e3a
000000e0: 9913 763a 0b86 7b3a c132 243a 0b88 a139
000000f0: 3a93 3a3a f1ef 813a b8da 4f3a b7c5 a739
00000100: 6323 2839 d592 5c3a 23c8 833a e2e7 103a
00000110: 39cb 4039 844c e638 42cd 6b3a 6c5f 653a
00000120: b256 fa39 ae01 3139 f4cc f738 a1e8 a538
00000130: 0d3e fb38 45d9 8239 3716 d639 7d26 dc39
00000140: 626a a738 a082 0e39 ba76 a739 8a0f f039
00000150: 2b29 d439 3663 0639 e70b 8d39 c244 f139
00000160: 6105 063a 83f8 c339 3968 6f39 ad94 db39
00000170: 6d18 163a 4624 f939 70a1 8f39 4d40 a939
00000180: 0e04 063a ddd1 033a cf12 b239 352f 6a39
00000190: 349c 6d38 2373 3538 ceba 3738 d53f 3638
000001a0: 0e04 6338 17ce 3138 ca8a 2a38 21b6 2938
000001b0: f3b5 2638 3879 2b38 8284 6c38 11af 3b38
000001c0: 90a8 2b38 8f9a 2538 c5ad 2438 51c3 af38
000001d0: 5ecf 6538 f3e2 3338 ac9f 2838 1cc7 2338
000001e0: 1e06 1d39 51a7 c538 f3ce 7f38 14e8 4138
000001f0: 5f74 6438 e40e 7639 fe7b 3e39 7097 1b39
00000200: 2dab 8239 d87f ca39 aec2 8739 a284 2139
00000210: a762 0739 5e03 ac39 4298 083a d5f7 ae39
00000220: e7fd 5439 6c94 8639 44eb 243a c61a 593a
00000230: 643a 113a 3a6b 093a 2da0 543a 0408 953a
00000240: c559 973a e7ba 433a 466a 743a 4067 a73a
00000250: 5cb0 be3a 40ae 983a 5654 7b39 3e88 5f39
00000260: 890d 6b39 f7f7 6539 1464 8739 6477 6e39
00000270: 6aab 8339 6f70 7439 2d3b 4539 8af1 1e39
00000280: a711 8239 b5b1 8139 57a7 5a39 d1bf 1339
00000290: c716 f838 b951 2339 4df7 4039 5b1b 6b39
000002a0: 099e 2439 c9c3 e338 7e25 cc38 158f 1939
000002b0: a090 5f39 7f72 2c39 9813 0039 17a0 5839
000002c0: cbc1 aa39 f139 0f3a e36a 0d3a ba95 cf39
000002d0: 0d09 a739 43be f439 ce73 013a 0b85 c339
000002e0: ecfa a539 a1f0 ae39 5832 c439 fcac af39
000002f0: 3bc7 8f39 8e81 9139 390d 8439 8f6f 8639
00000300: 2930 9339 9423 9f39 fb5a b939 8817 6a39
00000310: 347e 7539 1921 9639 5ac6 bb39 3b23 d339
00000320: 70e1 d039 57ee 8d39 a0bd 5139 da84 7a39
00000330: 13d7 a639 7528 e839 8af2 7139 bc5c d738
00000340: f919 e538 2795 4339 b808 243a 0609 a839
00000350: 68fb f038 1737 e738 903e 0839 3ff1 533a
00000360: 5be6 213a 7760 a139 d8e7 6639 1bd9 4e39
00000370: ccbb 533a d37a 573a 15bd 1c3a 40f4 d939
00000380: 2e79 ac39 80d0 5f3a f825 893a 0619 993a
00000390: 6df9 963a b22e 8a3a b611 753a e740 8b3a
000003a0: 74bf 893a 1eaa 873a ad43 793a 0670 5d3a
000003b0: 7506 2d3a 9aa4 0a3a 6ce0 1d3a 456b 323a
000003c0: d6ea 033a eaa1 9839 eeda 9e39 ad4e d639
000003d0: 7d8a 163a 941c a439 18a3 6d39 7ce4 9739
000003e0: e17d d839 fea7 293a
0.00026921486 0.00027750668 0.00026364563 0.00026786528 0.00020772839 0.00022167119 0.00020653328 0.00022838353
0.00021785335 0.00017591301 0.00020948418 0.00022654816 0.000253128 0.00024044093 0.00025363147 0.00019491762
0.0002633339 0.0003016182 0.0003092672 0.00032051632 0.00016174233 0.00020815388 0.00027560384 0.00031693192
0.00027600463 0.00020597235 0.00017957072 0.00020334053 0.00019732374 0.00012276146 0.00025788718 0.00020526692
0.00024389551 0.00018290053 0.00014096258 0.00026268748 0.00024938933 0.00028248123 0.00021821201 0.00021814728
0.0001835103 0.0001949734 0.00025903707 0.00028168169 0.0003303778 0.00013173117 0.00017902964 0.00025888256
0.0003162603 0.00032779365 0.000462576 0.00073628547 0.0008976542 0.00081070705 0.0005207115 0.00060651486
0.00093870756 0.0009594864 0.00062636664 0.00030809673 0.00071172754 0.0009913427 0.0007929015 0.0003200003
0.00016034911 0.00084142137 0.0010054152 0.00055277173 0.00018386253 0.00010981507 0.00089951244 0.00087498757
0.0004774831 0.00016880661 0.00011816053 7.9111436e-05 0.000119801705 0.0002495741 0.00040833812 0.00041990346
7.982996e-05 0.00013590837 0.0003194118 0.00045787945 0.00040466464 0.00012816195 0.00026902484 0.0004601833
0.0005112496 0.00037378454 0.00022831642 0.00041881707 0.00057256856 0.00047520007 0.00027395366 0.000322821
0.00051122985 0.00050285255 0.0003396482 0.00022333565 5.665068e-05 4.3260992e-05 4.3804575e-05 4.345163e-05
5.4124794e-05 4.2392025e-05 4.0660416e-05 4.046236e-05 3.9746938e-05 4.088247e-05 5.6390192e-05 4.4747318e-05
4.0926563e-05 3.948301e-05 3.9262482e-05 8.381031e-05 5.479098e-05 4.288829e-05 4.0203027e-05 3.9047663e-05
0.00014974966 9.424857e-05 6.0989474e-05 4.6230925e-05 5.4467815e-05 0.00023465935 0.00018166003 0.00014838367
0.00024923068 0.00038623693 0.00025894254 0.00015403566 0.00012911354 0.00032808905 0.00052106765 0.00033372515
0.00020312482 0.00025669055 0.0006291161 0.00082818826 0.0005540012 0.0005242113 0.0008111026 0.0011370187
0.0011547139 0.000746651 0.00093236973 0.001277186 0.0014548409 0.001164861 0.00023968643 0.00021317691
0.00022416389 0.00021931516 0.0002582377 0.00022741925 0.0002511398 0.00023311538 0.00018809429 0.00015158035
0.00024808684 0.000247372 0.00020852439 0.0001409047 0.00011829804 0.00015575335 0.00018402674 0.00022421537
0.00015699131 0.00010860671 9.7344615e-05 0.00014644519 0.00021320814 0.00016445851 0.0001221433 0.00020659003
0.00032569314 0.0005463651 0.00053946505 0.00039593672 0.00031859466 0.00046681063 0.0004938216 0.00037292423
0.00031658204 0.0003336715 0.00037421542 0.00033507484 0.00027423524 0.0002775308 0.00025186854 0.0002564159
0.00028073907 0.0003035335 0.00035353735 0.00022324745 0.00023412035 0.0002863489 0.00035815203 0.00040271305
0.00039840816 0.00027071193 0.00020002434 0.00023891349 0.0003182223 0.0004428063 0.00023073904 0.00010269272
0.00010924409 0.00018652213 0.0006257403 0.0003205018 0.0001149092 0.000110252 0.00012993277 0.00080849597
0.0006175988 0.00030780185 0.00022020878 0.00019726569 0.0008076995 0.00082199014 0.0005979103 0.00041571446
0.00032896682 0.0008537844 0.0010463586 0.0011680431 0.0011518426 0.0010542481 0.00093486474 0.0010624201
0.0010509328 0.0010350381 0.00095086807 0.0008447174 0.00066003884 0.000528881 0.0006022516 0.00068061455
0.00050322467 0.00029112335 0.00030299224 0.0004087588 0.0005742682 0.0003130181 0.00022662838 0.00028971198
0.00041292518 0.0006471871

max_exp_avg_sq f4 [10, 1, 5, 5]
00000000: bbd9 8d39 517e 9139 05f5 8a39 dc3d 8f39
00000010: cc89 5f39 82e1 6939 8148 5a39 59ad 7539
00000020: 97bb 6939 fbe8 3d39 ebbe 5f39 f944 7139
00000030: 626c 8739 dfc1 7e39 89a2 8639 3670 4e39
00000040: c4c3 8b39 890e 9f39 dfbc a239 83ce a839
00000050: c2e5 2a39 ecf5 5b39 1eba 9039 348d a639
00000060: 7a3a 9139 00e6 5a39 d4c7 3d39 e4bc 5739
00000070: 9acd 5439 0966 0639 8461 8939 28a1 5939
00000080: 6289 8239 0164 4639 91dd 1939 2bf7 8a39
00000090: a7cd 8439 c16a 9739 b6aa 6839 b597 6639
000000a0: 1933 4139 5f34 4f39 2fe2 8939 39c8 9439
000000b0: 8f36 ad39 6c85 0c39 970f 4039 82a4 8839
000000c0: fa7c a639 7b14 ac39 c133 f639 e28e 433a
000000d0: 3d3e 6e3a eccc 563a 97f2 083a 8a4e 203a
000000e0: 0290 783a cb34 7e3a a539 253a 6f00 a239
000000f0: a261 3c3a 1a99 833a 2f54 533a ee92 a939
00000100: e057 2939 b338 5e3a 553f 853a 875e 133a
00000110: 03db 4439 cf93 e938 0b01 6c3a ed1f 663a
00000120: 0977 fe39 0a00 3439 f8fc fb38 0f87 a638
00000130: 2508 fe38 1ac8 8339 5a6a d639 6425 de39
00000140: 4cd8 a938 875f 1239 5d1b a939 33af f139
00000150: a2e1 d739 f5ce 0839 3693 8f39 2f37 f339
00000160: d6b2 063a 291c c539 ddb6 7339 e261 de39
00000170: 1890 173a b795 fa39 3438 9139 81bf ab39
00000180: 73b7 073a af40 043a 3c8d b239 4b82 6c39
00000190: 267c 7238 fcad 3638 0f96 3838 d53f 3638
000001a0: 7518 6338 f7b8 3238 52ea 2b38 f556 2a38
000001b0: 6b2e 2738 9d1a 2c38 f778 6e38 3eca 3d38
000001c0: 27ef 2b38 720d 2638 773d 2538 4d16 b138
000001d0: 6f8b 6638 45ef 3338 a2e6 2838 b4d6 2338
000001e0: af87 1d39 1bac c538 f3ce 7f38 1138 4238
000001f0: 067c 6438 e40e 7639 fe7b 3e39 6259 1c39
00000200: 0ad0 8339 ddd7 ca39 ef99 8839 ff42 2339
00000210: 944b 0939 ccd1 ac39 6c05 093a a202 b039
00000220: 1e10 5839 a008 8839 2b03 273a 8b2c 5c3a
00000230: e1e8 113a eedc 0b3a 6f32 583a d8dd 963a
00000240: 9c2c 983a b604 463a eb0e 783a d8ab aa3a
00000250: eba5 c03a 47c7 993a 7a2e 7d39 b635 6139
00000260: 890d 6b39 f7f7 6539 90c4 8739 cdc7 6f39
00000270: 7495 8439 d58d 7439 7076 4639 1149 1f39
00000280: 1287 8339 2557 8239 f633 5c39 7de7 1439
00000290: 0044 f838 cfe6 2439 79e8 4139 5b1b 6b39
000002a0: 94c1 2439 18fe e338 f3d3 cc38 fd13 1a39
000002b0: 14c4 5f39 4076 2c39 9813 0039 3579 5a39
000002c0: cbc1 aa39 c5eb 0f3a 0f17 0e3a 50b9 d039
000002d0: 8011 a839 95bc f539 ff05 023a 37c3 c439
000002e0: d44c a739 667f b139 f103 c739 de9e b139
000002f0: 478d 9139 f785 9339 7afa 8739 845b 8a39
00000300: a7ae 9539 124f a139 b2e2 ba39 db5d 7039
00000310: f1ec 7a39 4c24 9739 00d3 bc39 52c5 d339
00000320: 70e1 d039 1b24 8e39 a0bd 5139 da84 7a39
00000330: 13d7 a639 7528 e839 222f 7239 bc5c d738
00000340: f919 e538 2795 4339 2c45 243a 2a75 a839
00000350: 68fb f038 1737 e738 903e 0839 fd6c 543a
00000360: baf5 213a 7760 a139 d8e7 6639 4aa0 4f39
00000370: 21bf 533a d37a 573a 15bd 1c3a 40f4 d939
00000380: 2e79 ac39 720a 623a a40e 8b3a f3db 9a3a
00000390: 44ec 983a fc2d 8b3a 515d 793a 2532 8d3a
000003a0: 8051 8b3a 7011 8b3a 1b1e 7a3a 6a48 603a
000003b0: 908d 2e3a 0bdd 0c3a c810 213a de79 323a
000003c0: 063a 053a ff3e 9a39 a23f a239 0cb7 d739
000003d0: a109 173a ab52 a739 b091 7039 0195 9839
000003e0: 7709 d939 963d 2a3a
0.00027055838 0.00027750668 0.00026503965 0.00027321174 0.0002131827 0.0002230462 0.0002081711 0.00023429598
0.00022290494 0.00018111237 0.0002133806 0.00023009245 0.00025829958 0.0002429555 0.0002567957 0.00019687493
0.00026658003 0.00030337673 0.00031039768 0.0003219732 0.00016298055 0.0002097708 0.00027604488 0.00031767192
0.00027700124 0.00020875782 0.00018098886 0.00020574365 0.00020294488 0.00012817247 0.0002620333 0.00020754768
0.0002489789 0.00018920006 0.00014673757 0.00026505566 0.00025330225 0.00028880502 0.00022188839 0.00021991025
0.0001842495 0.00019760568 0.00026299196 0.00028377937 0.0003303778 0.00013401144 0.00018316355 0.0002606251
0.00031755102 0.00032821656 0.00046959336 0.0007459951 0.0009088254 0.0008193988 0.0005224137 0.0006115219
0.0009481908 0.0009697198 0.000630284 0.0003089937 0.0007186179 0.0010040135 0.00080615556 0.00032343663
0.00016149832 0.0008477077 0.0010165969 0.00056216907 0.00018773605 0.00011137837 0.0009002841 0.0008778561
0.00048535343 0.00017166152 0.00012015732 7.9406534e-05 0.00012113181 0.00025135354 0.000408965 0.00042370998
8.0988364e-05 0.00013959232 0.0003225458 0.00046097636 0.00041176105 0.00013047068 0.00027384766 0.00046389687
0.0005138343 0.0003759575 0.00023242408 0.00042416068 0.00057816645 0.00047795262 0.0002769843 0.00032758343
0.00051771774 0.0005045039 0.00034056033 0.00022555252 5.781292e-05 4.3554217e-05 4.400877e-05 4.345163e-05
5.4143795e-05 4.261077e-05 4.0987805e-05 4.0612143e-05 3.9859133e-05 4.103278e-05 5.685628e-05 4.5249464e-05
4.0992305e-05 3.9590006e-05 3.939631e-05 8.4441715e-05 5.496613e-05 4.2899763e-05 4.0269115e-05 3.9062186e-05
0.00015023233 9.425749e-05 6.0989474e-05 4.630542e-05 5.4474942e-05 0.00023465935 0.00018166003 0.00014910617
0.00025141268 0.00038689273 0.0002605463 0.0001556985 0.00013093493 0.00032962707 0.0005226943 0.00033571298
0.0002060537 0.00025946368 0.00063710165 0.00083989714 0.00055660127 0.000533535 0.0008247261 0.0011510206
0.0011609974 0.00075538026 0.0009462672 0.0013021184 0.0014697885 0.0011732363 0.00024145274 0.00021477681
0.00022416389 0.00021931516 0.00025895657 0.00022867248 0.00025288353 0.0002332249 0.00018926873 0.00015190641
0.00025086902 0.0002486046 0.00021000192 0.00014200616 0.000118382275 0.00015726242 0.00018492517 0.00022421537
0.00015712372 0.00010871532 9.766957e-05 0.0001469403 0.00021339982 0.0001644725 0.0001221433 0.00020835253
0.00032569314 0.00054901495 0.0005420306 0.0003981092 0.00032056496 0.00046870546 0.000496 0.0003752948
0.00031909964 0.0003385499 0.00037959174 0.00033878436 0.00027761815 0.00028137836 0.00025935826 0.00026389596
0.0002854962 0.00030767225 0.00035645586 0.00022923147 0.00023930125 0.00028828008 0.00036015362 0.0004039207
0.00039840816 0.0002711125 0.00020002434 0.00023891349 0.0003182223 0.0004428063 0.00023096477 0.00010269272
0.00010924409 0.00018652213 0.0006266411 0.0003213075 0.0001149092 0.000110252 0.00012993277 0.0008103399
0.00061782787 0.00030780185 0.00022020878 0.0001980077 0.00080774917 0.00082199014 0.0005979103 0.00041571446
0.00032896682 0.00086227723 0.0010609222 0.0011814818 0.0011667092 0.0010618563 0.00095125014 0.001077239
0.0010629147 0.0010610055 0.0009541229 0.00085557124 0.00066586677 0.0005373514 0.0006144163 0.0006808321
0.00050821935 0.00029420105 0.00030946458 0.00041144376 0.00057616277 0.00031914315 0.00022942456 0.00029102716
0.00041396517 0.00064941624

exp_avg f4 [10]
00000000: a424 4aba 1443 a83a 341a 3d3b 9f3a 4c3a
00000010: 28a6 223b 36af c93b 56e4 c7bb 85e6 f5ba
00000020: 1fef 293b ecc6 a73b
-0.00077111484 0.0012837374 0.002885473 0.00077907176 0.0024818275 0.00615492 -0.006100218 -0.0018760717
0.002592988 0.005120149

exp_avg_sq f4 [10]
00000000: c1e5 c838 5158 d338 9c7d 8939 cfc2 f638
00000010: c4ef 6739 f7c0 fc39 5733 e138 d5a9 d438
00000020: a594 5439 925a 353a
9.579538e-05 0.00010077714 0.00026224263 0.0001176648 0.00022119196 0.00048208956 0.00010738399 0.000101405814
0.0002027327 0.0006918098

max_exp_avg_sq f4 [10]
00000000: 9b47 ca38 50e6 d438 d350 8a39 b8eb f738
00000010: 5f7d 6839 6d09 063a 6b6c e138 c6b5 d738
00000020: 7e73 5839 55e5 353a
9.645448e-05 0.00010151847 0.0002638163 0.00011821784 0.00022171949 0.0005113099 0.000107490305 0.00010285857
0.0002064239 0.0006938775
