pytorch/template/saved/models/Mnist_Model/0121_234515/checkpoint-epoch1.pth (torch, 359983 bytes, 32 tensors)

conv1.weight f4 [10, 1, 5, 5]
00000000: be1f 1e3e e514 4b3e eb4d 253b a33f 773e
00000010: 0c9c 11bd 78ef 0b3d 735e 64bd 7879 363e
00000020: de8e 713e 52b5 1abe 1d23 4b3e ee26 e03d
00000030: 2d7f 703e c46f c53d 7470 0d3e b659 7abb
00000040: aa2a 6d3e ebac ec3d 8980 babc 759d d33d
00000050: d7cc 09be 7a1d bbbb 9d89 1dbd 0b59 263e
00000060: 59cb 13be 4eb4 01be 6834 c5bd a292 cdbd
00000070: 3ce5 293d c16c 67be 05ad 543e 7ffb 1cbe
00000080: 403c 4c3e 9203 4d3d 84df 03be 1bb7 393e
00000090: bd2b c43d 797f 773e 7c61 973d 4646 77bd
000000a0: 80fa a03d 9ac5 213c cce6 2e3e 1cb1 883e
000000b0: 4c33 3b3e bb55 0dbe 9969 1a3e ff85 ce3d
000000c0: 2668 313e 8bc3 64bd 4567 0ebe 4e76 513d
000000d0: 616c 33bd da6b 4b3e 7139 063c 33ad 053e
000000e0: 62a8 343e 53e7 b53d be03 273e 3f5d 85be
000000f0: 6ac3 ff3d 96a5 3d3c 4c12 343e 352c b2bd
00000100: 04c9 fabd 2609 c03d 26e1 9e3e b5c4 95bc
00000110: e913 3cbe cb21 96be ff7e 9b3e c131 3f3e
00000120: 0e05 803e 95c7 86be 57fc bfbe 85a9 abbe
00000130: 5bd4 66be 5d05 0b3e 5268 2a3e b151 8b3e
00000140: 6f7c 89be 7810 4abe 3e12 463e b2f9 373d
00000150: 1bd9 753e 72e7 39be fc43 0a3e 9c31 11bd
00000160: 41be 793c 9036 c53d 6f5d 22bd 6ba8 4d3a
00000170: 0b0f 5f3e 72d1 5c3e d92a 52be 4fba b0bd
00000180: 8eb4 823e 0a35 753c 2282 b0bc 1852 90be
00000190: 6a1c 6ebe 3ce6 e2bc a945 9abd 43db 44be
000001a0: ce57 5ebd a19f 7cbe b1c6 85be 0581 46be
000001b0: 6cd3 81be 2b43 5bbe fd14 a13d 8865 abbd
000001c0: 6d69 24bd acf7 8abe 59d0 65be 383d f5bd
000001d0: 3996 25bd dca5 84be 5df6 2dbe 6b9c 5dbe
000001e0: ab0d 763c a0e1 a1bd f551 5dbd 0010 62be
000001f0: ccfd 82be 1f25 3ebe a8fa f5bd 7311 4dbe
00000200: 76cc 353d d0b5 cabd 5769 8a3d 15d7 b5bd
00000210: c677 b2be 4939 90bc 3227 ffbd ae4e acbd
00000220: 702c 7cbe 7e0c 8cbe d69c 313c 0168 43bc
00000230: 15c2 573e 3395 cab9 4335 8e3e e160 32bd
00000240: 79e5 a23d edc0 3c3e cbeb 8c3e 7b09 a33e
00000250: 4c8d 9c3e 5ec3 76bd b712 503d f62c 37bd
00000260: 361c a83c a2ff 16be 9c92 373e cfca 1abe
00000270: 0e53 393e 851e 143e 300e c93d 5b10 e5bd
00000280: 4ed2 803e 476b 1d3e ef7d dd3d 3483 34be
00000290: 1623 a93d 02f1 58bc 54f5 94bc a9fb 703e
000002a0: 5eee 593d 8258 fbbd d8af 42be f27d 1fbc
000002b0: 7cd7 163e 7496 0fbd 67a1 0ebe 8916 11be
000002c0: e819 10be 486c 1f3e d29b 653e 7f68 54be
000002d0: 46d5 3b3d 03ca 243e 0b27 ed3d af91 0ebd
000002e0: 34e0 523d e904 073e 41c3 023e 74d9 093d
000002f0: 08c3 78bc 4f3c 033d 1ad1 87bc d085 8bbc
00000300: a232 4f3e 93be 833e c7e5 4a3d d5dc 64bd
00000310: 7b3f 463c 1088 5e3d f711 0f3e 20fa 1b3e
00000320: a5ea 26be a436 42be 5386 1a3d eb77 583d
00000330: 9552 733d 97aa b7bd af13 a0be 87d0 cdbe
00000340: 1c44 42be 3bf6 df3c 4d15 6f3e 7a1c 5f3d
00000350: fbdb a7be 8995 8abe 1ffd 42be af36 a33e
00000360: 79cb 2f3e 39d1 21bd a193 cdbc bac1 69be
00000370: 9ba0 413c 0799 a13e 0240 663d d2c1 773d
00000380: 0996 4bbe 6d18 6a3e d24d 873e 94bd 603e
00000390: 44c4 f73c 9574 69bc c13a 2abd 4853 923e
000003a0: 9b7e 843e 4095 b13e d94e 8c3e 772d ca3d
000003b0: da84 8a3c ff1d 15be 0383 debd 1713 e5bd
000003c0: 7075 56bd 3ce9 8cbe 08c7 57be 1036 50be
000003d0: b287 cfbd 6627 afbe d3d9 a0be 1f36 a1bd
000003e0: d96f d6bd dcee 1b3d
0.15441796 0.1983219 0.0025223445 0.24145369 -0.03554921 0.034163922 -0.055754136 0.17819774
0.23589656 -0.1510823 0.19837613 0.10944925 0.23486014 0.09640458 0.13812429 -0.0038200445
0.23160806 0.11556419 -0.022766368 0.10332767 -0.13457046 -0.005710301 -0.038461316 0.16244905
-0.1443304 -0.12666437 -0.09629136 -0.100377336 0.04147838 -0.2260008 0.20769127 -0.15330313
0.19944859 0.050052233 -0.12878233 0.18136255 0.09578655 0.2416972 0.073916405 -0.060369752
0.07860279 0.009873772 0.1708023 0.26697624 0.18281287 -0.13802235 0.15079345 0.100841515
0.17324886 -0.055850547 -0.13906582 0.051138215 -0.04380453 0.19865361 0.008192406 0.13054352
0.17642358 0.08882012 0.16310021 -0.26047704 0.12488444 0.011575123 0.17585105 -0.08699838
-0.12245372 0.09376745 0.3103115 -0.018282274 -0.1836697 -0.29322657 0.30370328 0.18671323
0.25003856 -0.26324144 -0.37497208 -0.3352777 -0.22541945 0.13576265 0.16641358 0.27210763
-0.26852748 -0.19732845 0.19342896 0.044915862 0.240086 -0.18154696 0.13502496 -0.0354477
0.015243114 0.096295476 -0.039639886 0.00078452256 0.21783082 0.21564272 -0.20524158 -0.086292855
0.25528377 0.014966259 -0.021546427 -0.28187633 -0.23253027 -0.027697675 -0.07532818 -0.19224267
-0.054282956 -0.24670269 -0.26128152 -0.19385155 -0.25356615 -0.21412341 0.07865331 -0.08368975
-0.040139604 -0.27142084 -0.2244276 -0.11974567 -0.040426467 -0.2590779 -0.16988511 -0.216417
0.015017907 -0.07904363 -0.05403324 -0.22076416 -0.25584257 -0.18568848 -0.120106995 -0.20026188
0.044384442 -0.09897959 0.06758373 -0.08878914 -0.34857005 -0.01760544 -0.12458648 -0.084134445
-0.24626327 -0.2735328 0.010840615 -0.011926652 0.2107013 -0.00038639604 0.2777501 -0.043549422
0.07953925 0.1843297 0.27523646 0.3184317 0.3057655 -0.06024491 0.050799098 -0.044720612
0.020521265 -0.14745954 0.17927021 -0.15116428 0.18098089 0.14464767 0.09817159 -0.1118476
0.2516045 0.15372954 0.108150356 -0.17628175 0.08258645 -0.0132410545 -0.018183388 0.235335
0.05320584 -0.12272741 -0.19012392 -0.009734618 0.14730638 -0.035055593 -0.13928758 -0.14168753
-0.14072382 0.1556865 0.22422722 -0.20742987 0.04585769 0.16092686 0.115797125 -0.034806903
0.051483348 0.13185467 0.12769796 0.033654645 -0.015183218 0.032039937 -0.0165792 -0.01703158
0.20234159 0.25731334 0.04953554 -0.055874664 0.012100096 0.054328978 0.13971697 0.15232134
-0.16300447 -0.18966156 0.037725758 0.052848738 0.05940493 -0.08968084 -0.31265017 -0.40198156
-0.18971294 0.027339092 0.2334797 0.054470517 -0.3278502 -0.2706721 -0.1904187 0.31877658
0.17167462 -0.03950617 -0.025094809 -0.22827807 0.0118180765 0.31562063 0.056213386 0.060487576
-0.19881453 0.2286088 0.2642656 0.21947318 0.030244954 -0.014248987 -0.04155994 0.28579164
0.25877842 0.3468418 0.27403906 0.09871953 0.016909052 -0.14562224 -0.10864832 -0.11185282
-0.05235809 -0.27521694 -0.21072018 -0.20333123 -0.10133304 -0.34209746 -0.31416187 -0.07871651
-0.10470552 0.03806959

conv1.bias f4 [10]
00000000: a086 9e3c 8d9e 1bbd 5322 c03b cc7a 4abd
00000010: 47a9 8a3c 1feb a0bd 4705 303e 4dba 25bd
00000020: d286 133e 5f2e f03d
0.019351304 -0.037993003 0.0058634668 -0.049433514 0.01692642 -0.07857346 0.17189513 -0.040460873
0.14406899 0.117275946

conv2.weight f4 [20, 10, 5, 5]
00000000: 15b1 183d 7ea9 97bd b4a1 5b3c 72d2 4dbd
00000010: 476c 6ebc 3134 893d 55a3 deba 076c 273c
00000020: 0011 0e3b 4259 b3bc 8693 4c3d 564a 3fbd
00000030: 5a64 8d3d 5728 b43d 99b6 fc3d 0fd9 13bd
00000040: 083a e8bd 4530 0ebd 4ef7 fc3c 7d6b c4bc
00000050: a923 2fbd c786 f2bd 8e2a d0bd 6c57 dabd
00000060: 1555 26bd e1da 97bc 686f 52bd b015 6f3d
00000070: 5946 983d 7683 4c3c c02a bc3a 4340 1c3c
00000080: f6ca b3bc 4a8f 2ebc 5a63 b93d 603c 65bd
00000090: cadb 17bd adc5 fa3b 3dea 0d3d 98d3 783d
000000a0: f0d6 57bd a3c7 ebbd 978a f4bd 9e31 bebd
000000b0: e688 f6bc a44f a63d cf5d 19bc 2efc 633a
000000c0: c61b 36bd 670f efbc 67b2 343d 583d a8bb
000000d0: e6c4 44bd 713d 933c f5f6 9b3d 32e0 2bbc
000000e0: 75e1 13bb 7a79 6a3d 5aac 1cbd c1a0 133d
000000f0: 5ff6 87bd 2a2b 9abd 1e49 9bbc bbc2 9ebd
00000100: 0901 c7bd 2ecb 4cbd 2ce7 9abd c9a6 27be
00000110: b53a 33be 2d76 b8bd c801 5b3d 3a8f a53c
00000120: 2954 8abd ea01 a8bd 7406 6c3d 8b0f adbd
00000130: 07df 8ebd 43d1 b63c 2300 01bd 70cb df3b
00000140: c594 78bd 243d 72bc 36f3 12bd 9faa 96bd
00000150: 4905 c3bd b7d6 8dbd 01ea 9e3d 9419 003b
00000160: 3c7e 98bd 1744 6abd 54bc 2ebd 1c6c 703d
00000170: cbf8 af3d 5080 553d 6a56 a8bd 130b c1bd
00000180: 3fe2 12bd d864 36bd 039d 413b 1beb d03d
00000190: 623e f63a 62ef a2bc 23e5 98bd a52c 8bbc
000001a0: 2369 e13c 2630 d83c 99c3 f6bc 265c 0bbe
000001b0: 43ea 10be df7d d1bc 2130 ca3d a0b9 d33c
000001c0: 051e cebd c0ae adbd 46c0 9bbd 25e0 f73c
000001d0: 7e15 953d 2678 ca3d 77e5 613d d355 10bd
000001e0: fa9a 8f3d 0852 213c 7911 bd3d 1d5f e13d
000001f0: 4d66 a03d 5de3 aa3c e4c7 0dbd 3787 153c
00000200: 65ec ab3d 7d8c 8c3d eafc a23b 0d9b ba3c
00000210: 3afd 083e 40af 073e 04b9 fc3d f430 5ebd
00000220: 483d adbd 2e8e ebbb a945 283d 18a2 bd3c
00000230: 12d5 2a3d 1e13 943d d735 0ebd f668 f43b
00000240: a8e3 a8bd a000 703d 1c04 9e3d 8f38 e23d
00000250: 0114 b73d 93d1 ad3c 099d 2abd c0de 28bd
00000260: d7e0 213d 7a57 be3c 11a8 793d fa74 4dbd
00000270: 03f0 96bc cb2d 4f3d 48e4 9fbc a25f 7b3c
00000280: cb22 a9bb 34c8 8dbb 8150 99bc 6572 8a3d
00000290: 9d17 053e 51f5 c0bc 9d1f 86bd 3b16 04be
000002a0: 3204 9cbd 0545 1a3d 9d0b c33c 107e 44bd
000002b0: 753d c5bd d177 03bd 9c05 b1bd d493 113d
000002c0: 4e1b 09bd 5f38 24bb 856c 793b b157 9e3c
000002d0: 6b96 9bbc 39d5 853d abba d23c d069 cf3d
000002e0: 5b36 d63d b440 9abd fe40 7abd 283c 5d3d
000002f0: 21f4 d73d 1bee 0c3d e643 9fbd 29b9 2bbe
00000300: c529 0ebe d921 d6bc bd68 193d 6da1 c0bb
00000310: eabd 66bd e01f 09bb 3266 44bd 3b42 9dbd
00000320: 9ce4 d9bc c65b bcbb a23a a13c 7e25 6ebd
00000330: ce2b 6b3d 1232 1fbd 2813 5cbd d6ff a43c
00000340: 8158 a43d 6e31 c33d c0dd de3d 9a5c b93d
00000350: 56af 853d e23c e83c 7c06 cd3c 73a0 2e3e
00000360: c07c cd3d e93f d93c dbc4 3ebc aa43 82bc
00000370: 495b 223e 1af2 123e c5f5 bf3d 0813 343d
00000380: c017 87bd b6af d5bc 889a ea3b e405 97bd
00000390: dc4b 5cb9 7981 f23b bb72 513c e910 6c3c
000003a0: c01c 043d d1a2 1e3d a96e cc3c 6b19 403c
000003b0: a991 903d fc30 f93d 70a9 483d b054 0b3d
000003c0: 4678 323c 17b8 e23c 74fa fe3d 6419 343e
000003d0: f194 253e 35af fa3c cdfd 97bd 1419 4ebd
000003e0: b5c8 46bd 7e00 33bc 4cca d0bc 3375 91bd
000003f0: 12a6 5b3b 9636 a7bd f844 b8bd 03cf 3ebd
0.037278254 -0.07405375 0.013405252 -0.050249524 -0.0145521825 0.06699408 -0.0016985933 0.010218627
0.0021677613 -0.021893147 0.049945377 -0.04670175 0.06903906 0.08796757 0.12339515 -0.036095675
-0.113391936 -0.034714002 0.030879643 -0.023977036 -0.042758618 -0.11842113 -0.10164367 -0.10661206
-0.040608484 -0.018536987 -0.051375777 0.058370292 0.07435293 0.012482515 0.0014356002 0.009536806
-0.021947365 -0.01065428 0.09052153 -0.05596578 -0.03707484 0.0076529593 0.034647215 0.060748667
-0.052695215 -0.11512687 -0.119404964 -0.092868075 -0.030094575 0.08120659 -0.009360745 0.00086969405
-0.04446008 -0.02918215 0.04411545 -0.005134266 -0.04803934 0.017973633 0.07615463 -0.010490464
-0.0022564803 0.057244755 -0.038250305 0.03604198 -0.066387884 -0.07527764 -0.018955763 -0.07751986
-0.09716994 -0.049998455 -0.07563624 -0.16372217 -0.17502864 -0.09006915 0.053468496 0.020209897
-0.067543335 -0.0820349 0.05762334 -0.0845023 -0.06976133 0.02231658 -0.03149427 0.0068296716
-0.060688753 -0.014785085 -0.035876475 -0.07356762 -0.095224924 -0.06925719 0.077594765 0.0019546496
-0.07445952 -0.05719384 -0.042660072 0.05869685 0.08592375 0.05212432 -0.08219607 -0.0942594
-0.035860296 -0.044529766 0.002954305 0.10201093 0.0018786902 -0.019889537 -0.07465579 -0.016989062
0.027515953 0.026390146 -0.030122565 -0.1360937 -0.14151864 -0.025572715 0.09872461 0.025845349
-0.100643195 -0.084805965 -0.076050326 0.030258248 0.0727949 0.09886198 0.055150475 -0.0352381
0.07011981 0.009846218 0.09231848 0.110044695 0.07832012 0.020860368 -0.03461446 0.009126476
0.08394698 0.068627335 0.0049739974 0.022779012 0.13377848 0.13250446 0.123399764 -0.054245904
-0.08458954 -0.00718858 0.041082058 0.023148581 0.041707106 0.07230209 -0.034719314 0.0074588014
-0.08246547 0.058594346 0.077156276 0.11045944 0.08939362 0.021218097 -0.041653667 -0.041228056
0.039521065 0.023235071 0.060951296 -0.050160386 -0.018424993 0.05058078 -0.019518033 0.015342625
-0.0051616183 -0.0043268446 -0.018715145 0.067601 0.12997289 -0.023554476 -0.065489985 -0.12899105
-0.07617988 0.03766348 0.023809249 -0.047971785 -0.096308626 -0.032096688 -0.08643648 0.03554137
-0.033473305 -0.0025058014 0.0038059067 0.019328924 -0.018992623 0.065348096 0.025723776 0.10127604
0.10459586 -0.075318724 -0.061097138 0.054012448 0.10544611 0.034406763 -0.077766225 -0.16769852
-0.13883121 -0.026139187 0.0374534 -0.0058786185 -0.05633346 -0.002092354 -0.047949024 -0.07678648
-0.026598267 -0.005748245 0.019681279 -0.058141224 0.057414822 -0.03886611 -0.053729206 0.020141523
0.08024693 0.09530912 0.10882139 0.090508655 0.06527583 0.028349344 0.025027506 0.17053394
0.1003356 0.026519733 -0.011643614 -0.015901405 0.15855135 0.14350167 0.09373049 0.043963462
-0.06596327 -0.026084762 0.007159535 -0.073741704 -0.00021009095 0.0074006882 0.0127837015 0.014408329
0.03225398 0.038729493 0.02495511 0.01172481 0.070590325 0.12167546 0.048989713 0.03401631
0.010892933 0.027675672 0.12450114 0.17587811 0.16170098 0.030601123 -0.074214555 -0.050316885
-0.048531253 -0.01092541 -0.025487088 -0.07102432 0.0033515734 -0.08164708 -0.0899753 -0.04658414

conv2.bias f4 [20]
00000000: ed81 973d db35 4bbd a17a 8fbc 761f 64bd
00000010: 02f1 13bd d606 ea3b a4b2 4e3d 3be5 19bd
00000020: 2166 e13b 1607 82bd 0814 d83b dd09 0f3d
00000030: e161 0dbd 3817 15bc b08b 6c3d d313 07bd
00000040: cbaa 9fbc d209 3abd a058 223d 0b5c 3b3c
0.07397828 -0.049611907 -0.017514529 -0.055694066 -0.036118515 0.007141928 0.050463334 -0.037572127
0.00687863 -0.06349008 0.006594185 0.034921516 -0.034517173 -0.009099774 0.057750404 -0.03297789
-0.01949062 -0.04541952 0.0396353 0.011435519

fc1.weight f4 [50, 320]
00000000: 8ee7 053c 4d53 513d d9dc cc3c d47c bb3c
00000010: 8ca2 83bd ac1c 96bd 2038 213b d13c 3dbb
00000020: 62ae f1bd 5b92 60bd 2dde c2bd 852f 873c
00000030: 4601 7a3c 71fc f43c 3fba 74bc b19f 023e
00000040: 9bf6 163d 0661 863c ba84 8fbd f5d5 6dbd
00000050: 5c6d 3bbc c243 73bd 7f40 6dbd f54c d3bc
00000060: 7b2d d03a 0208 983c 8695 3ab8 4131 583d
00000070: 6975 92bc 06c7 ee3c 8b14 d43d 36c7 013d
00000080: 30a9 b5bb dc58 613c 0bb1 9d3d 9d39 3e3d
00000090: 5ee9 34bd 1119 04bd 40d9 493c d9a4 b83d
000000a0: df2a 9b3d 7ad7 543c 57d0 1cbc e070 fcba
000000b0: dabd 9fbc 666b c83b 70e0 ccbd 7363 02be
000000c0: 7f2b 6b3d c193 7f3d 55a2 e83d 36ab 2ebd
000000d0: fc41 a33d f868 d43c e8bb f43d 4916 80bd
000000e0: beff a1bd 92c8 9ebc 6c0d dabb 8a98 43bd
000000f0: b078 a3bd 0f77 55bc 1aea 86bd 9570 efbc
00000100: 80c1 343d 0328 c23d 3641 013e 58ec a83c
00000110: e3e9 793d c583 953d 8676 ee3c ec52 3bbd
00000120: a56a 1ebd 55db c63c 8909 f13c e8d7 9bbc
00000130: f2cb ea3c bdc5 323d a38a b9bc 4196 2bbd
00000140: 9132 1f3d 01a6 8e3d 5c95 bd3d af0f 89bd
00000150: ad26 303d a557 203d e7f8 67bd aba0 b2bd
00000160: f5c4 65bd 8970 afbc 4f47 473d c9b5 543c
00000170: 002b 5d3d 51ce c83d 9943 0c3d be63 73bd
00000180: f585 5cbd 4f6a 613c 4253 fc3c d70c 3b3d
00000190: 6056 663d c0ed 8e3d c355 dbbc add9 543d
000001a0: 5007 b23c f680 d43c 9d77 46bb 2139 acbc
000001b0: ecd6 423d a7c3 4b3d 0958 8b3b 0fd0 6dbd
000001c0: 4d84 2bbd 90f4 60bd 6a2a 0b3d 6e24 e0bc
000001d0: ea6c 5ebd 6cd6 0d3d 9321 7a3d 7b50 92ba
000001e0: 4995 563c 5c17 0d3d 91ab 4f3d d8b4 aabc
000001f0: d249 19bd a199 a4bd b5c0 6abc 3d38 efbb
00000200: 010c 0abd 4c26 123d 8610 3c3c 5663 07bc
00000210: 9019 333d 80f5 5bbb bde4 db3c e8af 87bc
00000220: 485a bcbc 2b61 c5bd 4789 babd 8835 2bbc
00000230: be4a b93c bd51 5dbd c5e3 0d3d 7dbc 823d
00000240: 4116 45bd 4de9 683c 6413 a1bc c48d 0fbd
00000250: 3258 12bd 6d7e b43b 3bb1 7c3c 3115 20bd
00000260: b8dd b3bc 9321 803c 4b5d ba3c 692c 62bd
00000270: b3ea 783d c860 e13d 0220 c63b 4619 fcbc
00000280: 23cc 95bd 1e34 45bd 874a f8bc c070 16bd
00000290: 4d95 53bd d6e5 5dbd 3612 86bd 3a1d 1fbd
000002a0: 97f3 dcbb 8e44 fd3c 3390 d03b 7604 2e3a
000002b0: b355 233c 6ae7 e33c 6f70 373d 513a bf3d
000002c0: 6216 7bba 44fa 433d 2b87 e33d 96ae 8abd
000002d0: 2348 fcbc 2473 1dbc 6930 4ebd c2ee 0d3c
000002e0: ba33 5d3d ff57 cc3c 55a3 183c 7c07 003d
000002f0: fb36 00bd 69c9 00bc 2041 77bd 5e0b 3c3d
00000300: 8040 123d d9d8 b53c 3147 d8bb 99be 3ebd
00000310: 385f 223b 1e41 7c3c 1cd5 27bc 2228 2e3d
00000320: 9aa2 993c fa6d 0fbc 24fc b43c ec8a 193d
00000330: 8c47 08bd 7b2b 473c f19b 68bd e017 a5bc
00000340: 91d0 a8bc af50 a23d 794d aabb 6363 f43c
00000350: a92a 47bd c640 773d c8dc 633d 161d c6bb
00000360: 5138 723c 283a a03d 4a32 32b9 d319 6dbd
00000370: 9f8d 54bd ae69 0d3d e593 f9bc 71cf f4bd
00000380: bc50 8f3c f143 26bc fbdb 393d db21 1f3d
00000390: cc47 d93d e753 133d cc03 d83d 5a1e 503c
000003a0: c896 923d 020c 853d 0fa0 e93c 0f3f 41bd
000003b0: e5f7 30bc 53a7 8b3d f96f 273d 9c71 03bd
000003c0: 94e6 c13c ca9f e93a fbca 1fbc b910 b5bc
000003d0: c28f 203d a2fc 463d 9f7a a6bb 4135 91bd
000003e0: 9114 7dbd 7a5e 3ebd ba14 07bd 1901 3abd
000003f0: d16c 77bd 0725 79bb 64e0 b43d 5780 a93d
0.008172883 0.051104832 0.025007652 0.022886671 -0.06427488 -0.073296875 0.0024600103 -0.002887536
-0.11800839 -0.054827075 -0.09515033 0.016502151 0.015259093 0.02990553 -0.014936983 0.1275623
0.036856275 0.016403686 -0.070077375 -0.058065373 -0.0114396475 -0.05939079 -0.057922836 -0.025793532
0.0015882695 0.018558506 -4.448511e-05 0.052781347 -0.017878251 0.029147636 0.10355481 0.031684123
-0.0055438504 0.013754096 0.07699784 0.046441663 -0.04416787 -0.032250468 0.012319863 0.09015817
0.075765364 0.012990827 -0.009571156 -0.0019259714 -0.019499708 0.0061163185 -0.100037456 -0.1273325
0.057414528 0.06239677 0.113590874 -0.04264375 0.0797157 0.02592896 0.11949903 -0.062542506
-0.07910107 -0.019382749 -0.006654432 -0.047752894 -0.07982004 -0.013028874 -0.0658762 -0.029228488
0.04412985 0.09480288 0.12622532 0.02062051 0.061014067 0.07300524 0.02910925 -0.045733377
-0.038675923 0.024274508 0.029423492 -0.01902385 0.028661702 0.04364561 -0.022649115 -0.04189134
0.038866583 0.069652565 0.09257004 -0.066924445 0.043005634 0.039146084 -0.056633856 -0.08722051
-0.056096036 -0.021415966 0.04865199 0.012982794 0.053996086 0.09804977 0.034244154 -0.059421293
-0.05383869 0.013758256 0.03080142 0.045666542 0.056234717 0.06978941 -0.026774293 0.051965404
0.021732002 0.0259404 -0.0030283697 -0.021023335 0.047568247 0.049747135 0.004252438 -0.05805975
-0.04187422 -0.054920733 0.033975996 -0.027361121 -0.054303087 0.034628317 0.061067175 -0.0011162901
0.013097116 0.034446105 0.050700728 -0.020838186 -0.037423916 -0.08037115 -0.0143281715 -0.0073004053
-0.033702854 0.035681054 0.011478549 -0.00826343 0.04372555 -0.0033563077 0.02684247 -0.01656337
-0.022992268 -0.09637674 -0.09108215 -0.010449775 0.022618648 -0.05403303 0.034641046 0.063836075
-0.048116926 0.0142157795 -0.019662566 -0.035047308 -0.03572864 0.005508235 0.015423114 -0.03908271
-0.02195631 0.01564101 0.022749564 -0.055218134 0.0607707 0.11004788 0.006046296 -0.03077377
-0.073143266 -0.048145406 -0.030308975 -0.03672862 -0.051656056 -0.054174267 -0.06546442 -0.038846232
-0.0067429054 0.030916478 0.006364846 0.0006638238 0.009969163 0.027820308 0.04478496 0.09337295
-0.00095782254 0.047846094 0.111097656 -0.06771581 -0.030796116 -0.009609971 -0.050339136 0.008662881
0.05400441 0.024944304 0.009316285 0.031257138 -0.031302433 -0.00786052 -0.060364842 0.045909278
0.035706043 0.022198128 -0.0066002836 -0.046568487 0.0024775993 0.0153963845 -0.01024368 0.042518742
0.018754292 -0.008754248 0.022092886 0.037486 -0.033271357 0.012156363 -0.056789342 -0.020152986
-0.020607265 0.079255454 -0.0051972237 0.029832548 -0.04862467 0.060364507 0.055630475 -0.006045948
0.014783935 0.078235924 -0.00016994137 -0.057885956 -0.051892873 0.034524612 -0.03046603 -0.11953629
0.017494552 -0.010148034 0.045375805 0.038850646 0.10609397 0.035968687 0.10547599 0.012702549
0.071576655 0.06496431 0.028518705 -0.047179278 -0.01080129 0.06819024 0.04087827 -0.03209077
0.023669519 0.001782411 -0.009752984 -0.0221027 0.039199598 0.048580773 -0.0050805355 -0.070902355
-0.06178719 -0.04647682 -0.03297875 -0.045411203 -0.06040651 -0.0038016455 0.088318616 0.08276432

fc1.bias f4 [50]
00000000: a64a 973c 772f aaba dba8 a73d b39e 753b
00000010: f598 293d 156a 2b3c 54b4 813d 45e3 7abb
00000020: f491 903d 0403 613c d383 7d3d 59fb 5ebd
00000030: e0a0 31bc 82ae 893c 4049 b8bc 202e 0abc
00000040: 39a9 77bd dcc5 333d 1e77 713d ef55 1dbc
00000050: 99ed 4e3d 7bc8 d23c e030 e53c 0353 143d
00000060: e097 92bc 156f 91bc 5f1e 1f3d 4b62 41bc
00000070: a648 333d 8d82 1b3d 0045 d43c 49b0 ecbc
00000080: b6fa 2b3d e105 113c faf5 9b3d 6cf0 92bb
00000090: bf8b 40bc 8bfb 17bd 46b4 fa3c a1a5 6b3b
000000a0: 6d01 1d3c 86db 513d 95a3 78bb 7811 723d
000000b0: d5c9 923d 6daf 62bc e81a b03c 91cc f2bb
000000c0: dfc7 453d 4035 7ebc
0.018468212 -0.0012984116 0.081865035 0.0037478625 0.041405637 0.010462304 0.06333223 -0.0038282436
0.07059088 0.013733629 0.061893295 -0.054438923 -0.010841578 0.016806845 -0.022495866 -0.008433849
-0.060464118 0.043889865 0.05895149 -0.009603008 0.05051956 0.025730362 0.027977407 0.03621198
-0.017894685 -0.017753163 0.038847324 -0.01180322 0.043770455 0.0379663 0.025911808 -0.028892653
0.041987143 0.008851499 0.07615276 -0.004484227 -0.011752068 -0.037105124 0.03060354 0.0035956877
0.009582859 0.051234744 -0.00379393 0.05909869 0.07167403 -0.01383577 0.021497205 -0.00740964
0.048286315 -0.0155156255

fc2.weight f4 [10, 50]
00000000: 116e 8f3d f355 073e 0fbc 0d3e 0099 2bbe
00000010: a5e7 9b3d b066 603d 2c2f 18be ee69 193e
00000020: c5d2 d9bd 9918 3abe d0fb 963d 1abd 9e3d
00000030: 9221 64be 153a febd a607 dcbd eb52 0e3e
00000040: b340 5c3b 0713 16be bbe5 89bd 0af5 f43d
00000050: 378f 3c3c 7115 033e 692a 55be b8f1 82bc
00000060: e72f 12be b97d cabd 3fde 21be 1f64 c7bd
00000070: 69e6 6cbe 2a95 4fbe 67cb a43d b9fb da3d
00000080: a46c 40be 234c ffbd d6e5 03be 7330 d63d
00000090: e579 39be 4c2d bd3d 4fa0 f6bd e91d 593d
000000a0: 8149 a6bd e331 18be d459 f93d da9d 1b3e
000000b0: f999 20be 1334 d83d 447d 5b3d 539c 153e
000000c0: 9540 0cbe b893 003e 5078 cb3d 75bc 033e
000000d0: 1c8e a03c 7989 353e 9dba cebd 224b 0bbd
000000e0: 4dcc 0cbb 64d5 c1bd d152 273e 8f46 2f3e
000000f0: e659 d2bd c4ed 2cbe 95f7 e63d 0746 cabd
00000100: 04f8 a0bd f680 39bc 452f bcbd ee81 ccbd
00000110: 7d68 9b3d fcdd 37be ae6c 29be f61f 7cbc
00000120: 9921 5fbd bea5 2cbd 4ce3 7bbc 5c65 363d
00000130: 1a0d cbbd 8a00 df3d 1a5c 3a3d 36ad 133d
00000140: 28c1 d63d 689b 1dbe 2f76 2dbc 343b 603d
00000150: 0cfe c83d 598c 38be b7f1 57bd 31a9 5abe
00000160: 1fd1 283d 38e6 a73d 7eb0 4dbe 41c1 14be
00000170: 74b5 dfbd da9c db3d cf20 dc3d aecf e53d
00000180: 8e50 71be 06f4 053e 6cfa 2f3e 997f 29be
00000190: 7eb7 e23d cf85 88bd 7c2d 143e 1f58 27bd
000001a0: 84fe 21be 03fc fbbd 0b9b d03d fcc5 7ebb
000001b0: c5d1 27be 8930 b9bd 2862 1f3e ff77 a2bd
000001c0: bf18 c6bd 611b cbbd d250 b1bc 52e7 9ebd
000001d0: 7562 84bd 37f3 f23c b5a3 173d 8d7e 163e
000001e0: 209a 1dbe 7f15 9dbb 9c35 3cbd 55bb 0bbe
000001f0: 1003 d33d 4941 a33c 6a50 9cbd f8dc 81bd
00000200: 8bf4 a0bd 90c9 2a3d e77f a2bd 473e 243d
00000210: 1b7f 1cbe c083 5c3d 3e56 eb3d 558a c93b
00000220: 53da fcbd 65c8 7e3d f49b 80bd e4e1 8d3b
00000230: e426 8d3d 887f 3ebc 1661 883c 5d6d 643d
00000240: df7d d33d ab2d 67bd 6ba3 0c3d 16ba 263e
00000250: 0b5d 2f3e 826d c73d a025 eabd 24e8 163d
00000260: d5ef 033e 0356 a9bd f68d 39bc 86a2 b2bd
00000270: 7cf9 e73d 4ec7 e5bd eb08 fdbb 53b7 47be
00000280: 1da9 91bd 440e b13d 8654 57bd 2300 103e
00000290: 7b81 e3bd 37d6 6bbd 703d 00bc 0110 213e
000002a0: 918d 023e 3e36 133e 28ad 27be eb96 3f3c
000002b0: 1424 97bd ece1 19be 5db8 473d 974d d43c
000002c0: 5aee d73d 2a95 273e 2724 6abd bc74 623d
000002d0: 9035 4fbd e3b2 f73d 9414 8d3d 3362 533d
000002e0: 38c0 06be 81e6 d13c e768 493d 0af1 d7bb
000002f0: 5c39 2abd 6489 8b3d af40 e5bd 82c2 ccbd
00000300: eadd febc 7df2 b7bd f793 bdbb 011c a9bd
00000310: 82a3 09be ccf7 13bd 4c01 b13d d2ac a53d
00000320: f08d 3abd 82c3 debd 1c9e 35be ef9f e2bd
00000330: aad6 4abd e95f 163e 531f dbbd b72b 11bc
00000340: efbc fc3d bee9 b83d 5114 a63d 5b5e 9b3d
00000350: 292f 003e a25d abbc 1afd 45be c610 8fbd
00000360: 63c8 843d c77f d2bd 3535 fd3d c383 f5bd
00000370: c116 983c d66d 173e a148 10be 1d4f 9f3d
00000380: fb1d bf3d c8fe 3bbe 054b 833c 5d17 04be
00000390: 178e f93d bf88 0c3d 988e 56bd a4a3 5abc
000003a0: cee2 023d a9af 53bd c2f2 be3d 9cb3 e3bd
000003b0: 043f dc3d 978f febd ab45 273e d4df efbd
000003c0: 975d 9d3d cc33 fb3d 1f89 a1bd c649 00be
000003d0: 79f0 bdbd f391 633d 5bc6 e33b 4ccf 963d
000003e0: 4834 2cbe 21a4 4dbd 6464 53bd d7e2 153e
000003f0: 4cc5 b73d 9b4c 0cbd 38d0 e43d f04a 05be
0.070034154 0.13216381 0.1384127 -0.16757584 0.07612542 0.05478543 -0.14861745 0.14981815
-0.10635904 -0.18173446 0.07372248 0.07750912 -0.22278431 -0.12413422 -0.10743646 0.13898818
0.00336079 -0.14655696 -0.06733271 0.119608 0.011508754 0.12801148 -0.2081696 -0.015984401
-0.14276086 -0.09887261 -0.15807436 -0.097358935 -0.2313477 -0.20271745 0.080466084 0.106925435
-0.18791443 -0.12465694 -0.12880644 0.1045846 -0.18112905 0.09237155 -0.12042295 0.05300704
-0.081194885 -0.1486278 0.121753365 0.15196934 -0.15683736 0.10556807 0.05358626 0.14610414
-0.13696511 0.1255635 0.09935057 0.1286486 0.019599013 0.17728223 -0.100941874 -0.0340072
-0.0021484077 -0.09464529 0.16340186 0.1711676 -0.10271053 -0.16887575 0.11277691 -0.09876638
-0.07859805 -0.011322251 -0.091887034 -0.099857196 0.07588289 -0.17955774 -0.16545364 -0.015388479
-0.0544754 -0.04215025 -0.015374016 0.044530258 -0.09914608 0.10888775 0.04549799 0.03605386
0.104860604 -0.15391314 -0.010587259 0.05474396 0.098140806 -0.18022288 -0.05272075 -0.21353604
0.04121506 0.081982076 -0.20086858 -0.14526846 -0.10923281 0.107232764 0.10748445 0.112212524
-0.23565885 0.13081369 0.17185372 -0.16552581 0.110701546 -0.06666147 0.14470476 -0.040855523
-0.15819746 -0.12303927 0.10185822 -0.0038875332 -0.16388614 -0.090424605 0.15564787 -0.07933044
-0.09672689 -0.099173315 -0.021644983 -0.077589646 -0.06464092 0.02965699 0.037021358 0.14696713
-0.15390825 -0.0047938223 -0.045949563 -0.1364568 0.103033185 0.019928591 -0.07632525 -0.063409746
-0.07859143 0.04169613 -0.07934552 0.040098455 -0.15282862 0.053836584 0.11491059 0.0061505237
-0.123463295 0.06220283 -0.06279746 0.004329907 0.068921834 -0.0116270855 0.016647857 0.05576836
0.103267424 -0.056440037 0.034335535 0.16281924 0.17125337 0.09737684 -0.11432958 0.03684248
0.12884457 -0.082683586 -0.01132535 -0.08722405 0.11326882 -0.11219655 -0.0077220104 -0.19503526
-0.07112334 0.08645299 -0.052570842 0.14062552 -0.11108681 -0.057577338 -0.007827148 0.15728761
0.12749316 0.1437616 -0.16374648 0.0116936965 -0.07379928 -0.15027589 0.048759807 0.025915904
0.10543509 0.16365495 -0.057163384 0.055287108 -0.05058819 0.12094667 0.068886906 0.051607322
-0.13159263 0.025622608 0.04917231 -0.0065900134 -0.04155861 0.068133146 -0.11193978 -0.09998037
-0.031111676 -0.08981798 -0.005785461 -0.082572944 -0.1344128 -0.03612499 0.086428255 0.080896035
-0.04554552 -0.10877134 -0.17736095 -0.11065661 -0.049521126 0.14685024 -0.10699334 -0.00886052
0.12340724 0.09028958 0.08109344 0.07586356 0.1251799 -0.020918671 -0.19334832 -0.06985621
0.06483533 -0.10278278 0.12363664 -0.11988022 0.018565537 0.14787993 -0.14090206 0.077787615
0.0933189 -0.1835891 0.016026983 -0.12899537 0.121853046 0.0343101 -0.05238208 -0.013344679
0.03195458 -0.051681194 0.09323646 -0.11118242 0.10754207 -0.12429731 0.1633517 -0.11712614
0.076838665 0.12265739 -0.07887482 -0.12528142 -0.09274382 0.05555911 0.006951136 0.073637575
-0.16816819 -0.050205354 -0.05160941 0.14637314 0.08973178 -0.034252744 0.11172527 -0.13016868

fc2.bias f4 [10]
00000000: be68 df3c 0bd6 5fbd 3ead 37bd 701b d3bc
00000010: 2874 2e3d af3d df3d 75c0 0b3e bccd 6cbd
00000020: bc31 963c 5ae4 13be
0.027271625 -0.054647487 -0.04484295 -0.02576992 0.042591244 0.10900437 0.13647635 -0.05781339
0.018334262 -0.14442578

exp_avg f4 [10, 1, 5, 5]
00000000: c40b 5cba 2d3e 9dba 33ea fcba 6c05 14bb
00000010: 3cb5 20ba 5442 10bb 6696 3cbb b722 7ebb
00000020: 4425 85bb bb00 23bb a737 83bb 2b84 93bb
00000030: cf80 91bb a40a 32bb ef46 21bb 636b 47bb
00000040: 42b0 3abb 52e8 2bbb 1554 aeba da3d deba
00000050: 6065 edba d8a7 f4ba 7a43 95ba 1292 98ba
00000060: 00be 95ba 9ff2 52b9 578e 28bb 1de7 20bb
00000070: 47b1 5bb9 0ffe 853b 0f49 a2b9 4370 93ba
00000080: 6b43 e6b9 c5b6 1c3b ab62 893b 2e45 593a
00000090: 0f0f c139 db5c ae3a de2d b43a ecbe f33a
000000a0: e167 8a3a b813 5839 8e3b dcba 9765 07bb
000000b0: d950 33bb 4588 19bb 8678 adbb b111 8fbb
000000c0: b814 dcbb d1e7 fabb 7f43 673b 78f2 5c3b
000000d0: ce73 943a 0488 a1b9 81ff 923a 0bab c33b
000000e0: 7e6b 1f3b fab4 43ba f38a 30ba fa4b 8d3a
000000f0: 5a25 8d3b 910f b3ba 7ba7 9bba 1743 d3b9
00000100: a6c1 683a f02e 713b 1882 9c3a 4444 3839
00000110: 11c5 9dba 8de3 74b9 78e3 953a e094 ab3a
00000120: 450f e53a f246 8f3a 0144 053b 9a49 c43a
00000130: 77fe 663a daa1 c13a f077 1639 84e9 6dbb
00000140: 7928 df39 6f80 7cba 6280 34bb 1e61 65bb
00000150: 31e1 86bb 1624 88ba af27 6fbb 71ad c1bb
00000160: c9ad 9dbb 130c 33bb 64e6 35ba 4002 55bb
00000170: 74a7 a8bb 4e4e a6bb d6f8 18ba b98f bcb9
00000180: eea7 72bb 2a69 afbb 719b 62bb a0ff f43a
00000190: 1c98 873a 2fca 6439 3cc1 fab9 44bf abb8
000001a0: 0683 8039 cbdc a739 5635 e339 fd09 1839
000001b0: 3119 8c39 6fc7 373a 0992 33ba 48f6 4eba
000001c0: dc7b 08b9 a3ee 9b38 573d 073a b373 1fb9
000001d0: 0fce 57ba f06d c9b8 c4f5 aa39 ab0f 363a
000001e0: a442 90ba 41ca 63ba 558d 5db7 688d a3b9
000001f0: d5fa 133a ab94 9fba 702e 8dbb 62c8 5cbb
00000200: 9254 023a 74aa 933b f6db 9fba 5815 1fbb
00000210: 11e5 543a 6d5a 6e3b 7eee ad3b 80f0 8fba
00000220: 1a59 5cba 5a0c b83a 3005 443b c4d6 173b
00000230: 7f8f 7dbb e653 b5bb e9eb aabb 2f4d 1ebb
00000240: a72c 47bb 3642 c2bb fb79 01bc d01d d9bb
00000250: 6f7f 80bb 3ee9 c3bb fb62 f53a bb1d af3a
00000260: 568d c1b9 5a13 e0b9 152e 0eba 5354 133b
00000270: f7a0 9239 a7bb bbba 16ce bcba bd5f 59ba
00000280: 7268 3139 6a0d e0ba 1f39 cdba 71cf 82ba
00000290: 0199 093a c56d d1b9 1e8c bfb9 4607 69b9
000002a0: 8bcf 333a bbdc fe38 e850 813a 00d7 8738
000002b0: a727 0eb9 2051 c638 2650 5bba 249d c03a
000002c0: 4a83 f7b9 ffc9 6cba 89ec a5ba 2619 c4ba
000002d0: 2c5d 0eba f6b6 68bb 5aeb 99bb c355 03bb
000002e0: 0e1d 5738 a67c 2bbb 550c 9bbb 1858 5abb
000002f0: e00c 84ba 5318 813a 14fd c8bb 0d06 c2bb
00000300: f1a7 50bb ba4f dcba 628b 6cba afe2 0ebc
00000310: 8d24 0dbc 0af5 b1bb 1806 c7bb 4a62 8ebb
00000320: 9540 5d3b c673 d53b 2250 703b 1d3c 80b9
00000330: d931 1abb 3732 573b e1a5 0f3c e2c7 cc3b
00000340: 0393 653b 3993 c339 b0ae 51ba b156 b13b
00000350: 98b9 a83b 4da1 be3b 8f13 aa3b 44aa 75ba
00000360: 2df0 793a e49b 223b 50ac 543b 53da 813b
00000370: 6dfc ef3a fe39 503a e843 b2ba 07bb 01bb
00000380: 84c6 513a a3fe 6a39 2253 533b 1c14 cb3a
00000390: 3e6a 13bb 8cff acbb a338 ad3a b5db c43a
000003a0: 8dc9 0e3a 5c55 9bba 94a5 83ba 7cc4 963b
000003b0: 3f22 413b 56b6 9539 8f44 66ba 9c97 e5ba
000003c0: 1efe ec3b 0f98 a33b 3b3d 1e3b cfcc 643a
000003d0: a51a 183a 8066 d33b b462 863b 7c87 863a
000003e0: b1c8 a939 7af5 e83a
-0.0008394087 -0.0011996679 -0.0019295871 -0.002258624 -0.00061305217 -0.002201219 -0.0028776168 -0.0038778016
-0.0040632803 -0.0024872262 -0.004004437 -0.0045018396 -0.004440404 -0.0027166987 -0.002460893 -0.0030428998
-0.0028486405 -0.0026231003 -0.0013300205 -0.0016955689 -0.0018111877 -0.0018665744 -0.0011387907 -0.0011640212
-0.0011424422 -0.00020117544 -0.0025719607 -0.0024551817 -0.00020951508 0.004089124 -0.0003095348 -0.0011248667
-0.0004391925 0.002391265 0.0041926703 0.00082882016 0.00036823048 0.001330282 0.001374658 0.0018596328
0.0010559523 0.00020606711 -0.0016802417 -0.0020659917 -0.0027361421 -0.002342717 -0.0052939085 -0.0043661227
-0.006716337 -0.007657029 0.0035288034 0.0033713859 0.0011326016 -0.00030809653 0.0011215062 0.0059713176
0.0024325545 -0.0007465627 -0.0006734572 0.0010780089 0.004307431 -0.0013661255 -0.0011875475 -0.00040295042
0.00088789535 0.0036801659 0.0011940626 0.00017573038 -0.001203688 -0.00023354423 0.0011435589 0.0013090633
0.0017475864 0.0010931178 0.0020334723 0.0014975548 0.0008811722 0.0014772967 0.00014349795 -0.0036302516
0.0004256403 -0.0009632175 -0.0027542342 -0.0035000513 -0.0041162004 -0.0010386731 -0.003649216 -0.0059105684
-0.0048119766 -0.002732043 -0.0006938933 -0.0032502562 -0.005146915 -0.0050752526 -0.0005835419 -0.00035965236
-0.0037026363 -0.0053531127 -0.0034577514 0.0018691905 0.0010345015 0.00021819094 -0.00047827687 -8.1895414e-05
0.00024511683 0.00032017226 0.00043336552 0.0001449957 0.0002672165 0.0007010614 -0.0006850069 -0.0007894975
-0.00013016112 7.4354255e-05 0.00051589817 -0.00015206523 -0.0008232304 -9.604904e-05 0.00032608036 0.0006945084
-0.0011006189 -0.0008689501 -1.3205533e-05 -0.0003119514 0.0005644982 -0.0012175044 -0.0043085143 -0.0033688773
0.00049717084 0.0045064036 -0.0012196291 -0.0024274196 0.0008121292 0.0036369816 0.0053079715 -0.0010981709
-0.0008405611 0.0014041767 0.0029910319 0.0023168782 -0.0038690267 -0.005533683 -0.005216111 -0.0024154892
-0.0030391605 -0.005928303 -0.007902618 -0.0066258684 -0.0039214413 -0.0059787324 0.0018721515 0.0013360301
-0.00036917132 -0.00042739027 -0.0005423737 0.002248068 0.00027967218 -0.0014322893 -0.001440468 -0.0008292159
0.00016918944 -0.0017093841 -0.0015657282 -0.0009980035 0.00052489346 -0.0003994537 -0.00036534754 -0.00022223321
0.00068592344 0.00012152778 0.0009866031 6.4773485e-05 -0.00013556947 9.4564864e-05 -0.000836613 0.0014695269
-0.0004720933 -0.00090327853 -0.0012658994 -0.0014961108 -0.0005430754 -0.0035509444 -0.0046972455 -0.0020040132
5.1287054e-05 -0.0026166826 -0.0047316947 -0.0033316668 -0.0010074638 0.0009849168 -0.006133685 -0.0059211315
-0.0031838382 -0.0016808428 -0.0009023455 -0.008721038 -0.008614671 -0.0054308223 -0.0060737245 -0.004345213
0.0033760418 0.0065140454 0.0036668857 -0.0002445885 -0.0023528247 0.0032836327 0.008767576 0.006249414
0.0035030253 0.00037302988 -0.0007998748 0.0054119457 0.0051490776 0.0058175684 0.00519032 -0.000937138
0.0009534385 0.0024812156 0.003245134 0.003962794 0.0018309482 0.0007943212 -0.001360056 -0.0019795315
0.00080022984 0.00022410839 0.0032245596 0.0015493664 -0.0022493745 -0.005279487 0.0013215732 0.0015019091
0.00054469035 -0.0011851001 -0.0010043853 0.0046010595 0.0029469875 0.00028555345 -0.000878402 -0.0017516497
0.0072324416 0.004992492 0.0024145383 0.00087280286 0.000580231 0.006451428 0.004101122 0.0010263766
0.0003238372 0.0017773353

exp_avg_sq f4 [10, 1, 5, 5]
00000000: bda6 a738 90a4 ee38 8d8e 0939 3bb8 0639
00000010: 9641 b038 4cc9 b438 49cd f638 517a 0d39
00000020: 1c15 ec38 ec69 ac38 9d0c df38 207f 1439
00000030: 3d46 1439 a537 f438 eee2 e338 6bf5 c838
00000040: 8e48 0639 02c5 0339 2b1d de38 b208 e838
00000050: 5cd5 b138 9826 c938 a31d c638 d94d ba38
00000060: 876c b538 1e17 6538 4fd0 6638 154b 8f38
00000070: 2052 b638 13a2 ab38 4e0c 9938 d1f4 9e38
00000080: a0cf c438 d986 c338 831d ad38 691a d938
00000090: e5ce fb38 fa60 1239 bc2e ff38 2110 ca38
000000a0: ec21 cc38 88b2 f538 d463 1c39 e812 2239
000000b0: 8633 0139 670d a638 dade c138 184c f838
000000c0: 6a55 0139 b82a d438 a351 b838 3024 2439
000000d0: 69f9 5639 d661 3f39 6789 0439 fd58 0139
000000e0: c253 7039 e6de 8139 e249 2a39 1ce5 b638
000000f0: 3614 2839 0a0b 9039 c44c 7039 b806 c338
00000100: ccb4 5738 ed5b 5739 9fd0 9739 3a71 3739
00000110: 6c28 5338 f289 0538 feec 7a39 377e 8b39
00000120: a2d4 1939 e892 5a38 35d6 1838 102b ba37
00000130: 2a2c fe37 ea1d 8f38 dd79 fe38 c75c ee38
00000140: b9d0 cf37 93db 2238 e736 cb38 18bd 0239
00000150: 42cd c538 9341 3238 ca17 9b38 9167 0239
00000160: e8b5 e738 000a 8e38 d7d7 8038 738b d538
00000170: a88c 0339 1191 b338 10dd 3838 643c 9338
00000180: a9e3 ed38 5ded e438 610e 6938 1ec5 0938
00000190: 8e03 bc37 def7 9137 ea2f 9537 bf2c 9237
000001a0: 571c aa37 2376 8137 49dc 9337 5aaf 9c37
000001b0: 1493 9a37 02da 9137 caec 9537 935c 9937
000001c0: 25ad 9f37 059e 9e37 234d 8c37 a2c6 9737
000001d0: 8d8e 9537 34d6 9a37 84cf 9d37 d101 8437
000001e0: 377d c937 5e80 a537 d1d3 9537 de1a 9537
000001f0: b6b3 9b37 38b9 2138 5383 cc37 6dc9 be37
00000200: f867 3b38 4f64 8138 1afc 2338 aef9 ba37
00000210: d074 c837 8669 8638 276e ac38 69a0 4d38
00000220: 7cca ee37 1a61 2a38 06d9 dc38 618c 0739
00000230: cc0f ea38 3ece e738 984b 3639 4d64 6e39
00000240: 262a 6239 0b22 3a39 7ded 7439 298d a139
00000250: af2e aa39 a13a 6b39 0147 3d38 4133 4438
00000260: e561 5238 5f04 6838 cd4d 8c38 8c1a 5438
00000270: a099 6c38 6521 8038 7543 5f38 9a79 6038
00000280: a34c 8d38 5223 9c38 c5c8 9538 baa9 6038
00000290: 16d8 6738 11c6 6338 a8af 8338 223a 8d38
000002a0: d9bf 7d38 7726 5838 7aad 3538 af14 5338
000002b0: 4924 8238 dbb2 5f38 591d 3d38 8e32 7238
000002c0: 4be8 9538 51da e938 3e38 f538 dc64 c638
000002d0: 13dd a238 a77c d838 1e92 e338 ed88 c138
000002e0: e257 ac38 ae2d ce38 ff64 e538 418d d738
000002f0: 80ba b038 cec6 a038 63e0 a838 092e ca38
00000300: a184 e138 4cae de38 51bb c938 81ec a038
00000310: aa38 b638 de76 cc38 2579 d438 a809 ca38
00000320: adec 3b38 a9f5 3238 bed3 2638 601c 0538
00000330: 2a7c 1938 95d1 6538 1bcc 4c38 3d6c 0338
00000340: 9c3a 8837 e360 a837 676f ce38 f70d 6038
00000350: 4c3d bc37 6d2a a837 d844 c937 02cf 1939
00000360: f670 cc38 7d0a 4138 b6ea 1738 4693 0b38
00000370: 65e4 0b39 3862 0239 b5d1 a538 1dd2 6238
00000380: 0b8d 2838 eda0 2a39 e8da 6a39 2700 8e39
00000390: 8ecc 8a39 0af0 7b39 7685 3e39 1274 7639
000003a0: 665d 8639 6a23 8639 4e61 7239 4cb2 0f39
000003b0: 0f16 f238 b7d8 d138 79eb ef38 e3a8 0339
000003c0: 587f a138 74f0 5738 c5ee 6a38 0df9 8f38
000003d0: 8e28 d338 166d 6538 cf0b 2938 35ab 5338
000003e0: 6c8c 9538 ee56 0539
7.994238e-05 0.000113793765 0.00013118442 0.00012847867 8.40455e-05 8.620563e-05 0.000117684314 0.00013492374
0.00011257289 8.2213286e-05 0.00010635818 0.00014161738 0.00014140546 0.00011645191 0.000108664724 9.582456e-05
0.00012806265 0.00012566525 0.00010591218 0.00011064242 8.479759e-05 9.5916155e-05 9.446896e-05 8.8836714e-05
8.650967e-05 5.4619384e-05 5.5030276e-05 6.8327565e-05 8.693733e-05 8.184104e-05 7.2979004e-05 7.579628e-05
9.3846815e-05 9.323442e-05 8.25478e-05 0.000103522856 0.0001200715 0.00013959772 0.000121680525 9.635115e-05
9.7337965e-05 0.000117157644 0.00014914508 0.00015456567 0.00012321593 7.917993e-05 9.2444665e-05 0.00011839735
0.00012334218 0.00010116905 8.78901e-05 0.0001565374 0.00020501543 0.00018251626 0.00012639687 0.0001233555
0.00022919386 0.0002477087 0.00016239987 8.721111e-05 0.00016029258 0.00027474045 0.00022916781 9.299576e-05
5.1428375e-05 0.00020538243 0.000289564 0.0001749442 5.0343966e-05 3.1838143e-05 0.00023930144 0.00026606183
0.00014670429 5.2112067e-05 3.643912e-05 2.219298e-05 3.0299725e-05 6.824343e-05 0.000121343626 0.000113660055
2.4773517e-05 3.8828304e-05 9.690021e-05 0.00012468209 9.431924e-05 4.2499578e-05 7.395407e-05 0.00012436348
0.00011048821 6.77295e-05 6.143719e-05 0.00010182606 0.00012545532 8.562406e-05 4.40749e-05 7.020755e-05
0.00011343446 0.000109160996 5.556492e-05 3.2846925e-05 2.2413002e-05 1.740077e-05 1.7784496e-05 1.7425393e-05
2.0278776e-05 1.543301e-05 1.7626344e-05 1.8678304e-05 1.842672e-05 1.7386865e-05 1.7872448e-05 1.828213e-05
1.9034904e-05 1.8908651e-05 1.672522e-05 1.8093098e-05 1.7828565e-05 1.8457977e-05 1.881249e-05 1.5736472e-05
2.4019375e-05 1.9729308e-05 1.7860819e-05 1.7774695e-05 1.8561124e-05 3.855789e-05 2.4379848e-05 2.2743561e-05
4.4681103e-05 6.169883e-05 3.9097016e-05 2.2289194e-05 2.3896253e-05 6.409273e-05 8.2221166e-05 4.9025202e-05
2.84661e-05 4.062159e-05 0.00010530841 0.00012926898 0.00011160932 0.00011053354 0.00017385033 0.00022734814
0.00021568741 0.00017751024 0.00023358125 0.00030813486 0.0003245971 0.00022433187 4.512724e-05 4.6777775e-05
5.0159073e-05 5.531718e-05 6.690212e-05 5.0569462e-05 5.640986e-05 6.109736e-05 5.3230167e-05 5.3519012e-05
6.7376786e-05 7.4452386e-05 7.14227e-05 5.3563832e-05 5.5275937e-05 5.430548e-05 6.279285e-05 6.734232e-05
6.0498573e-05 5.1534236e-05 4.3315325e-05 5.0325583e-05 6.205642e-05 5.3333915e-05 4.5088444e-05 5.774438e-05
7.1481416e-05 0.000111509704 0.00011692986 9.460162e-05 7.76594e-05 0.00010322901 0.0001085142 9.2284616e-05
8.2179686e-05 9.831354e-05 0.00010938383 0.000102783095 8.427072e-05 7.666425e-05 8.0526595e-05 9.640685e-05
0.0001075354 0.0001061825 9.619317e-05 7.673447e-05 8.688991e-05 9.749619e-05 0.00010131513 9.633909e-05
4.4804696e-05 4.2667296e-05 3.9774684e-05 3.1736097e-05 3.659368e-05 5.4793043e-05 4.8827478e-05 3.133364e-05
1.6239755e-05 2.0072277e-05 9.843596e-05 5.3418767e-05 2.243989e-05 2.0046917e-05 2.3993125e-05 0.00014668333
9.748519e-05 4.6024554e-05 3.6219797e-05 3.327734e-05 0.00013341157 0.00012434355 7.906874e-05 5.4078282e-05
4.0185678e-05 0.00016272413 0.00022397528 0.00027084464 0.00026473816 0.00024026647 0.0001816953 0.00023503628
0.0002562806 0.00025584857 0.00023115167 0.00013703963 0.00011543568 0.00010006263 0.00011440268 0.00012556049
7.700798e-05 5.1483934e-05 5.601232e-05 6.865161e-05 0.00010068818 5.469945e-05 4.0303737e-05 5.046577e-05
7.131029e-05 0.00012716252

max_exp_avg_sq f4 [10, 1, 5, 5]
00000000: 58cb a738 7ae5 ee38 33f4 0939 7e29 0739
00000010: b7e0 b038 74f5 b438 c589 f738 f8fd 0d39
00000020: 191a ed38 b500 ad38 bd45 df38 27cf 1439
00000030: dfd9 1439 9b57 f538 d74c e438 fb47 c938
00000040: 529e 0639 02c5 0339 6434 df38 41bd e838
00000050: d4dd b138 ed86 c938 d938 c638 7f7d ba38
00000060: 1997 b538 b365 6538 09f5 6638 e85f 8f38
00000070: 2052 b638 7ab0 ab38 4e0c 9938 d1f4 9e38
00000080: 0100 c538 bfb3 c338 5649 ad38 691a d938
00000090: e5ce fb38 1fb4 1239 1d61 ff38 774e cb38
000000a0: ec21 cc38 87be f538 31f8 1c39 dd31 2339
000000b0: 8f36 0239 aa11 a638 4be6 c138 184c f838
000000c0: 6a55 0139 b82a d438 0998 b838 bd5d 2439
000000d0: 540a 5739 3971 3f39 7caa 0439 f192 0139
000000e0: 22d0 7039 e6de 8139 e249 2a39 68f7 b638
000000f0: 3c81 2839 2b1d 9039 c44c 7039 b806 c338
00000100: eced 5738 9aa6 5739 9fd0 9739 3a71 3739
00000110: 6c28 5338 8fd6 0538 571e 7b39 5f84 8b39
00000120: f6d8 1939 09b9 5a38 a71d 1938 102b ba37
00000130: 6e93 fe37 8d31 8f38 89b2 fe38 4ac4 ee38
00000140: d1ff cf37 93db 2238 e736 cb38 18bd 0239
00000150: 42cd c538 a36b 3238 ca17 9b38 9167 0239
00000160: e8b5 e738 100e 8e38 5d12 8138 738b d538
00000170: a88c 0339 1191 b338 ca30 3938 5a60 9338
00000180: a9e3 ed38 5ded e438 610e 6938 ca27 0a38
00000190: 8e03 bc37 def7 9137 e479 9537 bf2c 9237
000001a0: a91f aa37 bb9f 8137 5e05 9437 43ed 9c37
000001b0: 8cd6 9a37 bdda 9137 4080 9637 abaf 9937
000001c0: 4a1a a037 7eed 9e37 f075 8c37 8253 9837
000001d0: 1f0c 9637 cc50 9b37 b326 9e37 cd02 8437
000001e0: 9d47 ca37 eb03 a637 0e60 9637 e19b 9537
000001f0: fc46 9c37 31eb 2138 5383 cc37 6dc9 be37
00000200: f867 3b38 4f64 8138 1afc 2338 aef9 ba37
00000210: c87a c837 8669 8638 276e ac38 7c21 4e38
00000220: 7cca ee37 1a61 2a38 06d9 dc38 618c 0739
00000230: a136 ea38 3ece e738 984b 3639 4d64 6e39
00000240: 7062 6239 11a3 3a39 343e 7539 fad1 a139
00000250: 637b aa39 a13a 6b39 6d98 3d38 ba63 4438
00000260: 9d68 5238 223e 6838 bf71 8c38 e333 5438
00000270: c7d9 6c38 e728 8038 494d 5f38 658a 6038
00000280: 4186 8d38 a087 9c38 c5c8 9538 baa9 6038
00000290: 16d8 6738 7410 6538 a34e 8438 dab1 8d38
000002a0: 7a22 7e38 7dbc 5838 8e28 3638 36eb 5338
000002b0: 17a2 8238 79ea 5f38 e446 3d38 8e32 7238
000002c0: 4be8 9538 62f3 e938 3e38 f538 dc64 c638
000002d0: 3c05 a338 a77c d838 1e92 e338 ed88 c138
000002e0: b66f ac38 38c1 ce38 8fff e538 418d d738
000002f0: 80ba b038 736e a138 30f0 a838 092e ca38
00000300: c3b7 e138 5df9 df38 320f cc38 81ec a038
00000310: aa38 b638 de76 cc38 8b99 d438 0e57 ca38
00000320: 07c6 3c38 a818 3338 c8e6 2638 1929 0538
00000330: eb9c 1938 e2b8 6638 b7dd 4c38 3d86 0338
00000340: 1c52 8837 d88a a837 61c2 cf38 2f41 6038
00000350: 8772 bc37 c32f a837 8c4b c937 a6a1 1a39
00000360: f670 cc38 7d0a 4138 b6ea 1738 4693 0b38
00000370: 65e4 0b39 3862 0239 8def a538 1dd2 6238
00000380: 0b8d 2838 eda0 2a39 e8da 6a39 2700 8e39
00000390: 9feb 8a39 9439 7c39 7685 3e39 9fa8 7639
000003a0: b477 8639 6a23 8639 4e61 7239 01bd 0f39
000003b0: 0f16 f238 b7d8 d138 79eb ef38 e3a8 0339
000003c0: e2a7 a138 74f0 5738 c5ee 6a38 a806 9038
000003d0: c250 d338 ae7e 6538 cf31 2938 b305 5438
000003e0: 0ed5 9538 2871 0539
8.001056e-05 0.00011391468 0.0001315631 0.0001289006 8.4341904e-05 8.628788e-05 0.000118035394 0.00013541419
0.00011305902 8.2494145e-05 0.000106464584 0.0001419155 0.00014195543 0.00011698828 0.000108862 9.597834e-05
0.00012838215 0.00012566525 0.00010643227 0.00011097873 8.4813364e-05 9.609559e-05 9.4519644e-05 8.8925466e-05
8.658897e-05 5.469257e-05 5.506448e-05 6.836635e-05 8.693733e-05 8.186787e-05 7.2979004e-05 7.579628e-05
9.393693e-05 9.331805e-05 8.262943e-05 0.000103522856 0.0001200715 0.00013990745 0.00012177436 9.6944095e-05
9.7337965e-05 0.00011717999 0.00014969778 0.00015563467 0.00012418091 7.918787e-05 9.2458526e-05 0.00011839735
0.00012334218 0.00010116905 8.8021225e-05 0.00015675179 0.00020507845 0.00018257358 0.00012652011 0.00012357139
0.00022965719 0.0002477087 0.00016239987 8.724519e-05 0.00016069872 0.00027487552 0.00022916781 9.299576e-05
5.1481577e-05 0.00020566062 0.000289564 0.0001749442 5.0343966e-05 3.1909494e-05 0.00023948528 0.0002661077
0.00014672041 5.2147578e-05 3.650566e-05 2.219298e-05 3.0347812e-05 6.828001e-05 0.000121449186 0.00011385286
2.4795447e-05 3.8828304e-05 9.690021e-05 0.00012468209 9.431924e-05 4.253875e-05 7.395407e-05 0.00012436348
0.00011048821 6.773707e-05 6.15462e-05 0.00010182606 0.00012545532 8.562406e-05 4.4152875e-05 7.027453e-05
0.00011343446 0.000109160996 5.556492e-05 3.293882e-05 2.2413002e-05 1.740077e-05 1.7818944e-05 1.7425393e-05
2.0280322e-05 1.5452379e-05 1.7645474e-05 1.8707133e-05 1.8458137e-05 1.7387205e-05 1.7941114e-05 1.8320823e-05
1.9085728e-05 1.8945659e-05 1.674422e-05 1.8158698e-05 1.7887038e-05 1.8515064e-05 1.8853088e-05 1.573693e-05
2.4113624e-05 1.9790567e-05 1.7926122e-05 1.7834771e-05 1.8629704e-05 3.860443e-05 2.4379848e-05 2.2743561e-05
4.4681103e-05 6.169883e-05 3.9097016e-05 2.2289194e-05 2.3899032e-05 6.409273e-05 8.2221166e-05 4.9145412e-05
2.84661e-05 4.062159e-05 0.00010530841 0.00012926898 0.00011168165 0.00011053354 0.00017385033 0.00022734814
0.0002158971 0.00017799089 0.00023388193 0.00030864758 0.00032516857 0.00022433187 4.520307e-05 4.682292e-05
5.016533e-05 5.5370976e-05 6.696907e-05 5.0593062e-05 5.6469606e-05 6.111134e-05 5.323932e-05 5.353465e-05
6.748411e-05 7.463922e-05 7.14227e-05 5.3563832e-05 5.5275937e-05 5.4613178e-05 6.308898e-05 6.7565314e-05
6.0590428e-05 5.1673956e-05 4.342995e-05 5.0525377e-05 6.229075e-05 5.3385713e-05 4.5127133e-05 5.774438e-05
7.1481416e-05 0.000111556394 0.00011692986 9.460162e-05 7.773421e-05 0.00010322901 0.0001085142 9.2284616e-05
8.222407e-05 9.858835e-05 0.000109671724 0.000102783095 8.427072e-05 7.697651e-05 8.055603e-05 9.640685e-05
0.00010763064 0.00010679916 9.7303084e-05 7.673447e-05 8.688991e-05 9.749619e-05 0.00010137547 9.648326e-05
4.500712e-05 4.269989e-05 3.9792416e-05 3.1747946e-05 3.6624184e-05 5.500846e-05 4.8843878e-05 3.1357853e-05
1.6250699e-05 2.0091815e-05 9.906735e-05 5.346647e-05 2.2464677e-05 2.0049401e-05 2.3996246e-05 0.00014746803
9.748519e-05 4.6024554e-05 3.6219797e-05 3.327734e-05 0.00013341157 0.00012434355 7.912433e-05 5.4078282e-05
4.0185678e-05 0.00016272413 0.00022397528 0.00027084464 0.00026496963 0.00024054042 0.0001816953 0.00023523204
0.00025647657 0.00025584857 0.00023115167 0.00013707952 0.00011543568 0.00010006263 0.00011440268 0.00012556049
7.708349e-05 5.1483934e-05 5.601232e-05 6.867695e-05 0.00010076306 5.4715834e-05 4.0339128e-05 5.0550047e-05
7.144558e-05 0.00012726022

exp_avg f4 [10]
00000000: 28d6 97ba cb1f a9ba d549 713a 4434 5cba
00000010: e3a3 20ba c1d6 dfba c427 ddb9 6f5c afba
00000020: 0615 2cbb fa62 ba3a
-0.0011584209 -0.0012903152 0.0009204422 -0.0008400122 -0.00061279366 -0.0017077551 -0.00042182032 -0.0013378988
-0.0026257648 0.0014220171

exp_avg_sq f4 [10]
00000000: 72c9 ef37 ebd0 1538 3538 6038 1716 b337
00000010: 52d7 da38 062b f338 5946 6337 693e c937
00000020: fee1 5438 6a72 0039
2.8584825e-05 3.571894e-05 5.345811e-05 2.134875e-05 0.000104351566 0.00011595157 1.3546633e-05 2.399013e-05
5.075521e-05 0.00012249654

max_exp_avg_sq f4 [10]
00000000: f8ef f037 3bf5 1538 f35e 6038 1716 b337
00000010: 0a42 db38 a185 f338 1547 6337 df1b cb37
00000020: 434c 5538 6a72 0039
2.8721974e-05 3.5752757e-05 5.349419e-05 2.134875e-05 0.000104550345 0.00011612033 1.3546804e-05 2.4212464e-05
5.085418e-05 0.00012249654
