pytorch/template/saved/models/Mnist_Model/0121_234515/checkpoint-epoch4.pth (torch, 359983 bytes, 32 tensors)

conv1.weight f4 [10, 1, 5, 5]
0	0x3e3e1f1d	0.18566556
1	0x3e588059	0.21142711
2	0xbc83d16a	-0.016091067
3	0x3e5a18f4	0.21298581
4	0xbdad2883	-0.084549926
5	0xbc3d2cee	-0.011546357
6	0xbd951423	-0.072792314
7	0x3de36b24	0.1110442
8	0x3e2a93e7	0.16657983
9	0xbe5df858	-0.21676767
10	0x3e19b12f	0.15008996
11	0x3da91fd2	0.08258022
12	0x3e337531	0.17525174
13	0x3d00d1f3	0.031450223
14	0x3dd19f83	0.102355026
15	0xbcf81e92	-0.030288015
16	0x3e6904a9	0.22755684
17	0x3de46cc1	0.11153556
18	0xbc7659ae	-0.01503603
19	0x3dccad69	0.09994013
20	0xbe0a3841	-0.13498022
21	0x3b7b8fb1	0.0038385207
22	0x3b92f56b	0.0044848225
23	0x3e5ddc35	0.21666034
24	0xbe090217	-0.13379703
25	0xbe148bc5	-0.14506443
26	0xbe14b2d6	-0.14521345
27	0xbe10c4c6	-0.14137563
28	0xbd132362	-0.035922416
29	0xbea469eb	-0.3211206
30	0x3e4678cc	0.19382018
31	0xbe148f57	-0.14507805
32	0x3e355ea4	0.17711884
33	0xbd40da61	-0.047083262
34	0xbe880216	-0.2656409
35	0x3e3b4785	0.18289001
36	0x3e0d993b	0.13827984
37	0x3e87afdb	0.26501355
38	0x3d51669f	0.051123258
39	0xbdeb5885	-0.11491493
40	0x3c8d1044	0.01721967
41	0xbd14a49c	-0.036289796
42	0x3e18cb73	0.1492136
43	0x3e8a6ad9	0.27034643
44	0x3e44a427	0.19203244
45	0xbe7f7d74	-0.249502
46	0x3cf2e5cc	0.029650591
47	0x3b356e75	0.0027684246
48	0x3e0a6bca	0.13517681
49	0xbd0929b7	-0.033487048
50	0xbdfaee5f	-0.12252497
51	0x3dc9eae5	0.09859256
52	0x3b02f18c	0.00199804
53	0x3e54b87e	0.20773503
54	0xbbd92ce4	-0.006627666
55	0x3dd62585	0.10456375
56	0x3e48dc80	0.19615364
57	0x3de73a83	0.11290457
58	0x3e16587f	0.14682196
59	0xbe9f3000	-0.3109131
60	0x3e1432dd	0.14472528
61	0x3da590db	0.080842696
62	0x3e4dc279	0.20093717
63	0xbe050ac1	-0.12992384
64	0xbe70f196	-0.23529658
65	0x3e05d797	0.13070522
66	0x3eb0d3e1	0.3453665
67	0xbd0aa047	-0.03384426
68	0xbe6b1521	-0.22957279
69	0xbeba403f	-0.3637714
70	0x3ea1c19b	0.31593022
71	0x3e365c33	0.17808609
72	0x3e3a5597	0.18196712
73	0xbeae85a0	-0.34086323
74	0xbeee2d9a	-0.46519166
75	0xbedb9fa7	-0.42895243
76	0xbe8b81ec	-0.2724756
77	0x3da579d7	0.0807988
78	0x3e1c583d	0.15268035
79	0x3e9f48b1	0.31110147
80	0xbec3c60c	-0.38237035
81	0xbe561a78	-0.20908535
82	0x3e52de0e	0.2059252
83	0x3db3b746	0.08775191
84	0x3e9b60a6	0.30347174
85	0xbe8b93b1	-0.27261117
86	0x3e098f41	0.13433553
87	0x3c150bca	0.009097049
88	0x3db53914	0.088487774
89	0x3e1f6748	0.15566742
90	0xbdc97113	-0.0983602
91	0xbc396ea9	-0.011317887
92	0x3e727bcb	0.23680036
93	0x3e82a2b7	0.25514767
94	0xbe17d855	-0.14828618
95	0xbde15569	-0.11002619
96	0x3e6931cd	0.22772904
97	0x3bf23456	0.007391493
98	0xbc07b00a	-0.008281717
99	0xbe6de4bb	-0.23231785
100	0xbec33208	-0.38124108
101	0xbda47f33	-0.08032074
102	0xbda2ae30	-0.0794338
103	0xbe551ba7	-0.2081133
104	0xbd816240	-0.06317568
105	0xbe99c326	-0.300317
106	0xbe8f6dbf	-0.28013417
107	0xbe40034d	-0.18751259
108	0xbe81ba7f	-0.25337598
109	0xbe4ab702	-0.19796374
110	0x3ca7c7ad	0.020480955
111	0xbe005f88	-0.12536442
112	0xbd910f88	-0.070830405
113	0xbe92ebfc	-0.28695667
114	0xbe7450ac	-0.23858899
115	0xbd74dc4c	-0.059780404
116	0x3c4df513	0.012570637
117	0xbe6f0298	-0.23340833
118	0xbe3eac65	-0.18620451
119	0xbe80b3a8	-0.25137067
120	0x3e00c14b	0.12573735
121	0x3c83cef5	0.016089896
122	0x3a77a3c4	0.0009446705
123	0xbe7fdb82	-0.2498608
124	0xbeca3626	-0.39494437
125	0xbe339315	-0.17536576
126	0xbc2edd52	-0.010672884
127	0xbdb1da6d	-0.086842395
128	0x3d1322cf	0.035921868
129	0xbd9b4e07	-0.07583242
130	0xbc080740	-0.00830251
131	0xbe34bd47	-0.17650329
132	0xbf0269c7	-0.50942653
133	0xbe212763	-0.15737681
134	0xbe382030	-0.17981029
135	0xbdc92fb6	-0.09823553
136	0xbe857642	-0.26066786
137	0xbe987387	-0.2977564
138	0xbcb69a8a	-0.022290487
139	0x3c2c42e9	0.0105139995
140	0x3e7e6213	0.248421
141	0x3de13fb4	0.109984785
142	0x3eb4a446	0.3528158
143	0x3c55210a	0.013008365
144	0x3e0c1d81	0.1368313
145	0x3e3367cc	0.17520064
146	0x3ea81929	0.32831696
147	0x3ec177d8	0.37786746
148	0x3ea95dc2	0.33079344
149	0xbd375f5b	-0.044768672
150	0x3d730b7a	0.059337117
151	0xbd98deee	-0.074643955
152	0xbce2f13c	-0.02770292
153	0xbe1aab92	-0.15104511
154	0x3e568f72	0.20953158
155	0xbe1f6234	-0.15564805
156	0x3e4444ec	0.19166917
157	0x3de41216	0.11136262
158	0x3d361b4b	0.044459622
159	0xbe1f5259	-0.15558757
160	0x3e80877b	0.25103363
161	0x3e30f37c	0.17280382
162	0x3da7fd5c	0.08202621
163	0xbe8f9c4c	-0.28048933
164	0x3bdb8e4f	0.006700314
165	0xbdcbaaf3	-0.09944715
166	0xbd3786d2	-0.04480631
167	0x3e77be1b	0.24193613
168	0x3c88058e	0.016604211
169	0xbe26c19f	-0.16284798
170	0xbeb0e917	-0.34552833
171	0xbdbea735	-0.09309236
172	0x3e262011	0.1622317
173	0xbb2e465b	-0.0026592228
174	0xbe13870f	-0.1440699
175	0xbe5e4bc7	-0.21708594
176	0xbe09af97	-0.13445888
177	0x3e32f1b3	0.17475013
178	0x3e64e7b9	0.2235402
179	0xbe5c4a79	-0.21512784
180	0x3d681d4b	0.05666856
181	0x3e60050f	0.2187693
182	0x3e1c29cd	0.1525032
183	0xbd748203	-0.0596943
184	0xbcbd7d30	-0.023130983
185	0x3dfcb08f	0.123383634
186	0x3de78c48	0.113060534
187	0x3bab0c65	0.0052199834
188	0xbdd627c0	-0.104568005
189	0xbd40279f	-0.046912786
190	0xbd5b7045	-0.053573865
191	0xbd722514	-0.05911739
192	0x3e2d858a	0.16945472
193	0x3e79b438	0.24385154
194	0x3d876feb	0.066131435
195	0xbd3cb8b8	-0.0460746
196	0xbc398ebc	-0.011325534
197	0x3d01467f	0.03156137
198	0x3e258afb	0.16166298
199	0x3e401d11	0.18761088
200	0xbe3a9e2f	-0.18224405
201	0xbe6dca59	-0.23221721
202	0x3cc3cc03	0.023900991
203	0x3de19b22	0.11015917
204	0x3e379e8e	0.17931578
205	0xbdc11a34	-0.09428826
206	0xbefd5eee	-0.49486488
207	0xbf16be05	-0.58883697
208	0xbe82879d	-0.2549409
209	0x3e2a55e9	0.16634335
210	0x3eae38b3	0.34027633
211	0x3d205c9e	0.039150827
212	0xbee2fd99	-0.44334105
213	0xbeda79e4	-0.4267112
214	0xbe85c074	-0.26123393
215	0x3ebc5863	0.36786184
216	0x3e870f50	0.2637887
217	0xbd03c8f3	-0.032174062
218	0xbe110752	-0.14162949
219	0xbebdb495	-0.37051836
220	0xbcc03420	-0.023462355
221	0x3ebc0e64	0.3672973
222	0x3e16b19d	0.14716192
223	0x3de23661	0.11045528
224	0xbe75c28c	-0.23999995
225	0x3e805ef0	0.25072432
226	0x3e91ae5d	0.2845334
227	0x3e819842	0.25311476
228	0x3da62c4a	0.08113916
229	0x3d645854	0.0557483
230	0x3b5b94c0	0.003350541
231	0x3eb1a289	0.34694317
232	0x3ea69750	0.32537317
233	0x3ed19cde	0.40939993
234	0x3eae6c9e	0.34067243
235	0x3dc177ae	0.09446655
236	0x3d33e704	0.043921486
237	0xbde9ba80	-0.11412525
238	0xbdcc82da	-0.099858955
239	0xbdd909f3	-0.10597601
240	0xbe0357fe	-0.12826535
241	0xbea5679e	-0.32305616
242	0xbe8e4525	-0.27787128
243	0xbe8a9f0f	-0.27074477
244	0xbe25e695	-0.16201241
245	0xbee9c8fe	-0.45661157
246	0xbec72dd5	-0.38902155
247	0xbe1db6a9	-0.1540171
248	0xbe0f38f8	-0.13986576
249	0xbd28e0e2	-0.04123009

conv1.bias f4 [10]
0	0xbcc0b192	-0.023522172
1	0xbd8a123b	-0.067417584
2	0xbc5442d1	-0.012955383
3	0xbe043b74	-0.12913305
4	0x3ca0298b	0.01955106
5	0xbd8b25c9	-0.06794316
6	0x3df1a08c	0.117982
7	0xbd06e367	-0.03293171
8	0x3d88cf74	0.066801935
9	0x3dcbde53	0.09954514

conv2.weight f4 [20, 10, 5, 5]
0	0x3b6bbbda	0.0035970123
1	0xbdc15540	-0.09440088
2	0xbc93d8ee	-0.018047776
3	0xbda4b577	-0.08042424
4	0xbd6dfde4	-0.058103457
5	0x3d6b82b1	0.057497684
6	0xbc8c801b	-0.01715093
7	0xbcdc1325	-0.026864598
8	0xbd62df3e	-0.05538868
9	0xbd89f88e	-0.06736861
10	0x3d5a4457	0.05328783
11	0xbd69aa99	-0.05704746
12	0x3d2ffe8c	0.042967364
13	0x3d39354a	0.045216836
14	0x3db68338	0.08911747
15	0xbd1b9c91	-0.03799111
16	0xbdf8f754	-0.12156549
17	0xbd377801	-0.04479218
18	0x3c07742e	0.0082674455
19	0xbd706dd2	-0.058698483
20	0xbd96f831	-0.073715575
21	0xbe1d7ac5	-0.15378864
22	0xbe0e69ad	-0.139075
23	0xbe0b9ad5	-0.13633282
24	0xbd877817	-0.06614702
25	0xbcc6708a	-0.024223585
26	0xbd259718	-0.040427297
27	0x3d41b5ec	0.047292635
28	0x3d8b23f3	0.06793966
29	0xbafa4e58	-0.0019096835
30	0x3b3c91fc	0.0028773537
31	0xbbc09b82	-0.005877913
32	0xbd82820c	-0.06372461
33	0xbd1b1123	-0.03785814
34	0x3d867326	0.065649316
35	0xbcf4ef67	-0.029899312
36	0xbc27d8a8	-0.010244526
37	0x3c83f0df	0.016106067
38	0x3d24b04f	0.040207203
39	0x3d825aac	0.063649505
40	0xbd16bea1	-0.03680289
41	0xbdf91192	-0.121615544
42	0xbde348a6	-0.11097841
43	0xbd8e18a1	-0.06938291
44	0xbc4c7932	-0.012480067
45	0x3d8db7a8	0.06919795
46	0xbcce2dcb	-0.02516832
47	0xbc243bf1	-0.010024057
48	0xbd4df9c8	-0.050287038
49	0xbda0ffc1	-0.07861281
50	0xbca1e312	-0.019761596
51	0x3d1c750c	0.038197562
52	0xbc90bef8	-0.017669186
53	0xbb30b604	-0.0026963959
54	0x3da9c291	0.08289064
55	0xbcf8446f	-0.03030607
56	0x3d978288	0.07397944
57	0x3d9b0eb7	0.07571166
58	0xbce40cf8	-0.027838215
59	0x3d3582a5	0.044314045
60	0xbdced447	-0.100990824
61	0xbdaa70a3	-0.08322265
62	0xbd51cc58	-0.051220268
63	0xbdb22b80	-0.08699703
64	0xbe03e148	-0.12878907
65	0xbdcb588a	-0.09928997
66	0xbdee6876	-0.11641018
67	0xbe639e4f	-0.22228359
68	0xbe71a4f2	-0.23598078
69	0xbe3127fe	-0.17300412
70	0x3ccdeedb	0.02513831
71	0x3b574183	0.0032845445
72	0xbdbbc579	-0.09168524
73	0xbe0d6150	-0.13806653
74	0x3d4f8138	0.050660342
75	0xbddecf69	-0.10879404
76	0xbcdac8b8	-0.026707038
77	0x3d0383e1	0.03210819
78	0xbb0ea04e	-0.002176303
79	0x3d2e75ae	0.042592697
80	0xbd62af18	-0.055342764
81	0xbbe2c302	-0.0069202194
82	0xbd7780a8	-0.06042543
83	0xbd8d20fe	-0.068910584
84	0xbdb8b189	-0.09018237
85	0xbdfa0a19	-0.12208957
86	0x3d0db625	0.034597535
87	0xbccfd738	-0.025371179
88	0xbd463ed8	-0.048399776
89	0xbd42fb91	-0.047603194
90	0xbdf360bd	-0.11883686
91	0x3cbaa248	0.02278246
92	0x3d99567a	0.07487197
93	0x3d102e8a	0.035200633
94	0xbdd1c375	-0.102423586
95	0xbe3afec0	-0.18261242
96	0xbddd4794	-0.10804668
97	0xbdd0ba79	-0.10191817
98	0xbcc86aa4	-0.024464913
99	0x3dc4f73e	0.0961747
100	0xbc5a7488	-0.013333447
101	0xbd67a5cc	-0.0565546
102	0xbe0020ed	-0.1251256
103	0xbd64b420	-0.055835843
104	0xbc9d4028	-0.019195631
105	0x3b468f9f	0.0030298007
106	0xbd837bdd	-0.064201094
107	0xbe120d1a	-0.1426281
108	0xbe411395	-0.18855126
109	0xbd80db0b	-0.06291779
110	0x3d9fb6a7	0.0779851
111	0xbb1e45bc	-0.0024150452
112	0xbdb7796e	-0.08958708
113	0xbe12ffac	-0.14355344
114	0xbdf56fd1	-0.11984218
115	0x3d1f0d3b	0.038830977
116	0x3d90f5d5	0.07078139
117	0x3df78aa6	0.12086992
118	0x3ce59500	0.02802515
119	0xbc0dae0a	-0.008647451
120	0x3ddbf2ba	0.10739656
121	0x3d2abadc	0.04168211
122	0x3def2f93	0.11678996
123	0x3dd47039	0.10372967
124	0x3e01c362	0.12672189
125	0x3c5dc031	0.0135345915
126	0xbd133f4d	-0.03594904
127	0x3c273a26	0.010206735
128	0x3d6c0f14	0.057631567
129	0x3d9ed434	0.07755318
130	0x3c26580c	0.010152828
131	0x3cc7f08f	0.0244067
132	0x3de06217	0.10956209
133	0x3de8daae	0.11369835
134	0x3e0bf624	0.13668114
135	0xbd94b6f9	-0.07261462
136	0xbd66adfd	-0.056318272
137	0x3d9da969	0.07698328
138	0x3e1fe456	0.15614447
139	0x3dd9c051	0.106323846
140	0x3cfc97e9	0.030834155
141	0x3d359fae	0.044341736
142	0xbd90abbe	-0.07064007
143	0x394e9b40	0.00019703526
144	0xbdc536ce	-0.09629594
145	0x3d066095	0.03280695
146	0x3d49b4aa	0.04924456
147	0x3e07ae3d	0.1325006
148	0x3e1c85fc	0.15285486
149	0x3d988713	0.07447638
150	0xbd82fc01	-0.06395722
151	0xbc6d7c3b	-0.014494951
152	0x3d6e264d	0.058141995
153	0x3d02eee1	0.031966094
154	0x3d1625b1	0.03665704
155	0xbd456439	-0.048191283
156	0x3c43fda9	0.011962333
157	0x3d7549e9	0.05988494
158	0xbcdacf5e	-0.026710209
159	0x3c750ba7	0.014956391
160	0x3aa199da	0.0012329177
161	0xbab29d15	-0.0013627136
162	0xbd0cdf51	-0.03439266
163	0x3d23b5e3	0.039968383
164	0x3df5f251	0.12009109
165	0xbd36bfc9	-0.044616494
166	0xbdd51990	-0.10405266
167	0xbe082a74	-0.13297445
168	0xbdaa7a81	-0.08324147
169	0x3cd24785	0.025668869
170	0x3a747498	0.0009325235
171	0xbd702588	-0.058629543
172	0xbe11bfcd	-0.14233322
173	0xbd90ee20	-0.07076669
174	0xbdda5d06	-0.10662274
175	0x3bb99443	0.005663426
176	0xbd32ba15	-0.043634493
177	0xbcef13fb	-0.029184332
178	0x3c131feb	0.008979778
179	0x3b8f455e	0.004372283
180	0xbd2b90f4	-0.041886285
181	0x3d4ba670	0.049719274
182	0xbcd0419f	-0.025421916
183	0x3d8e7e50	0.06957686
184	0x3d9ec8d9	0.077531524
185	0xbd8e2026	-0.069397256
186	0xbd4d7996	-0.05016478
187	0x3cf0a725	0.029376576
188	0x3da3dfb8	0.08001655
189	0x3cc35190	0.023842603
190	0xbdcd455d	-0.100229956
191	0xbe568144	-0.20947748
192	0xbe34e492	-0.17665318
193	0xbd2ff0a5	-0.042954106
194	0x3c01abb5	0.007914473
195	0xbd5f7ae7	-0.05456057
196	0xbdea4a07	-0.11439901
197	0xbc8ab26b	-0.01693078
198	0xbd6a0c34	-0.057140544
199	0xbe127557	-0.14302574
200	0xbd9b87b7	-0.07594245
201	0xbcd97db7	-0.026549203
202	0xbbdb3947	-0.0066901776
203	0xbe02126d	-0.12702341
204	0xbd2ade4c	-0.041715905
205	0xbda7e170	-0.08197296
206	0xbc9a3dec	-0.018828355
207	0x3d02a9dc	0.03190027
208	0x3d266f66	0.04063358
209	0x3d880e92	0.06643404
210	0x3cc218f5	0.023693541
211	0x3dbb3266	0.09140472
212	0x3e208a44	0.15677744
213	0x3d8b51a9	0.06802685
214	0x3da17529	0.07883675
215	0x3e39c871	0.18142869
216	0x3e03341b	0.12812845
217	0x3d3883e6	0.045047663
218	0x3c02639f	0.007958322
219	0x3b6583d5	0.0035021205
220	0x3e411b54	0.18858081
221	0x3e31e3b7	0.17372023
222	0x3df1ce82	0.11806966
223	0x3d8717c9	0.065963335
224	0xbd612e5a	-0.054975845
225	0xbd40cbde	-0.047069423
226	0xbc3e1f11	-0.0116040865
227	0xbd8939f3	-0.06700506
228	0xbca20bdb	-0.019781044
229	0xbca45331	-0.0200592
230	0xbc35dcfd	-0.011100051
231	0x3d4c0727	0.04981151
232	0x3da9cdbe	0.08291195
233	0x3d8e1c69	0.069390126
234	0x3d87c263	0.06628873
235	0x3b5bad0c	0.0033519892
236	0x3d139d9b	0.036038976
237	0x3d76c5b7	0.06024715
238	0x3c34039e	0.0109871905
239	0x3d7b8530	0.061406314
240	0x3bfdd6d4	0.007746557
241	0x3d0f58bb	0.03499673
242	0x3e08e100	0.1336708
243	0x3e44fced	0.19237109
244	0x3e5c4ad5	0.21512921
245	0x3dab0b48	0.08351761
246	0x3c1be432	0.009514855
247	0x3d1471d7	0.03624138
248	0xbcbca109	-0.023026006
249	0xbc240066	-0.010009861
250	0x3c8373ec	0.016046487
251	0xbd7dd8b5	-0.061974246
252	0x3bf09f8c	0.007343238
253	0xbd635f31	-0.055510703
254	0xbd9e118c	-0.077181906
255	0xbd2f8292	-0.04284913

conv2.bias f4 [20]
0	0x3d484117	0.0488902
1	0xbd1f74b9	-0.038929675
2	0xbbcac5dd	-0.006188138
3	0xbda7d6d9	-0.08195276
4	0xbd2bcec2	-0.041945226
5	0x3c6461f3	0.013939369
6	0x3d60cb25	0.054881234
7	0xbd7be8f9	-0.061501477
8	0xba8f7db7	-0.00109475
9	0xbd634205	-0.055482883
10	0x3cce4cab	0.025183043
11	0x3d3f96ef	0.0467748
12	0xbd0d61e1	-0.034517173
13	0xbbb7920d	-0.0056021274
14	0x3d791ec4	0.060820356
15	0xbd2e21e7	-0.0425128
16	0xbd28a76f	-0.041175302
17	0xbce10c51	-0.027471693
18	0x3d22724c	0.039659783
19	0x3c51ba38	0.012800746

fc1.weight f4 [50, 320]
0	0xbcc4c3d7	-0.024019165
1	0x3d199cf8	0.037503213
2	0x3cdf8a81	0.027287723
3	0x3d1db84c	0.038505837
4	0xbd6c2b99	-0.057658765
5	0xbdb00efd	-0.08596609
6	0x3cd13cd4	0.0255417
7	0x3d1b73e4	0.03795232
8	0xbe14d3e8	-0.14533961
9	0xbd58c904	-0.05292608
10	0xbdc8a54d	-0.097971536
11	0x3c3fcbe4	0.011706326
12	0x3c795a32	0.015219258
13	0x3d7c47f7	0.06159207
14	0x3d2d2337	0.04226991
15	0x3e22e837	0.15908895
16	0x3b95f492	0.004576274
17	0x3b86eb9d	0.0041174428
18	0xbdb3a7c2	-0.08772232
19	0xbd6df657	-0.058096256
20	0xbcf4fef8	-0.029906735
21	0xbd7bf14e	-0.061509423
22	0xbdac7be2	-0.08422066
23	0xbb81ad58	-0.0039574318
24	0xbd983652	-0.07432236
25	0xbd876e42	-0.06612827
26	0xbd8cf2c7	-0.068822436
27	0x3c320212	0.010864751
28	0xbbba6bff	-0.0056891437
29	0x3cbcd30b	0.023049852
30	0x3de26b32	0.11055602
31	0x3d84f75e	0.06492494
32	0x3cb03eed	0.02151438
33	0x3d81e5ea	0.06342681
34	0x3de75e62	0.11297299
35	0x3cf64b07	0.030065073
36	0xbd609a4e	-0.054834656
37	0xbbce5897	-0.006297182
38	0x3cbe9f70	0.023269385
39	0x3e0b1535	0.13582309
40	0x3d9e431f	0.07727646
41	0x3d1344ca	0.035954274
42	0x3d41f7a0	0.047355294
43	0x3d874e56	0.06606738
44	0xbd1ea0ab	-0.038727444
45	0x3c8d48b1	0.017246576
46	0xbdf0537d	-0.11734674
47	0xbe2bd2b4	-0.16779596
48	0x3db8f6c7	0.09031444
49	0x3d92123a	0.07132383
50	0x3de29156	0.11062877
51	0x3b65c8c6	0.0035062297
52	0x3d88f7f5	0.06687919
53	0x3d2159e1	0.039392356
54	0x3e0a2ebc	0.1349439
55	0xbc5a1516	-0.013310691
56	0xbc98c0b9	-0.018646585
57	0x3d2f579b	0.042808156
58	0x3c146463	0.009057137
59	0xbd2ff0c2	-0.042954214
60	0xbdd3e5b9	-0.103465505
61	0xbc9dd198	-0.019264981
62	0xbddffa60	-0.10936427
63	0xbd055b96	-0.032558046
64	0x3d0b9087	0.03407338
65	0x3d77349f	0.060352918
66	0x3e20c959	0.15701808
67	0x3d9668e8	0.07344228
68	0x3cbc6569	0.022997575
69	0xbcc3cb4e	-0.023900654
70	0x3c396e71	0.011317835
71	0xbc736d08	-0.014857538
72	0xbd83abce	-0.064292535
73	0x3c1a39f1	0.009413228
74	0x3ced5f61	0.028976144
75	0xbd311633	-0.04323406
76	0x3da19a4d	0.07890759
77	0x3d6a02c4	0.057131544
78	0xbd633896	-0.055473886
79	0xbd0fbfd3	-0.035095047
80	0x3d99de49	0.07513101
81	0x3e1efc17	0.15525852
82	0x3dd8bfc5	0.10583452
83	0xbd8c1de6	-0.0684164
84	0x3d8fdf14	0.07024971
85	0x3c4ff895	0.012693544
86	0xbd9fd577	-0.07804387
87	0xbdc7eb47	-0.097616725
88	0xbdf9cbb4	-0.121970564
89	0xbd6fc7ca	-0.058540143
90	0xba763ac9	-0.0009392915
91	0x3cdb4170	0.026764601
92	0x3d5f05b9	0.054448817
93	0x3dbdb007	0.0926209
94	0x3d53b930	0.05169028
95	0xbd8db364	-0.06918982
96	0xbd2272cf	-0.03966027
97	0xbbc98f49	-0.006151114
98	0x3da6c178	0.0814237
99	0xbd06f907	-0.032952335
100	0x3d8bc13f	0.06823968
101	0x3d8ee397	0.06977003
102	0xbc04f50f	-0.008115067
103	0x3d616553	0.05502827
104	0x3d0aac78	0.033855885
105	0x3c31667b	0.010827656
106	0x3c0bb5db	0.008527244
107	0xbd839cdb	-0.06426402
108	0x3ced00de	0.028931078
109	0x3d89e89a	0.06733818
110	0x3c45aaf3	0.012064683
111	0xbe228e41	-0.15874578
112	0xbccfa6e8	-0.025348142
113	0xbd0f8879	-0.03504226
114	0x3d6031e1	0.05473507
115	0xbc4c291b	-0.012460972
116	0xbd14fc86	-0.036373638
117	0x3ce0e608	0.027453437
118	0x3d46981e	0.048484914
119	0x3cd993e4	0.026559778
120	0x3d82078b	0.06349095
121	0x3d568d1c	0.052380666
122	0x3d563e5d	0.052305568
123	0xbcde40dd	-0.027130539
124	0xbc95c042	-0.018280152
125	0xbdc188dd	-0.09449933
126	0xbd569877	-0.052391496
127	0x3b18d470	0.0023319982
128	0xbd538861	-0.051643733
129	0x3d2b3b20	0.041804433
130	0x3c90b806	0.017665874
131	0xbc8ff712	-0.017573867
132	0x3c57b896	0.013166567
133	0xbb9d2929	-0.0047961664
134	0x3d037948	0.032098085
135	0xbb088578	-0.0020831507
136	0xbd61ca6e	-0.055124693
137	0xbdc4a307	-0.096014075
138	0xbdd502ef	-0.1040095
139	0xbc8bcb7d	-0.017064804
140	0x3b812a05	0.0039417767
141	0xbd2fc2d2	-0.042910405
142	0x3d26c783	0.040717613
143	0x3ddcfe83	0.10790732
144	0xbd80e8de	-0.06294416
145	0x3c66f115	0.014095564
146	0xbc94804a	-0.01812758
147	0xbceaafa9	-0.028648214
148	0xbd8b3593	-0.06797328
149	0x3b387121	0.0028143602
150	0xbd16c724	-0.03681101
151	0xbdf13bd1	-0.11778987
152	0xbd349b7c	-0.044093594
153	0xbb189499	-0.002328193
154	0x3d2e9408	0.042621642
155	0xbcd68803	-0.026187902
156	0x3cd46cb4	0.02593074
157	0x3e000406	0.12501535
158	0x3d994414	0.07483688
159	0x3d0230ab	0.031784695
160	0xbdb7d71e	-0.08976577
161	0xbdcb86a5	-0.09937791
162	0xbd57379a	-0.05254326
163	0xbcb59968	-0.022167876
164	0xbdb67d62	-0.089106336
165	0xbd99ce71	-0.07510079
166	0xbd58a266	-0.05288925
167	0xbd60b0e0	-0.05485618
168	0xbc82bb49	-0.015958445
169	0x3c8a71a2	0.016899887
170	0x3b735997	0.0037132257
171	0x3c9eb7b9	0.019374715
172	0xbbaf1f42	-0.0053443024
173	0x3d9141ab	0.07092603
174	0x3dd96f80	0.1061697
175	0x3e34f12e	0.17670128
176	0x3d15460d	0.03644376
177	0x3cc7d69b	0.024394324
178	0x3dc5dabf	0.09660863
179	0xbdd5b64e	-0.104351625
180	0xbd55fb90	-0.05224186
181	0xbd1fdf2e	-0.0390312
182	0xbd1f8664	-0.038946524
183	0xbca75645	-0.020426879
184	0x3d21e101	0.03952122
185	0x3cd64f96	0.026160996
186	0x3cceee21	0.025260033
187	0x3d6d732f	0.057971176
188	0xbcd152e1	-0.025552215
189	0x3c172c82	0.00922692
190	0xbd2ff4f2	-0.042958207
191	0xbcbf9ca4	-0.023390122
192	0x3d124080	0.035706043
193	0x3cb5d8d9	0.022198128
194	0xbbd84731	-0.0066002836
195	0xbd3ebe99	-0.046568487
196	0x3b225f38	0.0024775993
197	0x3c7c411e	0.0153963845
198	0xbc27d51c	-0.01024368
199	0x3d2e2822	0.042518742
200	0x3c99a29a	0.018754292
201	0xbc0f6dfa	-0.008754248
202	0x3cb4fc24	0.022092886
203	0x3d198aec	0.037486
204	0xbd08478c	-0.033271357
205	0x3c472b7b	0.012156363
206	0xbd689bf1	-0.056789342
207	0xbca517e0	-0.020152986
208	0xbd29cf3f	-0.04145741
209	0x3d4275fd	0.047475804
210	0x3d293a07	0.041315105
211	0xbb934ef4	-0.004495496
212	0xbda7956d	-0.081827976
213	0x3c6be046	0.014396733
214	0x3d4f0edf	0.05055129
215	0x3ccec73f	0.025241492
216	0x3d5b8087	0.05358937
217	0x3d60ab0b	0.05485062
218	0xbca4625e	-0.020066436
219	0xbd269661	-0.040670756
220	0xbd4e3210	-0.050340712
221	0x3cc68007	0.02423097
222	0xbd037d7b	-0.03210209
223	0xbe7ea45c	-0.24867386
224	0xbc09cbf0	-0.008410439
225	0xbd2c9fe3	-0.042144667
226	0x3d9e7894	0.07737842
227	0x3cde225e	0.027115997
228	0x3db5a6c7	0.08869701
229	0x3d032584	0.0320182
230	0x3e143a0b	0.14475267
231	0xbacdf759	-0.0015713974
232	0x3dbdf312	0.092748776
233	0x3e1b5309	0.15168394
234	0xbb895b2d	-0.004191777
235	0xbdda9d4f	-0.106745355
236	0x3a01a4c7	0.0004945513
237	0x3cfb43bc	0.030671947
238	0xbc49e047	-0.012321538
239	0xbdb5037e	-0.08838557
240	0xbbe1051e	-0.006867065
241	0xbc964a2b	-0.018345913
242	0xbcc2eca4	-0.02379448
243	0xbd560d2d	-0.05225866
244	0xbc242426	-0.010018384
245	0x3d10d8f7	0.035363164
246	0x3d730c55	0.059337933
247	0xbd56279b	-0.052283864
248	0xbddca16a	-0.10772975
249	0xbd8dfa64	-0.06932524
250	0xbd60737d	-0.05479764
251	0xbdb03299	-0.08603401
252	0xbde4936f	-0.11160933
253	0xbade0ace	-0.0016940476
254	0x3dcd8f9c	0.10037157
255	0x3dec0054	0.115235

fc1.bias f4 [50]
0	0x3dc5a5c4	0.09650758
1	0x3cdc5741	0.026897075
2	0x3e1f649e	0.15565726
3	0x3d9af0c5	0.075654544
4	0x3d71e843	0.059059393
5	0x3ca64db8	0.020300731
6	0x3dd14b48	0.10219437
7	0x3c580add	0.013186184
8	0x3dfe577d	0.12419031
9	0x3da65fa1	0.081237085
10	0x3daedea2	0.085385576
11	0xbd3ba45a	-0.045811035
12	0x3ca4088c	0.020023607
13	0x3d154a2d	0.036447693
14	0x3bd20278	0.0064089857
15	0x3cd20016	0.025634807
16	0xbd7cbc2e	-0.0617029
17	0x3d34de45	0.044157285
18	0x3d6c24fe	0.057652466
19	0x3cba5a47	0.022748126
20	0x3d79cec4	0.060988203
21	0x3d5e4913	0.054268908
22	0x3d95c4fc	0.073129624
23	0x3d1fd99b	0.039025884
24	0x3d17b09d	0.037033666
25	0x3d3547d8	0.04425797
26	0x3d3375d6	0.04381355
27	0x3d471f6e	0.048613958
28	0x3d9fefe7	0.078094296
29	0x3dacbd31	0.08434523
30	0x3dee8fd0	0.11648524
31	0xbbc6a152	-0.0060617113
32	0x3d87b768	0.06626779
33	0x3d4512b7	0.04811355
34	0x3df7a4db	0.120919906
35	0x3d0b42f6	0.033999406
36	0x3c2a60f7	0.010399095
37	0x3c5efe12	0.01361038
38	0x3d7a22f1	0.06106848
39	0x3d995611	0.07487119
40	0x3c81ae73	0.015830254
41	0x3d822aa1	0.06355787
42	0x3ccd58e2	0.025066797
43	0x3deeb6d6	0.11655967
44	0x3e17fa82	0.14841655
45	0x3cdfe058	0.027328655
46	0x3d7fc1bc	0.06244062
47	0x3d3a7bb4	0.04552813
48	0x3dd72c98	0.105065525
49	0x3cdf2a95	0.027241984

fc2.weight f4 [10, 50]
0	0x3dc821f8	0.09772104
1	0x3e07670d	0.13222905
2	0x3e1edd98	0.15514219
3	0xbe29f2c3	-0.16596512
4	0x3dc01d05	0.09380535
5	0x3dc813f2	0.09769429
6	0xbe4c816d	-0.19971247
7	0x3e294ee2	0.16533998
8	0xbe487782	-0.19576839
9	0xbe422249	-0.18958391
10	0x3df35686	0.118817374
11	0x3d505fad	0.050872494
12	0xbe8ac83c	-0.27105892
13	0xbe0d9d0a	-0.13829437
14	0xbe0ef71d	-0.13961454
15	0x3e1d6ba3	0.15373091
16	0x3d9b291a	0.07576199
17	0xbe3a3f6f	-0.1818826
18	0xbe0ff821	-0.14059497
19	0x3e0a1767	0.1348549
20	0x3cca6153	0.02470461
21	0x3e1750b8	0.14776886
22	0xbe771be3	-0.24131732
23	0xbcf238fd	-0.02956819
24	0xbe1d06ac	-0.15334576
25	0xbdad87e5	-0.084731854
26	0xbe16570d	-0.14681645
27	0xbe11b3e5	-0.1422878
28	0xbe7ca6f2	-0.2467306
29	0xbe64ee70	-0.22356582
30	0x3dde95b2	0.10868396
31	0x3dd7d5f2	0.10538854
32	0xbe8a107e	-0.26965708
33	0xbe14d359	-0.14533748
34	0xbe1e079b	-0.15432589
35	0x3dddaf05	0.10824398
36	0xbe7b5f56	-0.24548087
37	0x3dd0887e	0.10182284
38	0xbdae1c06	-0.08501439
39	0x3d38cf5e	0.045119636
40	0xbdb0283c	-0.08601424
41	0xbe5f2e31	-0.21794964
42	0x3e098301	0.1342888
43	0x3e19be0e	0.15013906
44	0xbe64ee44	-0.22356516
45	0x3dde8400	0.10865021
46	0x3db0825e	0.086186156
47	0x3e1ca915	0.15298875
48	0xbe2ba3f5	-0.16761763
49	0x3df2d770	0.11857498
50	0x3df29d12	0.11846365
51	0x3dc819b8	0.097705305
52	0x3c20fa99	0.009825372
53	0x3e2f5fd4	0.171264
54	0xbe3d86ff	-0.18508528
55	0xbe05ae3c	-0.13054746
56	0x3cb786d0	0.02240315
57	0xbe3b1193	-0.18268423
58	0x3e0b78bf	0.1362028
59	0x3e1fb2a6	0.15595493
60	0xbdf916e0	-0.12162566
61	0xbe446dcf	-0.19182514
62	0x3e19a1f5	0.15003188
63	0xbe114489	-0.141863
64	0xbe15def6	-0.14635834
65	0xbc113025	-0.008861576
66	0xbe1d0607	-0.1533433
67	0xbe1edba6	-0.15513477
68	0x3dc6972b	0.09696802
69	0xbe165514	-0.14680892
70	0xbe4c4f92	-0.19952229
71	0xbd132eff	-0.03593349
72	0xbdf13b76	-0.117789194
73	0xbe157107	-0.14593898
74	0xbc8a82b8	-0.016908035
75	0x3d3c2f99	0.04594383
76	0xbe213b64	-0.15745312
77	0x3e0c9b88	0.13731205
78	0x3d9829d9	0.07429857
79	0x3d52614f	0.051362332
80	0x3e04e221	0.12976886
81	0xbe1da89b	-0.15396349
82	0x3c40041b	0.011719729
83	0x3d656a0a	0.05600933
84	0x3ddf2f47	0.10897689
85	0xbe5a8ac6	-0.21342
86	0xbde386fd	-0.11109731
87	0xbe6441f1	-0.2229078
88	0x3de56f6e	0.11202894
89	0x3daf11fb	0.085483514
90	0xbe72e458	-0.23719919
91	0xbe5c2895	-0.21499856
92	0xbe352517	-0.1768993
93	0x3e162681	0.14663126
94	0x3dd32253	0.10309281
95	0x3dd74ede	0.105130896
96	0xbe878b44	-0.2647344
97	0x3e0d9b8f	0.13828872
98	0x3e348b90	0.17631364
99	0xbe2daf19	-0.16961326
100	0x3dedae60	0.11605525
101	0xbdb8c648	-0.09022194
102	0x3e2dab75	0.16959937
103	0xbc5a6ae7	-0.013331152
104	0xbe2de281	-0.16980936
105	0xbe1f7583	-0.15572171
106	0x3dc0f58f	0.094218366
107	0xbda4e8cb	-0.08052214
108	0xbe194a21	-0.14969684
109	0xbdb5c0ab	-0.08874639
110	0x3e1da5a1	0.15395214
111	0xbd78d33a	-0.060748316
112	0xbe10df3e	-0.1414766
113	0xbe3009ba	-0.1719121
114	0xbd4b8357	-0.049685802
115	0xbe07989e	-0.13241813
116	0xbd984b42	-0.07436229
117	0xbc9ebdec	-0.019377671
118	0xbc63d176	-0.01390492
119	0x3e139dff	0.1441574
120	0xbe4fe62a	-0.20302644
121	0xbc748592	-0.014924424
122	0xbd2e81e0	-0.042604327
123	0xbe47884a	-0.19485584
124	0x3dd477a8	0.10374385
125	0x3d36362f	0.044485267
126	0xbdcde755	-0.10053889
127	0xbdb110e5	-0.086458005
128	0xbddd5369	-0.10806925
129	0x3d794cc3	0.06086422
130	0xbdf88aac	-0.121358246
131	0x3da800e9	0.082032986
132	0xbe71fbe4	-0.23631245
133	0x3d8cb48d	0.06870375
134	0x3e0ee12e	0.13953087
135	0x3d7e752b	0.06212346
136	0xbe0c1b57	-0.13682304
137	0x3dbacec9	0.091214724
138	0xbdda5dd8	-0.106624305
139	0xbcdfef18	-0.027335688
140	0x3d56a691	0.052404944
141	0x3d8eb9bb	0.06969019
142	0x3a662250	0.00087789167
143	0x3dd1ca09	0.10243613
144	0x3e0684a4	0.13136536
145	0xbdbecb67	-0.0931614
146	0x3d696836	0.05698415
147	0x3e2f9e82	0.1715031
148	0x3e391171	0.1807306
149	0x3dbccd89	0.0921889
150	0xbe076b3a	-0.13224497
151	0x3c2fa891	0.010721342
152	0x3e10da01	0.14145662
153	0xbe328862	-0.17434838
154	0xbd116301	-0.035494808
155	0xbe254827	-0.16140805
156	0x3de4385b	0.111435615
157	0xbdf77f63	-0.12084844
158	0xbd868e6b	-0.06570133
159	0xbe8432da	-0.25820047
160	0xbda58aac	-0.0808309
161	0x3dead917	0.11467188
162	0xbe025af0	-0.12730002
163	0x3e129cd5	0.14317639
164	0xbd9c4477	-0.07630246
165	0xbdd756c6	-0.105145976
166	0xbde696fb	-0.11259266
167	0x3e3cf85f	0.18454121
168	0x3e11efcd	0.14251633
169	0x3e12e0e4	0.14343601
170	0xbe30bcb2	-0.17259482
171	0xbd4441c7	-0.047914293
172	0xbd501fbb	-0.05081151
173	0xbe239143	-0.15973382
174	0x3dbb93bd	0.09159038
175	0x3ced88ac	0.028995834
176	0x3e04ace3	0.12956576
177	0x3e3d3c82	0.18480113
178	0xbda6b32e	-0.081396446
179	0x3d3b2c3e	0.04569649
180	0xbdc67244	-0.09689763
181	0x3e09b421	0.1344762
182	0x3da65a81	0.08122731
183	0x3d48b4a1	0.049000386
184	0xbe1cd981	-0.15317346
185	0x3d80d7eb	0.06291183
186	0x3d7428e2	0.0596093
187	0x3bb293a8	0.005449731
188	0xbdcddefd	-0.10052297
189	0x3dab8732	0.08375396
190	0xbe0a47aa	-0.135039
191	0xbdc550d5	-0.09634558
192	0xbc877127	-0.016533447
193	0xbe0a7d87	-0.13524447
194	0x3cf0c758	0.02939193
195	0xbdeedd4f	-0.11663305
196	0xbe07cd74	-0.13261968
197	0xbdcc2c07	-0.09969335
198	0x3dbd78a3	0.09251525
199	0x3d88f288	0.06686884
200	0xbd0196e8	-0.031638056
201	0xbdd5ae3f	-0.104336254
202	0xbe56deeb	-0.20983474
203	0xbdd188a3	-0.102311395
204	0xbdd62358	-0.1045596
205	0x3e1ac6e0	0.15114927
206	0xbe124256	-0.14283118
207	0xbd8d9dcd	-0.06914864
208	0x3e1293d3	0.14314203
209	0x3dda6da7	0.10665446
210	0x3e002dc1	0.12517454
211	0x3d9c2c4d	0.07625637
212	0x3e155a90	0.14585328
213	0xbd5b466a	-0.05353395
214	0xbe420163	-0.18945841
215	0xbe19bea7	-0.15014134
216	0xbc7ce640	-0.015435755
217	0xbe1cae1f	-0.15300797
218	0x3ded624d	0.11591015
219	0xbda08191	-0.07837213
220	0x3beee9da	0.007291061
221	0x3e2cfda3	0.1689363
222	0xbdedaf0f	-0.116056554
223	0x3de1e571	0.110300906
224	0x3dbcb5ea	0.09214385
225	0xbe4c554b	-0.19954412
226	0x3c35b248	0.011089869
227	0xbe43657b	-0.1908168
228	0x3e0dd419	0.1385044
229	0x3d322c6b	0.04349939
230	0xbd872a32	-0.06599845
231	0xbe0558eb	-0.13022201
232	0x3d301613	0.0429898
233	0xbd84d87c	-0.064866036
234	0x3df11eb0	0.11773431
235	0xbe02ef90	-0.12786698
236	0x3df4ff59	0.11962766
237	0xbe3424cc	-0.17592162
238	0x3e24cec1	0.16094495
239	0xbe198413	-0.14991789
240	0x3dbf8324	0.09351185
241	0x3e1f2ee5	0.15545233
242	0xbdf6accb	-0.120446764
243	0xbe0633df	-0.13105725
244	0xbdf33b0b	-0.11876496
245	0x3d8bd8f2	0.068284884
246	0x3ca5837b	0.020204296
247	0x3dbdcd40	0.09267664
248	0xbe23d84d	-0.16000481
249	0xbde0ccd6	-0.10976569
250	0xbdec0840	-0.11525011
251	0x3dfed9fa	0.124439195
252	0x3d44821c	0.047975644
253	0xbb9b47bf	-0.0047387774
254	0x3de2e9ac	0.110797256
255	0xbe101b48	-0.14072907

fc2.bias f4 [10]
0	0x3d9b3cac	0.075799316
1	0x3d8c53c8	0.068519175
2	0xbd3ce4d0	-0.04611665
3	0xbccc2ca9	-0.02492364
4	0xbb9f2657	-0.0048568654
5	0x3dc221d6	0.0947911
6	0x3dcfb1c9	0.10141332
7	0xbddee092	-0.10882677
8	0x3d91b4b6	0.07114546
9	0xbe4c6788	-0.19961369

exp_avg f4 [10, 1, 5, 5]
0	0x3b6209e1	0.0034490752
1	0x3b586bef	0.0033023318
2	0x3b1291d6	0.0022364757
3	0x3a89571f	0.0010478235
4	0x3af66d78	0.0018800935
5	0x3b44c6ac	0.0030025644
6	0x3aa4bb01	0.0012567939
7	0x39b9f48c	0.0003546815
8	0x3a03feaf	0.0005035204
9	0x3b1d4d5e	0.0024002413
10	0x39e374d1	0.0004338385
11	0xba0aaae4	-0.0005289747
12	0xbae9e576	-0.0017844874
13	0xbb011a02	-0.001969934
14	0x3a46ac9e	0.00075788226
15	0xbb10650b	-0.0022032883
16	0xbacb5a68	-0.0015514614
17	0xbb081d2e	-0.0020769346
18	0xba6247c3	-0.0008631909
19	0x3a975376	0.0011545259
20	0xbade7e02	-0.0016974809
21	0xba9acbb2	-0.0011809974
22	0x3a856dcd	0.0010179818
23	0x3a1f89ac	0.00060858834
24	0x37d7620f	2.567566e-05
25	0x3bc62cbf	0.0060478146
26	0x3bdbd90d	0.006709224
27	0x3bdc4725	0.0067223483
28	0x3be4d746	0.0069836704
29	0x3ba7b944	0.005118521
30	0x3bc6d433	0.0060677766
31	0x3bc119f2	0.0058929855
32	0x3c13a1d7	0.009010754
33	0x3c0be2f6	0.008537998
34	0x3bcc25de	0.0062301
35	0x3b9fbc89	0.00487477
36	0x3bc2440c	0.005928522
37	0x3c081189	0.008304962
38	0x3baedc67	0.0053363326
39	0x3b6c408f	0.0036049222
40	0x3b4220a1	0.00296215
41	0x3b9b7fad	0.0047454447
42	0x3ba2e277	0.0049708444
43	0x3b0ed3d2	0.0021793735
44	0x3ac6a3f5	0.0015155064
45	0x372bd879	1.0242796e-05
46	0x3acfdf6d	0.0015859433
47	0x3b39e19d	0.0028363236
48	0x3977f8d5	0.00023648453
49	0x380bb050	3.3304386e-05
50	0xb98753d5	-0.00025811666
51	0xbb534dcf	-0.0032242422
52	0xbc261ef5	-0.010139217
53	0xbc1e92cd	-0.009678555
54	0xbbbfafab	-0.0058497987
55	0xba5d5134	-0.0008442581
56	0xbbfcfbca	-0.0077204453
57	0xbc19ba30	-0.009382769
58	0xbba1c3a7	-0.0049366537
59	0xb94c9258	-0.00019509473
60	0xbba4244f	-0.005009211
61	0xbc3d5a51	-0.011557178
62	0xbbfb9e2a	-0.0076787667
63	0x3aca9ccf	0.001545811
64	0x3b96aa15	0.004597912
65	0xbbe4ea30	-0.006985925
66	0xbc128e67	-0.008945084
67	0xbb3c1262	-0.002869748
68	0x3b2fa89f	0.0026803387
69	0x3b7f9e04	0.0039004097
70	0xbc02e091	-0.007988111
71	0xbb879b44	-0.004138382
72	0x39de968d	0.0004245531
73	0x3adaa86e	0.0016682276
74	0x3b5f7eeb	0.0034102749
75	0x3a7a2132	0.00095416897
76	0x3b1a3825	0.0023532
77	0x3b543862	0.003238224
78	0xbb607359	-0.003424844
79	0xbb842c2c	-0.004033586
80	0x3aea65fc	0.0017883177
81	0x3a47c74e	0.0007620946
82	0xbacbaf64	-0.0015539941
83	0xbb8bfbb6	-0.0042719496
84	0xbb44461c	-0.0029949015
85	0x3b3f3b9f	0.0029179824
86	0x3aa18873	0.001232399
87	0xbade4700	-0.0016958416
88	0xbb3bd19d	-0.0028658875
89	0xb95e99ea	-0.00021228907
90	0x3b76916b	0.0037623297
91	0x3a47f40d	0.0007627614
92	0x38e954cf	0.000111261026
93	0x3b22002d	0.0024719343
94	0x3af731ae	0.001885941
95	0x3a668625	0.0008793793
96	0xbace3841	-0.0015733318
97	0x3a5225cb	0.0008016496
98	0x3b9e6823	0.0048341914
99	0x3b4fb32c	0.0031692488
100	0xb923302b	-0.00015562835
101	0x38c9cd47	9.622663e-05
102	0x392871e8	0.00016064162
103	0x3a3a0417	0.00070959463
104	0x395f0a8d	0.00021270868
105	0x3a20f519	0.0006140038
106	0x3a1989e5	0.00058570347
107	0x397d91dc	0.00024182297
108	0x3a2313d5	0.0006220912
109	0xb8085f75	-3.2513828e-05
110	0x3a396fcb	0.00070738484
111	0x3ae423df	0.001740571
112	0x3a8c098b	0.0010683996
113	0x3a3b2a1a	0.00071397575
114	0x3a2077a2	0.00061213423
115	0xba7411b8	-0.00093105016
116	0x3a732926	0.0009275846
117	0x3a800da1	0.0009769687
118	0x3a98f759	0.0011670395
119	0x3a52eb08	0.00080458866
120	0xbabac8c2	-0.0014250504
121	0xb9232d3e	-0.00015561745
122	0x3ac5fc2e	0.0015105063
123	0x3a826308	0.0009947727
124	0x3947bc9d	0.00019048383
125	0xbb41038b	-0.0029451575
126	0xbbc2b407	-0.005941871
127	0xbbb07c5d	-0.005385919
128	0xbab15436	-0.0013529125
129	0x3b8ffd1f	0.004394188
130	0xbb480c0f	-0.0030524766
131	0xbb6f0fad	-0.003647785
132	0xba4a0621	-0.0007706602
133	0x3b8b2c35	0.0042472132
134	0x3c2239e4	0.0099014975
135	0xb9fe9a28	-0.0004856151
136	0x3a681fbf	0.0008854828
137	0x3b014a70	0.0019728206
138	0x3be47d22	0.006972925
139	0x3c07a20d	0.008278382
140	0x3a8abe4f	0.0010585281
141	0x37cc49dc	2.4353089e-05
142	0x3a226708	0.00061951624
143	0x3b8d2af2	0.004308098
144	0x3b73296d	0.003710355
145	0x3b130eae	0.002243917
146	0x3b372c9c	0.0027950173
147	0x3aebebc5	0.0017999342
148	0x3bc810b2	0.006105506
149	0x3b8be243	0.004268916
150	0x3bd0a1d9	0.00636695
151	0x3bc520b7	0.006015863
152	0x3b9ba8da	0.0047503533
153	0xba546d4a	-0.00081034435
154	0xbb8260df	-0.003978833
155	0x3bbeb4b5	0.005819882
156	0x3b3f2979	0.0029169007
157	0xb9c25805	-0.00037068143
158	0xbb19abda	-0.0023448379
159	0xbaeb6aaa	-0.0017960866
160	0x3b6520b3	0.0034962117
161	0x3accb272	0.0015617146
162	0xba688133	-0.000886935
163	0xbb0a9b7e	-0.002114981
164	0xba9ac0f6	-0.0011806774
165	0x3a795596	0.00095113495
166	0x3a9e05d4	0.001205618
167	0xbac10f41	-0.0014729277
168	0x3a0d578b	0.0005391768
169	0x3b201e91	0.0024432281
170	0x3aa13eca	0.0012302038
171	0x3a673906	0.0008820448
172	0x39198514	0.00014640793
173	0x3ae18159	0.0017204686
174	0x3b9a6479	0.0047116843
175	0x3b57b1e4	0.0032912428
176	0x3b9553b3	0.004557097
177	0x3bb1cef2	0.005426281
178	0x3b99dc18	0.0046954267
179	0x3bfb079e	0.00766082
180	0x3b40c63f	0.002941504
181	0x3bac4f2b	0.005258461
182	0x3b90dcfb	0.004420874
183	0x3bc039d6	0.0058662696
184	0x3c137955	0.009001096
185	0x3b89b6bc	0.004202692
186	0x3beee238	0.007290151
187	0x3b9d72f4	0.0048049632
188	0x3bc39761	0.0059689735
189	0x3c055ecd	0.008140278
190	0x3add3766	0.0016877472
191	0x3ba3b3c1	0.0049957936
192	0x3bb3ae10	0.0054833964
193	0x3c032d8a	0.008006463
194	0x3bebf7de	0.007201179
195	0x3af0e63c	0.0018379162
196	0x3ba12637	0.0049178856
197	0x3bdaf69f	0.0066822316
198	0x3beedb99	0.0072893617
199	0x3bda9661	0.0066707586
200	0x3c016f11	0.007900015
201	0x3b767a91	0.0037609676
202	0x3b04f957	0.002029022
203	0x393fe864	0.00018301752
204	0xbb3cd651	-0.0028814266
205	0x3be5575c	0.0069989394
206	0x3b33bb31	0.0027424807
207	0x3b274146	0.0025521084
208	0x3b27dcdc	0.002561382
209	0x39cb2148	0.00038743974
210	0x3c056987	0.008142835
211	0x3bad8272	0.0052950913
212	0x3ba28d95	0.0049607255
213	0x3b8a6505	0.0042234682
214	0x3aa94f14	0.0012917244
215	0x3c36292f	0.011118217
216	0x3c097d98	0.00839176
217	0x3bb3718e	0.0054761833
218	0x3b0ca36c	0.0021459712
219	0x3a6169fa	0.00085988606
220	0x3c13d3d6	0.009022674
221	0x3bff5556	0.0077921553
222	0x3ba45ee1	0.0050161933
223	0x3afcf717	0.0019299713
224	0x3a708f57	0.0009176633
225	0x3b5cd47b	0.0033695984
226	0x3bf6a461	0.0075269197
227	0x3c04a9f3	0.00809716
228	0x3bba4965	0.005685019
229	0x3a9f54ce	0.0012156011
230	0x379a4084	1.8388273e-05
231	0x3b55c4a3	0.0032618425
232	0x3b32e411	0.0027296583
233	0x3ad872bd	0.0016513687
234	0x39e9fad9	0.0004462812
235	0x3aadb8a4	0.001325388
236	0xba51b104	-0.00079990947
237	0xba82eb30	-0.0009988304
238	0xbac6a5f8	-0.0015155664
239	0xbb28b334	-0.002574158
240	0x3b1ea6f6	0.0024208403
241	0x39cde570	0.0003927159
242	0x3a04fc38	0.0005072984
243	0xb99bab48	-0.00029691518
244	0xbb2c10fc	-0.002625524
245	0x3b2b6a24	0.0026155794
246	0xba6046e6	-0.00085554866
247	0xba883692	-0.001039224
248	0xbaf7569a	-0.0018870414
249	0xbb4cc3dd	-0.0031244673

exp_avg_sq f4 [10, 1, 5, 5]
0	0x396912ab	0.00022227566
1	0x3980ef18	0.000245922
2	0x3984232e	0.00025203213
3	0x3989d467	0.00026288928
4	0x3953fe31	0.00020217222
5	0x3941bc6b	0.00018476105
6	0x39481eff	0.00019085033
7	0x396e00ca	0.00022697743
8	0x395e9cb5	0.00021229948
9	0x3934a89e	0.00017228952
10	0x394b8da2	0.00019412351
11	0x3965c065	0.00021910814
12	0x39819cac	0.00024721527
13	0x3968c5bc	0.00022198906
14	0x396da9f7	0.00022665398
15	0x39454cd6	0.00018816008
16	0x3980a5bd	0.00024537547
17	0x398b2fad	0.00026547667
18	0x39851d39	0.0002538951
19	0x398a2b07	0.0002635347
20	0x3923fbc9	0.00015638689
21	0x394bd2fc	0.00019438186
22	0x396c8afc	0.0002255849
23	0x3982d91c	0.0002495729
24	0x3969aa2f	0.0002228401
25	0x39360a39	0.00017360681
26	0x391f1f76	0.00015175142
27	0x39352cf7	0.00017278256
28	0x393b2b23	0.0001784978
29	0x390245b6	0.00012423735
30	0x395f94a9	0.00021322317
31	0x3937f2aa	0.0001754264
32	0x395f08bf	0.00021270195
33	0x3935c3ca	0.00017334442
34	0x390e9720	0.00013598474
35	0x39721cb3	0.0002308961
36	0x396c29b8	0.00022522255
37	0x39836fc6	0.00025069545
38	0x3951f2c5	0.00020022232
39	0x394625dd	0.00018896857
40	0x3938b2bf	0.00017614196
41	0x39420d4f	0.0001850624
42	0x39738efc	0.00023227552
43	0x3981cbc5	0.00024756617
44	0x398cff27	0.00026892984
45	0x39047407	0.00012631725
46	0x392b91fc	0.00016362214
47	0x3961d0f2	0.0002153551
48	0x3985d0ad	0.00025523212
49	0x3986c55a	0.0002570551
50	0x39d6f5c7	0.0004100038
51	0x3a271acf	0.0006374539
52	0x3a4d3a16	0.0007828785
53	0x3a3d1159	0.0007212363
54	0x39f8ec1f	0.0004747817
55	0x3a098eab	0.00052473944
56	0x3a503eb1	0.0007943912
57	0x3a5a9968	0.00083388994
58	0x3a177866	0.00057781336
59	0x3999be54	0.0002932424
60	0x3a1e3ff9	0.00060367543
61	0x3a5ab170	0.000834248
62	0x3a3732bb	0.00069884554
63	0x399f448b	0.00030377912
64	0x392340f2	0.00015569085
65	0x3a35197e	0.00069084007
66	0x3a61b6ad	0.00086102897
67	0x3a0343b4	0.0005007342
68	0x3936a945	0.0001741993
69	0x38d8bab7	0.00010334461
70	0x3a44945d	0.00074989145
71	0x3a497c7b	0.00076860905
72	0x39e69d6d	0.0004398631
73	0x3925de38	0.00015818409
74	0x38e611fc	0.000109706045
75	0x388d04f6	6.724328e-05
76	0x38dc7285	0.000105117484
77	0x395d97e3	0.00021132785
78	0x39af5696	0.00033443113
79	0x39b7dba3	0.00035068122
80	0x3895581d	7.121286e-05
81	0x38fb9fbe	0.00011998367
82	0x398acdfe	0.00026474887
83	0x39c156df	0.00036876553
84	0x39affc81	0.0003356673
85	0x38f99e46	0.00011902726
86	0x39649fa4	0.00021803245
87	0x39c2e8a6	0.000371759
88	0x39d774f1	0.00041095124
89	0x399c9ed1	0.00029872966
90	0x395083f1	0.00019885578
91	0x39b59e80	0.00034641102
92	0x39f9cf64	0.000476475
93	0x39caa5b5	0.00038651904
94	0x396ba93f	0.00022474396
95	0x398d881d	0.00026995028
96	0x39e21338	0.00043120398
97	0x39ddde49	0.0004231802
98	0x3991b9d3	0.00027795005
99	0x3943a39e	0.00018657601
100	0x385403ef	5.0548402e-05
101	0x381badaa	3.7116617e-05
102	0x381e515f	3.774592e-05
103	0x38209ab3	3.8291048e-05
104	0x384b2054	4.842908e-05
105	0x381b2235	3.6986738e-05
106	0x3813a016	3.5196623e-05
107	0x3816478a	3.5829413e-05
108	0x38132fe3	3.509213e-05
109	0x38161cea	3.5789715e-05
110	0x383ea3f8	4.5452238e-05
111	0x381ba958	3.7112593e-05
112	0x38158a4a	3.565316e-05
113	0x38125af5	3.4893823e-05
114	0x380ea57e	3.4009565e-05
115	0x38834ebb	6.2612315e-05
116	0x38340856	4.2923108e-05
117	0x3819c045	3.6657108e-05
118	0x38144668	3.535152e-05
119	0x380d6019	3.3706518e-05
120	0x38fb8410	0.00011993211
121	0x38948117	7.081235e-05
122	0x3846c8aa	4.739376e-05
123	0x38203526	3.819647e-05
124	0x3839b7fb	4.4278782e-05
125	0x3956bf00	0.00020479783
126	0x39203027	0.00015276727
127	0x38f9e801	0.00011916459
128	0x3945dcca	0.00018869634
129	0x399d91d9	0.00030054039
130	0x3960cf18	0.00021439453
131	0x3903ed9a	0.00012581647
132	0x38d345ea	0.000100742865
133	0x398499d9	0.00025291627
134	0x39dcfb89	0.00042149078
135	0x398eb8c2	0.00027222006
136	0x392f43aa	0.00016714507
137	0x395edbe8	0.00021253491
138	0x3a0afab5	0.00053016405
139	0x3a40d831	0.0007356434
140	0x39fd698d	0.00048334562
141	0x39fc11f8	0.00048078573
142	0x3a4569f3	0.0007530741
143	0x3a8836f7	0.0010392357
144	0x3a8b30a4	0.0010619354
145	0x3a33177b	0.0006831807
146	0x3a6b8767	0.0008984715
147	0x3aa1a3c1	0.0012332128
148	0x3ab4cd02	0.0013794007
149	0x3a8f2a8c	0.0010922714
150	0x39370b02	0.0001745634
151	0x392f366c	0.00016709574
152	0x394005f5	0.00018312766
153	0x393d2865	0.00018039493
154	0x3968e467	0.0002221033
155	0x393300ba	0.00017071041
156	0x39522171	0.00020039619
157	0x394b3d35	0.0001938239
158	0x3928b2ed	0.00016088384
159	0x390ed1d7	0.00013620347
160	0x39507e4f	0.0001988348
161	0x395715a1	0.00020512055
162	0x3938dfd0	0.00017630984
163	0x3900e603	0.00012292717
164	0x38e36d92	0.000108446126
165	0x390f0a8c	0.00013641472
166	0x3924ba47	0.00015709653
167	0x393d07e0	0.00018027378
168	0x39090935	0.00013068768
169	0x38cc030b	9.728045e-05
170	0x38ba8751	8.894376e-05
171	0x3904caa9	0.00012663998
172	0x39346600	0.00017204136
173	0x390b3672	0.00013276355
174	0x38dd2865	0.00010545625
175	0x39337339	0.00017113694
176	0x398ed898	0.00027245726
177	0x39f3c24a	0.00046493328
178	0x39f12095	0.00045991378
179	0x39af77bc	0.0003346781
180	0x39857069	0.0002545149
181	0x39c66961	0.00037844016
182	0x39d8ce19	0.00041352285
183	0x39a8cf62	0.0003219797
184	0x3992f952	0.00028033048
185	0x398d9b9f	0.00027009562
186	0x39a2d88c	0.00031060388
187	0x399601bb	0.0002861152
188	0x397baabf	0.00024000833
189	0x397bd5f9	0.00024016936
190	0x395a9081	0.00020843932
191	0x396f04b4	0.00022794568
192	0x3982854c	0.00024894846
193	0x398b1b77	0.0002653261
194	0x39945d06	0.00028298068
195	0x3953eb9a	0.00020210296
196	0x3961f097	0.00021547299
197	0x3982ae9f	0.00024925635
198	0x399b6bce	0.00029644225
199	0x39a2c4d7	0.00031045705
200	0x39a1c9d1	0.00030858678
201	0x395c1149	0.00020987274
202	0x39253b84	0.00015757798
203	0x3945a725	0.0001884965
204	0x3989a8c6	0.00026256422
205	0x39b37ebe	0.0003423597
206	0x394b31ac	0.00019378093
207	0x38bd6207	9.030481e-05
208	0x38aedcfe	8.3381296e-05
209	0x3918062e	0.00014498152
210	0x39fec078	0.00048590056
211	0x398754bc	0.0002581234
212	0x38bf9f23	9.137231e-05
213	0x38bf6e41	9.128126e-05
214	0x38e65b11	0.00010984217
215	0x3a2262e1	0.00061945437
216	0x39fa2394	0.00047710224
217	0x39757f6b	0.00023412488
218	0x39336c66	0.00017111152
219	0x39283f7e	0.00016045381
220	0x3a2514d4	0.0006297354
221	0x3a2b1aa3	0.00065271015
222	0x39f5c4d5	0.00046876693
223	0x39a7dcb3	0.00032017156
224	0x39872f59	0.00025784483
225	0x3a3e3d59	0.00072570663
226	0x3a78b389	0.0009487202
227	0x3a90e811	0.0011055489
228	0x3a92d734	0.0011203052
229	0x3a84eac8	0.0010140771
230	0x3a5427e6	0.00080931035
231	0x3a7bc3d4	0.0009604071
232	0x3a81ff53	0.0009918011
233	0x3a82f535	0.000999129
234	0x3a6c7c5e	0.00090212177
235	0x3a3ca7e5	0.0007196649
236	0x3a16e775	0.00057565357
237	0x3a018c24	0.0004941842
238	0x3a145f80	0.00056599826
239	0x3a2488b6	0.0006276475
240	0x39de9281	0.00042452294
241	0x3987d42f	0.00025907296
242	0x39961ad6	0.00028630224
243	0x39c8c9ed	0.0003829742
244	0x3a0bfd47	0.00053401705
245	0x398950e9	0.0002619096
246	0x394ff7b6	0.00019833338
247	0x3990c112	0.0002760967
248	0x39ce92bd	0.0003940071
249	0x3a1f837d	0.0006084962
