pytorch/template/saved/models/Mnist_Model/0121_234515/checkpoint-epoch3.pth (torch, 359983 bytes, 32 tensors)

conv1.weight f4 [10, 1, 5, 5]
00000000: 0d74 3a3e 52f1 563e cbcf 29bc 1674 573e
00000010: db16 acbd 5341 2e3b de2b 92bd ed4a 053e
00000020: 3719 333e 7edb 52be be6b 253e d7fe bf3d
00000030: 3ff3 4a3e 09f0 573d 011b f03d 63a7 c0bc
00000040: c785 683e e22f f03d fcab 83bc 4aa0 d33d
00000050: d17a 12be aaff 1ebb 8ae9 2bbc 85cf 523e
00000060: 458f 06be 6a4b 08be f0a8 06be 4f64 14be
00000070: 53c3 e7bc 9c40 9ebe 8b83 4a3e 641a 1dbe
00000080: c5e6 293e e4dd 36bd 7e32 80be 8f17 3b3e
00000090: 4b1c f73d cd0f 783e 00f1 163d 22df f5bd
000000a0: 992c 053d 6217 afbc 2da4 1c3e 4fea 853e
000000b0: a42d 3f3e 8c7a 73be bf83 713d 9b19 e03c
000000c0: c8df 0c3e 4033 0fbd 7ed9 fbbd 69ca bc3d
000000d0: 2233 17bb a970 593e f1f0 cd3b 6745 ff3d
000000e0: 719c 503e 8277 f23d 384a 223e 1b1c 96be
000000f0: 5d70 1c3e 762c 9b3d 22cf 563e c2ed e4bd
00000100: 7899 49be 8b78 093e b962 b23e 2f1b 9dbc
00000110: df68 5cbe 1a3c b1be cc9a a63e cb84 423e
00000120: a9cc 4e3e 304c a6be b6c1 e4be 52f8 d3be
00000130: 73aa 8cbe 0481 ab3d bcfc 1c3e ad41 9c3e
00000140: 212a b7be bbd5 5abe f221 4b3e 9796 9d3d
00000150: d1b5 923e ef9d 7cbe 2f0f 123e 1f10 143c
00000160: 4885 9e3d 6042 0c3e 6a36 99bd d4a5 933b
00000170: c03f 773e 0d5b 803e 28ce 24be f194 c0bd
00000180: 6b49 803e 0e59 8f3c 78ff 8cbb 62a3 6fbe
00000190: 999e b2be cd8b 91bd f4ec a6bd 572e 57be
000001a0: c789 9abd 9ade 9bbe 9f13 8fbe f80d 44be
000001b0: bd77 83be 012c 5dbe b18c 093c 75ee fbbd
000001c0: 1717 81bd 9e55 91be 13f2 7abe ad72 d4bd
000001d0: 5ce8 84bc 2ca7 75be 523c 36be b045 7bbe
000001e0: 5db7 aa3d eccb 65bc 5578 16bc b27f 71be
000001f0: bd27 b3be 81f6 3dbe d5d6 57bd 5aa8 05be
00000200: b190 7f3c 41e1 c6bd e011 f13b a9b1 25be
00000210: bc16 f7be 9685 0bbe 7703 36be dcbf b8bd
00000220: 7d27 86be d70f 9fbe ff59 c9bc bd55 153a
00000230: f909 803e f81b a63d 66b4 ab3e 2456 a739
00000240: 8d34 013e bc3c 423e 6764 a53e e4f2 b93e
00000250: 412c a63e 8880 4fbd dc9f 593d 9a14 87bd
00000260: ce2b 3bbc 990c 1cbe c168 503e b235 1dbe
00000270: 5e87 393e 5f5a dc3d 4616 693d 987f 13be
00000280: 5dd9 7b3e 4bae 203e 2e08 933d b93a 87be
00000290: 37fe a23c ba39 a1bd 4848 2bbd 152a 6a3e
000002a0: f7f1 b93c 580f 22be 43d9 98be 3f3a 95bd
000002b0: ca5f 1e3e 727b 37bc 4839 18be d19e 49be
000002c0: aee8 fbbd 08ae 343e 9093 683e 893d 55be
000002d0: 36ca 823d 870b 5b3e c977 153e e21d 53bd
000002e0: c455 703b aaf6 063e 3f1d fc3d 94dc 8b3c
000002f0: b05f a7bd 4211 ddbc 1848 6bbd 5001 4fbd
00000300: 13f0 353e 65ce 793e 5294 6f3d 9b79 95bd
00000310: 5e66 7dbc 58a2 133d a352 213e 696b 423e
00000320: 48be 3cbe 1cd4 65be 243b 4f3d cb7a f23d
00000330: 0f9f 3a3e 03a8 cdbd 92be ebbe 9472 0bbf
00000340: f926 78be d06b 0c3e 230f a33e d175 2e3d
00000350: ad0d d8be 3f2d cebe ad4f 82be 6cff bb3e
00000360: 9c92 813e 2159 c6bc 4bd6 e9bd dab1 aebe
00000370: 8289 d8bb 70b4 b93e 6690 0d3e 9910 da3d
00000380: f466 66be 57fd 813e eb48 933e 1c65 7f3e
00000390: 44c7 913d b078 223d dff7 34bc fb8d ab3e
000003a0: 8f07 a33e 90d9 cc3e 81eb a43e 8b46 ae3d
000003b0: ac14 163d a7f2 f4bd 0172 cabd 8fc6 dabd
000003c0: c154 03be 490d a3be b619 8bbe bc1a 83be
000003d0: dcad 12be 7187 e4be 7e73 c0be 9791 10be
000003e0: 89f5 05be 705e a5bc
0.18208332 0.20990494 -0.010364483 0.21040377 -0.08402797 0.002658923 -0.07137273 0.13016863
0.17490087 -0.20591542 0.16154382 0.09374779 0.19819354 0.05271915 0.117239006 -0.023517316
0.22707282 0.11727883 -0.01607322 0.10333307 -0.14304663 -0.0024261274 -0.010492692 0.20586975
-0.1314059 -0.13310018 -0.13150382 -0.1449139 -0.02829138 -0.30908668 0.19776742 -0.15342098
0.16591938 -0.044645205 -0.25038522 0.18270706 0.12065943 0.24224778 0.03685093 -0.1200545
0.032513235 -0.021373454 0.15297003 0.26155326 0.18669754 -0.23777217 0.058963533 0.02735596
0.13757241 -0.034960985 -0.12297343 0.09218294 -0.002307125 0.21234383 0.006284826 0.12464409
0.20372178 0.118392006 0.15848625 -0.29318318 0.15277238 0.075768396 0.20977452 -0.11178161
-0.1968745 0.1342489 0.34840944 -0.019178001 -0.2152438 -0.34616166 0.32539976 0.18995969
0.20195259 -0.3248 -0.4467904 -0.4140039 -0.27473792 0.08374217 0.15330786 0.30518857
-0.3577433 -0.21370594 0.19837168 0.07694738 0.2865434 -0.24669622 0.14263605 0.009037047
0.07740265 0.13697195 -0.07481082 0.0045058522 0.24145412 0.25069466 -0.16094267 -0.09403408
0.25056013 0.01749852 -0.004302915 -0.2340217 -0.34886625 -0.07106743 -0.08150664 -0.21013771
-0.0754581 -0.3044327 -0.27944657 -0.19145954 -0.2567729 -0.21598817 0.00839536 -0.123013414
-0.06303232 -0.28385633 -0.24506406 -0.10373435 -0.016224079 -0.23989552 -0.17796448 -0.24538302
0.08335755 -0.01402567 -0.009183963 -0.23583868 -0.34991255 -0.18551065 -0.052695114 -0.13052502
0.015598462 -0.097109325 0.007356867 -0.16181053 -0.48259532 -0.13625178 -0.17774759 -0.09020969
-0.26202002 -0.31066772 -0.024579046 0.0005696675 0.2500761 0.08110803 0.3353607 0.00031916902
0.12617703 0.18968481 0.32303163 0.36318123 0.32455638 -0.050659686 0.05313097 -0.06595726
-0.011424018 -0.1523918 0.2035246 -0.15352514 0.18118045 0.107594244 0.056906007 -0.14404142
0.24594636 0.15691487 0.071792945 -0.2641199 0.01989661 -0.078723386 -0.04181698 0.22867616
0.022698386 -0.15826166 -0.29853258 -0.072865 0.15466228 -0.011198865 -0.14865601 -0.1968949
-0.123002395 0.17644513 0.2271254 -0.20824255 0.06386225 0.21391116 0.14596476 -0.05154217
0.0036672214 0.13180032 0.12310266 0.017072953 -0.08172548 -0.026985768 -0.0574418 -0.05053836
0.17767362 0.2439514 0.05849106 -0.07298585 -0.015466301 0.036043495 0.1575418 0.18986286
-0.18431962 -0.22444195 0.05059351 0.11839827 0.18224739 -0.10041811 -0.4604383 -0.5447171
-0.24233617 0.13713002 0.31847486 0.042592827 -0.42197934 -0.40268895 -0.25451413 0.3671831
0.25307167 -0.024212422 -0.11417826 -0.34120065 -0.006608189 0.36270475 0.13824615 0.10647697
-0.22500211 0.25388595 0.2876657 0.24940914 0.07118085 0.039665878 -0.011045425 0.3350676
0.31841704 0.40009737 0.32210925 0.08509549 0.036640808 -0.11960345 -0.09885026 -0.10682403
-0.128253 -0.31846073 -0.27168053 -0.25606334 -0.14324135 -0.44634584 -0.37588114 -0.14118038
-0.13081945 -0.020186633

conv1.bias f4 [10]
00000000: 3314 45bc 0fad 62bd da8d e2bb 622f d8bd
00000010: 1917 a73c c28a 91bd ddf6 023e af02 98bc
00000020: ae13 b73d 36ec d43d
-0.012028742 -0.055340823 -0.0069138827 -0.105559126 0.020396756 -0.07106544 0.12789483 -0.018555967
0.089393005 0.10396616

conv2.weight f4 [20, 10, 5, 5]
00000000: d348 d43c bbf4 a7bd 2a27 5abc 7b9e 9ebd
00000010: 95ff 4ebd ff6c 973d cf10 f9bb 48f1 b7bc
00000020: 5392 30bd 31f3 57bd ae98 863d dc0e 4cbd
00000030: 5eff 2d3d d945 7b3d 569e d23d cfb1 d3bc
00000040: 067c e2bd 6f98 1cbd 2c3a aa3c a446 27bd
00000050: eaab 70bd e7cf 0fbe f8a9 04be e85e f6bd
00000060: 280a 5fbd e7b5 73bc ea21 1ebd d8d3 463d
00000070: 0f86 8f3d 1dd9 8bbb f5bb 1d3c b82c 74ba
00000080: ad65 48bd cbed c6bc f4aa 9c3d 0b1d 1fbd
00000090: ec42 5dbc 24c0 ab3c 786e 4a3d 3796 8e3d
000000a0: 4552 24bd 3745 fabd 4fbd e3bd a7a2 93bd
000000b0: edb0 09bc ed0c 973d c33b 0bbd 96d4 93bc
000000c0: 7de2 56bd a33d 8fbd 4a10 d23b d478 653d
000000d0: a790 7bbc a14e ef3b 23ce c73d bd3b a3bc
000000e0: 9a50 a43d 3342 ab3d 88a9 1cbd 7f2e 583d
000000f0: b6a6 adbd bfab 7fbd c523 1abd 2c5d b6bd
00000100: bc43 efbd f14a 9ebd 70a9 bbbd d14d 4cbe
00000110: bf2a 65be 2de1 12be a444 193d 860a a93c
00000120: 0d1d b8bd 865e fabd a0f6 893d cd71 c5bd
00000130: 003e 5dbd 16b2 b83c 7c7e 1ebb d23d 3b3d
00000140: 4ece 5ebd d169 7fbc 21f8 80bd 8a9a 87bd
00000150: 240e ccbd 6759 d6bd c005 2b3d ad4e 53bc
00000160: 7be4 13bd 130f 6abd 0687 afbd 08fa 163d
00000170: e9cf c43d e736 6a3d 99f5 d6bd 4eac 12be
00000180: 364d 9bbd a407 9ebd 7728 a8bb 798f d03d
00000190: 8cdb 30bc e267 39bd 0ab1 e3bd a084 38bd
000001a0: 3fee c4ba 4ba8 883c 2c0b 51bd 7ca5 0abe
000001b0: f0bf 3cbe b2c6 46bd 9187 9c3d eacf 3c3a
000001c0: 1a83 ccbd dada 0fbe 1158 e8bd 5f51 ff3c
000001d0: 5468 8a3d 501d e23d 9e7c 093d 264e 94bc
000001e0: 18ac c13d 27a7 e93c 4c0b d03d 1d0c d53d
000001f0: c808 eb3d 6e26 533c 7df2 0dbd 2d2a 3f3c
00000200: b47b 753d 429f 823d 73a3 eabb 405e 833c
00000210: 63e7 f13d b4cc 003e 9287 0d3e 9707 8abd
00000220: 67e9 64bd d983 b23d 385e 1c3e 92db c53d
00000230: 19a6 1c3d e0a4 783d fcec 88bd af59 efbb
00000240: 16f6 cfbd 8e61 083d 933f 5a3d c75c f13d
00000250: 3dd1 023e 85d7 203d f01a 7fbd 449b 7dbc
00000260: d70f 473d c903 2a3d c6bf 593d 6ed4 3ebd
00000270: 8818 1d3c 23d3 6a3d 1978 cfbc c3d6 ba3c
00000280: fa7f 143b ffea 96bb 99d6 09bd 0545 243d
00000290: 3891 fe3d 29fa 01bd fa1f c0bd 7b46 f7bd
000002a0: 8d8e 9bbd 605f fe3c 593c 9a3c 4ab6 4bbd
000002b0: 9ff8 06be 1285 60bd 537d d3bd 4f94 043d
000002c0: d957 12bd 8b63 09bd 831c cf3b b734 08bb
000002d0: f75a abbc e652 603d 106d 55bc 9733 ab3d
000002e0: f68a b13d 5bb0 80bd 8e60 50bd f825 063d
000002f0: c766 c33d f060 053d 8131 abbd 526b 46be
00000300: e3cf 23be a8f0 c0bc 02a8 e83c 0d44 0cbd
00000310: 9c05 d5bd c46c c4bb 05e7 4fbd 135f 02be
00000320: 3523 83bd b181 6cbc b93b ab3c 21de d8bd
00000330: 8015 5fbb 5fbc b0bd dacc afbc 3ec9 683d
00000340: 8914 633d 71c2 c23d b0df 043d a343 b23d
00000350: 8bc8 263e c4ab 933d bbb0 883d e0d5 273e
00000360: 977a ec3d a4c2 ed3c 6a9d 09bb 29dd 903b
00000370: e0e9 343e 90d7 293e 95b9 ba3d 8b20 363d
00000380: ff16 85bd 52ff 6abd b288 d8bc 2061 abbd
00000390: 8915 03bd 5269 87bc 96f8 28bc aa08 0e3d
000003a0: 3043 8f3d 90ac 763d 0ad7 343d 307e 553a
000003b0: 474a 2d3d 1fee 913d 5dc6 1b3c 0518 343d
000003c0: 73f3 aa3b a1f2 003d 9431 0a3e 956b 433e
000003d0: 0ca8 4d3e 52f1 af3d 6da9 6c3c 716c 1e3d
000003e0: 1b73 a4bc 454d bebb fa1a 0f3c 5d95 78bd
000003f0: 06cc 2c3c 2d36 6bbd dc50 a1bd 3235 2ebd
0.025913632 -0.082009755 -0.0133150015 -0.077450715 -0.05053671 0.07393836 -0.0076008807 -0.022453919
-0.043108296 -0.05272216 0.0657209 -0.04981886 0.042479865 0.06134591 0.102841064 -0.025841622
-0.11058812 -0.03823131 0.020779692 -0.040838853 -0.0587577 -0.14044152 -0.12955463 -0.12029821
-0.054453045 -0.014874912 -0.03860656 0.048541874 0.070079915 -0.0042678253 0.009627332 -0.0009314525
-0.04892509 -0.02428331 0.07649794 -0.038846057 -0.013504725 0.020965643 0.049421757 0.06962245
-0.04011752 -0.12220233 -0.11120092 -0.07208758 -0.008403999 0.07375512 -0.03399254 -0.018045705
-0.05246209 -0.06994178 0.006410633 0.056023434 -0.015354312 0.0073030745 0.09756114 -0.019925946
0.08023186 0.08362236 -0.038247615 0.052778717 -0.08479063 -0.06241965 -0.03763177 -0.0890449
-0.11682841 -0.07729138 -0.09163177 -0.1995156 -0.22379588 -0.1434371 0.037418976 0.0206349
-0.08989916 -0.1222506 0.06736493 -0.096408464 -0.054014206 0.022545855 -0.0024184277 0.045713253
-0.054395966 -0.015589193 -0.06297327 -0.06621273 -0.099636346 -0.10466271 0.04175353 -0.012897176
-0.036106568 -0.057143282 -0.085706756 0.036859542 0.09609968 0.057181265 -0.10496063 -0.14323542
-0.07583086 -0.07716301 -0.005131777 0.10183615 -0.010794532 -0.045265086 -0.11117752 -0.045048356
-0.0015024616 0.01668181 -0.051036045 -0.1353969 -0.18432593 -0.048529334 0.07643045 0.00072026125
-0.09985943 -0.14048329 -0.11344922 0.03116673 0.0675818 0.11040747 0.03356611 -0.01810367
0.094566524 0.028522087 0.10158405 0.10402701 0.11476284 0.01288758 -0.034655083 0.01166777
0.059932426 0.06378032 -0.007160598 0.016036153 0.11811712 0.12578088 0.13821247 -0.06739729
-0.055886652 0.08716554 0.15270317 0.0966102 0.03824434 0.060704112 -0.06685826 -0.0073043923
-0.10154359 0.03329616 0.053283285 0.11785274 0.1277513 0.039268035 -0.06228155 -0.015478913
0.04859909 0.041507516 0.053161405 -0.046589307 0.009588368 0.057330262 -0.025325822 0.022807484
0.0022659288 -0.0046056504 -0.033651922 0.040104885 0.12430042 -0.031732712 -0.09381099 -0.1207399
-0.07595549 0.031051338 0.018827604 -0.04973439 -0.13180779 -0.054814406 -0.10326638 0.032368
-0.03572831 -0.033542197 0.0063205375 -0.0020783374 -0.020917399 0.054766558 -0.013026491 0.08359449
0.08669083 -0.06283637 -0.05087333 0.032751054 0.095410876 0.03256315 -0.083590515 -0.19376877
-0.15997271 -0.023552254 0.028400425 -0.034244586 -0.104014605 -0.005994411 -0.050757427 -0.1273158
-0.064031996 -0.014435218 0.020902501 -0.10589243 -0.0034039915 -0.08629679 -0.021459986 0.056832545
0.055439506 0.09509743 0.032439888 0.08704307 0.16287439 0.07210496 0.06674334 0.1639018
0.1154682 0.029023476 -0.0020998367 0.0044208956 0.17667341 0.16586137 0.09117428 0.04446463
-0.06498527 -0.0573724 -0.026432369 -0.083681345 -0.03200296 -0.016529713 -0.010313174 0.03467623
0.06995237 0.060223162 0.04415039 0.00081441086 0.042307165 0.07125496 0.009507743 0.04396822
0.0052170097 0.03148139 0.13495475 0.19084008 0.20083636 0.0859095 0.014444691 0.038677637
-0.020074418 -0.005807551 0.008734459 -0.06068932 0.01054669 -0.057424713 -0.07876751 -0.0425312

conv2.bias f4 [20]
00000000: 130b 683d 4011 1fbd 1395 f3bb f8c2 a2bd
00000010: 34b4 2dbd 3285 593c 8b71 6d3d d676 84bd
00000020: f150 b73b ea00 68bd a4db ac3c 9967 3f3d
00000030: e161 0dbd f603 75bb ab17 693d 44cb 0dbd
00000040: 4b15 0bbd 7cb9 cfbc 17f4 1a3d aeb1 5e3c
0.056651186 -0.03883481 -0.0074335425 -0.079473436 -0.042408183 0.013276385 0.05796961 -0.06467979
0.0055943658 -0.056641497 0.021100827 0.046729658 -0.034517173 -0.0037386394 0.056907337 -0.034617677
-0.033955853 -0.025357 0.03783044 0.013592167

fc1.weight f4 [50, 320]
00000000: 056f d0bc 25d1 0d3d ae8a f53c aaba dc3c
00000010: 903a a8bd 400e c6bd ee9e c53c a9cd da3c
00000020: be40 14be a6de 74bd 5070 c6bd e1c3 7d3b
00000030: 33c6 0f3c 4d50 513d e400 1f3d ffff 1f3e
00000040: ae64 6e3c 2ad0 783c f3a0 b3bd 53b7 79bd
00000050: 0411 29bc f9d9 6abd a669 acbd a475 22bc
00000060: fdf8 31bd 67af 13bd 8498 52bd ed37 6a3c
00000070: 2319 973b 10c0 dd3c 753f d23d 9e45 5a3d
00000080: b2ac 1a3c c512 693d ff1f d93d 89f7 153d
00000090: f4c8 57bd 8f0f 43bc 24dc 953c 578a 043e
000000a0: bb10 8d3d deac 0b3d 5292 bf3c 2fda 4a3d
000000b0: 9163 39bd a131 e43c af08 e8bd f23b 1fbe
000000c0: 68d9 ae3d 0b8f 823d 818b 003e e8f6 6bbc
000000d0: e065 a43d 2545 ee3c f396 103e 3ef9 f8bc
000000e0: 6cf6 48bd de24 c73c 52d7 df3b 98b8 30bd
000000f0: daf4 e1bd 364c 75bc 6fdf bfbd 957b f1bc
00000100: 39a9 1d3d dbad a43d c7a9 053e d93a 253d
00000110: 938c 363d 6978 fc3b 8bb2 443c 6460 20bd
00000120: 06b7 30bd 1a5a da3c 476f ac3c 0508 4bbd
00000130: ee9a 823d 3958 913d f8be 54bd f36e 3dbd
00000140: 6d40 8f3d 419a 113e 3ece c93d 0eee 5ebd
00000150: 4740 483d 096c 8c3c a3ea 9bbd 5687 b7bd
00000160: c286 e8bd bb9b 76bd ce94 183c 8cb1 b43c
00000170: 3227 883d ae8b e33d ba0d 483d 0a53 acbd
00000180: 858a 15bd 1d9b f83b 8b02 503d 67f1 27bc
00000190: 7f85 973d ed44 a43d 3929 04bd 00a4 893d
000001a0: 7076 363d e6e3 f83c c48d 19bc 4f6f 19bd
000001b0: 52fd 1a3d 2c1e 913d 4b74 a53b 7bb1 fcbd
000001c0: d487 eebc 4a2a 5cbd f914 f63c d10a 04bd
000001d0: 6bd8 2ebd 1815 a43c ff32 473d 531e 6f3b
000001e0: 3e87 0a3d 61fc 073d dfd4 5c3d 4a29 e1bc
000001f0: 431a 35bc 37f4 b1bd 582a 44bd c42a 78bb
00000200: 93d9 49bd cb00 303d 5a09 cb3c 77df e5bb
00000210: 5d8d 753c bb37 aebb 1ac8 e43c c832 3cbb
00000220: a956 27bd b2f8 c7bd 6284 b9bd 1d40 aebc
00000230: e77f 373b 2188 55bd 30f8 273d 32cd ce3d
00000240: 484c 9fbd 8755 013b 50a8 97bc 7ad9 b0bc
00000250: 47d9 4fbd 73eb ed3b 839a bebc 0603 e5bd
00000260: f933 15bd b82e ad3b 5b38 093d bd5f 47bd
00000270: 6650 0b3d 3349 fb3d 9234 563d 32e7 923b
00000280: c0d0 c4bd d985 b8bd a08e 81bd c098 44bd
00000290: ee50 adbd a7e8 7cbd e9b3 3ebd a4cc 16bd
000002a0: 07c0 9abc 2545 ae3c 9d9e 923b 5200 a63c
000002b0: 5615 833a 9cd5 563d c8fa c03d 8943 313e
000002c0: 7ab4 e83c d558 f93c d7cc d33d cdba b9bd
000002d0: 41f3 3bbd b9b4 24bd 6a00 3ebd 791e 8cbc
000002e0: c627 1d3d 761d ec3c fd19 073d 1750 7f3d
000002f0: 31b8 0dbd 7b7b 4c3a 658c 38bd ed56 c4bb
00000300: 8040 123d d9d8 b53c 3147 d8bb 99be 3ebd
00000310: 385f 223b 1e41 7c3c 1cd5 27bc 2228 2e3d
00000320: 9aa2 993c fa6d 0fbc 24fc b43c ec8a 193d
00000330: 8c47 08bd 7b2b 473c f19b 68bd e017 a5bc
00000340: 2bd4 f0bc 4efd 923d d36e 273d 01a7 cc3c
00000350: c8ef 8bbd be4a de3c 147b 803d de13 273d
00000360: 26f3 293d ea26 803d aec1 c03b 0f72 1bbd
00000370: daae 62bd 5313 223d 0fae 71bc f31c 5bbe
00000380: 621c e2ba ca28 00bd 606c 9e3d 2870 b33c
00000390: 931d cb3d e595 673d 9ea5 073e eb3f 3e3b
000003a0: 8c5b be3d 8e04 053e 9161 b7ba b851 a4bd
000003b0: ed60 3abc 76ae 193d a41a 5fba e144 86bd
000003c0: 9974 f9ba fc1d e4bb 29cd aeb8 bf9b 22bd
000003d0: 8b82 01bc 02ca b83c bdd3 123d e596 85bd
000003e0: 8638 b6bd fe0e 70bd 55a6 7abd 03cc abbd
000003f0: 9dde d7bd 6431 56bb ac49 da3d 76ee fc3d
-0.025443563 0.034623284 0.029973354 0.026944477 -0.08214295 -0.09670687 0.024123635 0.026709395
-0.14477822 -0.059782647 -0.09689391 0.003872149 0.008775282 0.05110197 0.03881921 0.15624999
0.014550371 0.015186349 -0.08770933 -0.060965847 -0.010318998 -0.05733678 -0.08418588 -0.009915743
-0.043450344 -0.03605595 -0.05141498 0.01429556 0.004611151 0.027069122 0.1026601 0.05328905
0.009440588 0.056902666 0.10601806 0.03661302 -0.05268188 -0.011905565 0.018293448 0.12943397
0.06887957 0.034100406 0.0233852 0.049524482 -0.04526097 0.027855696 -0.11329781 -0.15550211
0.08537561 0.063749395 0.12553217 -0.014402129 0.080272436 0.029085705 0.14120083 -0.030392285
-0.04906313 0.024309572 0.006831088 -0.043144792 -0.1103303 -0.014971783 -0.093687885 -0.029477874
0.03849146 0.08040973 0.13053046 0.040339325 0.044567656 0.0077047837 0.012005459 -0.039154425
-0.043143295 0.026654292 0.021049155 -0.049568195 0.06377207 0.07096905 -0.051939934 -0.046248388
0.0699471 0.14219 0.09853791 -0.054426245 0.048889425 0.017141359 -0.07613113 -0.0896136
-0.11353828 -0.06020711 0.009312822 0.022057317 0.06648101 0.11110626 0.048841216 -0.08414276
-0.036509056 0.0075868503 0.050783675 -0.010250426 0.07398509 0.08020959 -0.032265875 0.06720734
0.044546545 0.030382108 -0.009372178 -0.037459668 0.03783924 0.07085833 0.0050492636 -0.12338539
-0.029117502 -0.053751267 0.030039297 -0.032236878 -0.04268686 0.02002959 0.048632618 0.003648658
0.033820383 0.03319967 0.053913947 -0.027485508 -0.011053625 -0.086891584 -0.047891945 -0.0037867287
-0.04927976 0.042969506 0.024784733 -0.0070151645 0.014987317 -0.005316702 0.027927447 -0.0028716791
-0.04085413 -0.09764232 -0.09058453 -0.021270806 0.002799982 -0.052131776 0.041008174 0.10097732
-0.07778221 0.0019734816 -0.018512875 -0.021588076 -0.05074432 0.0072607337 -0.023267036 -0.11182217
-0.036426518 0.0052851103 0.03350101 -0.048675288 0.03401222 0.12269821 0.05229623 0.004483127
-0.096101284 -0.090099044 -0.06326032 -0.047997236 -0.08462702 -0.061745312 -0.046558294 -0.036816254
-0.018890394 0.021273205 0.0044744746 0.020263825 0.0010000865 0.052449808 0.09422833 0.17310919
0.02840637 0.030437866 0.103418045 -0.090688325 -0.045886282 -0.040211413 -0.046387114 -0.017104374
0.03836801 0.028822642 0.03298377 0.06233224 -0.034599487 0.00078003824 -0.045055766 -0.0059918077
0.035706043 0.022198128 -0.0066002836 -0.046568487 0.0024775993 0.0153963845 -0.01024368 0.042518742
0.018754292 -0.008754248 0.022092886 0.037486 -0.033271357 0.012156363 -0.056789342 -0.020152986
-0.029398045 0.0717722 0.040877175 0.024981977 -0.06832844 0.02713525 0.06273475 0.04079043
0.04149165 0.06257422 0.0058824634 -0.03795057 -0.055342533 0.03956921 -0.014750971 -0.21397762
-0.001725089 -0.0312889 0.07735515 0.021904066 0.0991775 0.056539435 0.13246772 0.0029029797
0.09294805 0.12990019 -0.0013990869 -0.08023399 -0.011375648 0.037519895 -0.00085107447 -0.06556106
-0.0019031941 -0.006961582 -8.3351806e-05 -0.039699312 -0.007904659 0.022557262 0.03584646 -0.065229215
-0.088975 -0.058608048 -0.061193783 -0.083885215 -0.10540507 -0.0032683248 0.10658583 0.1235017

fc1.bias f4 [50]
00000000: d53e 963d b0dd a83c 0683 f33d d0a7 623d
00000010: 95bd 593d e843 be3c 77c5 b63d 3b6a df3a
00000020: 89da cf3d 5062 5e3d f37c 9f3d b5a8 43bd
00000030: c60f 823a 7a69 063d e0cb 31bb 9f7e 1f3c
00000040: cd7c 5dbd 1901 403d 6920 803d fa87 2d3c
00000050: b802 743d 232a 443d c940 633d 99e7 153d
00000060: 3d38 8b3c f4b0 913c eaae 403d 47c8 063d
00000070: 6349 813d 48ec 8c3d 10e1 b83d b51e 8bbc
00000080: b2ac 573d 8efa d43c b19c db3d a945 b73c
00000090: fe1b 563b cf6e 39bc 8b27 333d 17c9 733d
000000a0: 0f23 bc3c 9228 6a3d ec3c 2f3c d50b cc3d
000000b0: abc6 ef3d aacd 253c 9e67 643d f764 f43c
000000c0: 7e13 ad3d 02fa 833c
0.07336203 0.020613521 0.11890225 0.05533582 0.053159315 0.02322574 0.08924382 0.0017045209
0.10149104 0.054292977 0.07787504 -0.047768313 0.0009922914 0.032815434 -0.0027129576 0.009734779
-0.054074097 0.046876047 0.06256182 0.010591501 0.059572905 0.047891747 0.055481706 0.03659782
0.01699459 0.017784573 0.04704181 0.032905843 0.063128255 0.068810046 0.09027302 -0.016982416
0.05265493 0.02599838 0.10723246 0.022372084 0.0032670493 -0.011317923 0.043738883 0.059517946
0.022965936 0.057167597 0.010695677 0.09963194 0.11707815 0.010119835 0.05576288 0.0298333
0.084509835 0.016110424

fc2.weight f4 [10, 50]
00000000: 3c60 c73d 28e1 043e 7b65 143e cc0d 34be
00000010: 2887 b13d f73f cc3d 4cf9 3dbe 89ee 223e
00000020: 4bc4 46be aad2 3ebe 2b70 d33d 7e5f 6a3d
00000030: 5b21 7bbe b6cd 0abe 419e 11be c339 1c3e
00000040: ec82 173d a61c 2abe 69be f2bd 1e39 053e
00000050: c79c 9d3c 6142 0d3e e5e9 72be dec1 b3bc
00000060: 376d 20be 3e21 b3bd 432c 14be b869 08be
00000070: 9a64 78be d3c9 52be 7d2c d93d 9419 de3d
00000080: 03a2 82be cc9c 17be 4597 21be b940 d93d
00000090: f739 64be 7c01 d03d b909 cbbd 3d51 403d
000000a0: e161 b6bd c0a7 3fbe f6a6 f13d c3a7 143e
000000b0: b0c5 4bbe 9ecb cf3d ea95 9b3d d2f5 293e
000000c0: c158 1fbe 4dd0 033e 8f97 e43d db84 d53d
000000d0: 5da8 563c 687e 343e ceca 2dbe d219 e0bd
000000e0: ade7 a43c 7789 21be 5ecd 103e 0aab 1d3e
000000f0: 6900 e6bd 2921 35be fbdb f43d c82b 01be
00000100: 01c6 0fbe 44ac 243c c409 1cbe fa6e 03be
00000110: 113a ac3d 8d58 26be 4e28 4dbe 4d6d 24bc
00000120: 9b5d e6bd b0ce f7bd bc20 94bc 7336 393d
00000130: 147c 1bbe 9f1e 0b3e a203 9c3d 7c22 863d
00000140: 251e ed3d 5a4e 1dbe 82e8 853c 140a 6d3d
00000150: 6715 e33d b255 62be 3810 c8bd 1ddd 6cbe
00000160: 36bb a73d 7316 b53d 97e7 6dbe 5941 4bbe
00000170: 4e9a 1abe 97e7 053e 6b58 f03d 62ec be3d
00000180: e96c 8bbe d5ca 103e deb5 2d3e d672 24be
00000190: 54e1 f73d 946f 92bd a296 2e3e add5 dfbc
000001a0: c8d5 23be a47b 06be 8928 ba3d 6624 72bd
000001b0: 0ffa 18be d586 dabd b3b7 103e f00f a2bd
000001c0: 2647 06be 68a5 25be c6aa 33bd f112 dabd
000001d0: 0e84 55bd 244e f1ba b874 ce3b 8c80 173e
000001e0: 0b0d 35be 820b a6bc 525a 58bd 7641 3bbe
000001f0: 7aec b53d 9101 1e3d 7701 bfbd b591 a7bd
00000200: 84e3 d9bd 3362 4f3d 82c0 f1bd 5939 c93d
00000210: b1c3 58be bf0c 8e3d 1007 033e 20b7 503d
00000220: 356b 03be 4aeb ae3d 89a2 b5bd 9e2b 6cbc
00000230: d5b8 913d 517f 3e3d 263a 673b 5719 d73d
00000240: e017 f13d f71c aebd f292 7e3d ea0b 1b3e
00000250: 2ca5 3e3e b274 cb3d 10c6 f3bd 2a18 cc3c
00000260: 7624 0c3e 6df7 1cbe 150f 93bc 0584 12be
00000270: dcce e63d cf28 02be aa48 1cbd e5f4 70be
00000280: a960 b5bd bcf0 d73d f78e debd 0078 f53d
00000290: 32b2 8cbd f067 a7bd 3839 8fbd 697a 333e
000002a0: b6fb 1c3e d99e 0e3e 0855 28be b56e 45bd
000002b0: 77ae 83bd c576 2abe cfcb ab3d af51 203d
000002c0: c6c6 073e 4687 363e 48c1 89bd 6b56 5a3d
000002d0: 6567 b0bd 2553 f73d 42f3 a73d e97d 713d
000002e0: 70e3 14be 8cdd 583d cccd 8b3d 4cce e0bb
000002f0: c963 c4bd 20ce cb3d 4ce4 09be adfb 9dbd
00000300: 7599 e0bc 99c2 06be 4239 283c b509 c1bd
00000310: 3981 13be ef2d a8bd 02d1 b53d 6036 a03d
00000320: 27a4 37bd 9aab d9bd aab8 40be b7d8 c7bd
00000330: b024 c8bd ab6d 183e c3e4 0ebe 47ea 6ebd
00000340: 6b23 263e f7ea fa3d 1084 003e ea5c a03d
00000350: 2dcc 143e f155 eebc b099 39be 3f09 22be
00000360: 66d7 9cba dbba 1fbe de5b 073e 8a44 cdbd
00000370: de4c 083c 6ee9 243e cbef 18be 5b33 d13d
00000380: 507b d13d 8013 3cbe ff35 27ba 4532 3fbe
00000390: 3970 083e 9a94 383d 71a9 61bd ae81 e9bd
000003a0: 56c6 bd3c b882 8bbd 6a16 f53d 4e2a f2bd
000003b0: 9747 e13d 628a 1cbe 0d02 273e dd49 03be
000003c0: 65be ab3d 2865 053e c481 d4bd 4f60 0cbe
000003d0: 063e eabd c944 983d 3400 903c 00c3 c23d
000003e0: 659b 35be 7242 b5bd 64e6 e9bd 3414 0c3e
000003f0: 0b62 593d abcb 78bc 45d1 ed3d 153e 11be
0.09735152 0.12976515 0.14491837 -0.17583388 0.08668357 0.09973138 -0.1855213 0.15911306
-0.19410817 -0.1863505 0.10324129 0.057219975 -0.24524443 -0.13555035 -0.14220525 0.1525641
0.03699009 -0.16612491 -0.11852724 0.1301007 0.019239796 0.13794853 -0.23722036 -0.021943029
-0.15666662 -0.08746575 -0.1447001 -0.13321579 -0.24257126 -0.20584802 0.106041886 0.108447224
-0.2551423 -0.14805907 -0.15780361 0.10608048 -0.22287737 0.10156533 -0.09913964 0.046952475
-0.08905388 -0.18716335 0.117994234 0.14517121 -0.1989963 0.10146259 0.07596953 0.1659768
-0.155612 0.12872429 0.1116172 0.10425731 0.013101664 0.17626345 -0.16971895 -0.10942425
0.020130003 -0.15775095 0.14140841 0.15397277 -0.11230547 -0.17688431 0.119560204 -0.12614357
-0.14040376 0.010050837 -0.152381 -0.12835303 0.08409513 -0.16244717 -0.20034906 -0.010035825
-0.112483226 -0.120999694 -0.018082015 0.045217942 -0.15184051 0.135859 0.076178804 0.06549546
0.11578015 -0.1536192 0.01634622 0.05787094 0.110880665 -0.22103003 -0.097687185 -0.23131223
0.081900045 0.088421725 -0.23232876 -0.19849147 -0.15097925 0.13076626 0.117356144 0.0932243
-0.2723153 0.14139874 0.16963908 -0.16059431 0.12103525 -0.07150188 0.1704965 -0.027323568
-0.1599952 -0.13133103 0.09089763 -0.059116744 -0.1493914 -0.106702484 0.14132576 -0.07913196
-0.13113078 -0.16176379 -0.043864034 -0.10648144 -0.05212789 -0.0018410129 0.006300535 0.1479513
-0.17680757 -0.02026916 -0.05282051 -0.1828669 0.08882995 0.038575713 -0.09326451 -0.08182088
-0.10639098 0.05063076 -0.11804296 0.09825391 -0.211684 0.06936025 0.12795663 0.05095589
-0.12833865 0.085409716 -0.08868892 -0.014414696 0.07115332 0.046508137 0.0035282462 0.1050288
0.11772132 -0.08501618 0.062151857 0.15141264 0.18617696 0.09934367 -0.11903012 0.024913866
0.13685784 -0.1532876 -0.017951528 -0.14308174 0.11269924 -0.1271088 -0.038155235 -0.2353092
-0.08856327 0.10543963 -0.10867112 0.11985779 -0.068699256 -0.081741214 -0.069933355 0.17527165
0.15330395 0.13927783 -0.16438687 -0.04820128 -0.06429761 -0.1664687 0.08388483 0.0391404
0.1325942 0.1782504 -0.067263186 0.05330507 -0.08613471 0.120764054 0.082006946 0.058957968
-0.14539886 0.05294566 0.06826362 -0.00686053 -0.09589345 0.099514246 -0.13465995 -0.07714019
-0.027416924 -0.1316017 0.010267558 -0.094256796 -0.14404763 -0.08211886 0.08877756 0.07822871
-0.044834282 -0.106284335 -0.18820444 -0.09758132 -0.097726226 0.14885585 -0.13954453 -0.058328893
0.16224448 0.12251847 0.12550378 0.07830222 0.14531012 -0.029093714 -0.18125033 -0.1582384
-0.0011966049 -0.15598623 0.13218638 -0.100228384 0.008319108 0.16104671 -0.14935224 0.102148734
0.10228598 -0.18366814 -0.00063785905 -0.1867152 0.1332406 0.045063592 -0.055093233 -0.114016876
0.023165863 -0.06812042 0.11967166 -0.11824475 0.10999983 -0.15287164 0.16309376 -0.12821145
0.08385924 0.1302687 -0.10376313 -0.13708614 -0.11437611 0.07434995 0.017578222 0.095098495
-0.1773506 -0.08850564 -0.11420897 0.13679582 0.053072017 -0.015185277 0.116121806 -0.14183839

fc2.bias f4 [10]
00000000: 3e32 563d 3dc5 053d 12f4 4bbd a96f 67bc
00000010: ab1e 293c 800f c33d eb3a ef3d 4775 d7bd
00000020: 3d77 673d d425 34be
0.05229401 0.032658804 -0.04979331 -0.014125743 0.010322253 0.09524441 0.116811596 -0.10520416
0.0565102 -0.17592555

exp_avg f4 [10, 1, 5, 5]
00000000: 7ad5 bcba ce03 0bba d6bf f83a 3659 df3b
00000010: 2775 013c 594c 5cba a7c1 55b8 971a 443b
00000020: c6e6 8a3b 9b5e ee3b 109d 843a eef6 b33a
00000030: 9c67 403b 3aed 283b 8160 8e3b c12b 5e3a
00000040: e7ed 033b 5664 b139 875c efb9 c24e 2b3a
00000050: 9684 2ebb 3959 8039 0129 d7ba f0b9 b239
00000060: 6b07 483b ed96 c2ba 9de3 f93a 065f 753b
00000070: 3751 f23b 9d39 093c 1267 033b 39b5 213b
00000080: 462f 853b 482c df3b d64a 143c 4009 0b3b
00000090: f420 6b3b 88b6 8e3b 781d d03b f07d 033c
000000a0: 0f2b 553b 875c 9b3b 4ff5 8f3b 9bd8 6a3b
000000b0: 3d93 8e3b 9786 813b e5bc c93b f53f 9f3b
000000c0: b5d6 e43a b120 633b 4e3d 96bb 2366 b0bb
000000d0: 9fbc b53a f6e7 043c 12e7 1b3c 675e 40bb
000000e0: 278c c83a 8502 053c 75ce 1d3c f3e3 cc3b
000000f0: 7615 50ba 2b06 9a3b a14a c93b e3e8 bb3a
00000100: 6084 f9ba d052 e03a 6970 693b 72d1 b83a
00000110: 76d2 98bb c1c8 a7bb dd3e 2d3b b7c6 1c3b
00000120: 51a4 07bb daa2 8cbb 0f6c 41bb dc27 deb9
00000130: e67b aeba 9271 43bb 5365 82ba 838c a93b
00000140: e67f 99ba 6a67 a8ba 8627 303b 2b87 b73b
00000150: 422a 1a3c d16e 9b3a bf90 933b 46ae eb3b
00000160: f112 233c 5dc1 223c d3d9 a53b fc97 ae3b
00000170: 2973 da3b 22f7 df3b f03d 723b 4755 aa3b
00000180: 6deb b33b 913f 543b a65b da3a c66d b2b9
00000190: 4efc b3ba 344b 1abb 1b95 24bb a637 65bb
000001a0: 020e 8abb 2ea3 0fbb c8f8 2cbb 98a5 28bb
000001b0: 13a8 31bb a466 46bb 31b8 96ba 6857 edba
000001c0: 65d9 27bb 4129 3fbb fb2b 46bb 1864 8aba
000001d0: cd65 efba 784b 12bb 4644 41bb f5a1 43bb
000001e0: 7176 a2b8 d29a 29ba 2534 a3ba fd7c b5ba
000001f0: 0898 b838 1b1b f0ba 018a 273a 1d5f 533b
00000200: 0f59 4d3b ce46 c139 e037 843b 51be e13b
00000210: 046c 213c 0e4c e23b 1c81 a5b9 ead2 9c3b
00000220: 53ef 033c 6a5d 093c 0969 bc3a a72e 92bb
00000230: d571 a53b 2df3 603b f7d9 a93a 9270 b1bb
00000240: 264e d9bb 9830 093c 436a 753b 9a37 2abb
00000250: 5ca6 02bc d866 b5bb 0a72 1fbb 051a 263b
00000260: 9d24 9b3b 47bc b83b 18a0 053c 9aa2 8b3a
00000270: 86a8 6f3b f497 cc3b 1529 fd3b ea03 053c
00000280: 7587 bb3b 9790 d43b 65d2 aa3b f517 be3b
00000290: b541 c63b e2ca ca3b 10f8 ed3b 8265 823b
000002a0: af77 533b 196c 913b bf8d 833b 9680 8b3b
000002b0: 93d2 303b afe3 413b c609 773b 1c13 3ebb
000002c0: 05b7 583a df59 b13b f319 213c 075c 2f3c
000002d0: e5d7 ed3a c51c 123b 150f a33b 3a96 c23b
000002e0: a0eb 183c da10 a73b 32f6 983b 934e 753b
000002f0: eb01 a73b e94e 013c aab0 2e3b 4e8c 4b3b
00000300: f716 af3b 239a dc3b 9c3d 0d3c 13fc 7eb9
00000310: 3b54 543b 2230 ec3b 2102 023c 484a 1e3c
00000320: fc88 33bb 46aa fbb9 366c 993a 5061 3b3b
00000330: 5b26 7937 0bd3 85bb dc08 9aba 4d4b bc3a
00000340: c625 703a fb3a 93bb 5c2b 1dbb 453e a03a
00000350: 73db 163b bc4c 91ba f0e3 a4bb 218a 833a
00000360: 3a8c c439 cbbe 20bb 3de1 ddbb 09c3 1fbc
00000370: f846 28ba c497 c7bb 2848 10bc 7c47 1abc
00000380: f98f 29bc c1bf dd3b af41 9a3a 0a25 4fbb
00000390: 04da bcbb c2a4 89bb 27f0 b43a b119 8fba
000003a0: 8448 8ebb cdbb 9cbb 9139 a0bb beb0 663b
000003b0: f91e 9c3b b555 da3a 55c9 fcba f712 debb
000003c0: 69e3 913b 509c f73b 67d4 953b c483 39ba
000003d0: f00b c5bb bd91 be3b c54e d33b 6054 803b
000003e0: d49a 083a 70d3 86bb
-0.0014406883 -0.0005302996 0.001897807 0.0068160547 0.007901466 -0.00084037107 -5.096351e-05 0.0029923075
0.004238936 0.0072744614 0.0010117609 0.0013730207 0.002935863 0.0025776164 0.0043450003 0.0008475148
0.0020130815 0.00033834827 -0.0004565457 0.0006534868 -0.002662932 0.0002448054 -0.0016415418 0.0003408934
0.0030522 -0.0014846005 0.0019065026 0.0037440672 0.0073949355 0.0083755525 0.0020050448 0.0024674668
0.0040644733 0.0068106987 0.009051045 0.002121523 0.0035877796 0.0043552555 0.006351169 0.008025631
0.0032526886 0.0047412547 0.0043932567 0.0035834673 0.0043510483 0.003952812 0.006156551 0.004859919
0.0017459007 0.0034656937 -0.004584945 -0.0053832694 0.0013865418 0.008111944 0.009515541 -0.0029353143
0.0015300558 0.0081182765 0.009631743 0.0062527596 -0.0007937768 0.0047004423 0.0061429297 0.0014336373
-0.0019036643 0.0017114524 0.003561998 0.0014100506 -0.004663761 -0.0051203673 0.0026435175 0.0023922154
-0.0020697305 -0.0042918744 -0.002951387 -0.00042372837 -0.0013312071 -0.0029822332 -0.000994841 0.005174221
-0.001171109 -0.0012848203 0.0026879027 0.00560083 0.009409489 0.0011858587 0.004503339 0.007192406
0.009953246 0.009933797 0.005061367 0.0053281765 0.00666656 0.0068348804 0.0036963187 0.005198154
0.0054907114 0.0032386521 0.0016659393 -0.00034032593 -0.0013731809 -0.002354336 -0.0025113288 -0.0034975796
-0.0042130956 -0.002191733 -0.0026393402 -0.0025733467 -0.0027108237 -0.003027358 -0.0011498985 -0.0018107714
-0.0025611755 -0.0029168876 -0.0030238617 -0.0010558395 -0.0018264592 -0.0022322815 -0.0029490157 -0.0029851173
-7.7468234e-05 -0.00064699084 -0.0012451453 -0.0013846454 8.802122e-05 -0.0018318625 0.00063911086 0.0032252737
0.00313336 0.00036864582 0.004034981 0.0068891426 0.009852413 0.006906039 -0.00031567446 0.004785885
0.008052665 0.008384088 0.0014374565 -0.004461128 0.00504897 0.0034324632 0.0012958635 -0.0054150308
-0.0066316305 0.008373402 0.003744737 -0.0025973083 -0.0079742335 -0.0055359416 -0.0024329447 0.0025345099
0.0047345893 0.005637679 0.008155845 0.0010653317 0.0036568954 0.0062437 0.0077258446 0.008118609
0.005722935 0.006486963 0.0052130693 0.0058011957 0.0060503134 0.0061887363 0.0072622374 0.003979386
0.0032267382 0.004437935 0.0040147 0.004257272 0.002698098 0.0029585173 0.0037695034 -0.002900309
0.0008267018 0.005412325 0.009832847 0.010703093 0.0018146007 0.002229498 0.004976163 0.0059383186
0.009333521 0.0050984444 0.0046680206 0.0037430867 0.005096664 0.007892349 0.0026655593 0.003105897
0.005343314 0.0067322417 0.008620646 -0.00024317233 0.0032398838 0.0072078863 0.007935078 0.009661265
-0.0027394881 -0.00048001314 0.0011705223 0.0028591938 1.4850487e-05 -0.004083996 -0.0011751908 0.0014365703
0.0009160902 -0.004493115 -0.0023982143 0.0012225589 0.0023018986 -0.0011085491 -0.005032055 0.0010035672
0.0003748851 -0.0024527784 -0.0067712353 -0.00975109 -0.00064192666 -0.00609109 -0.008806266 -0.009416457
-0.010349267 0.0067672436 0.0011768843 -0.003160777 -0.005763294 -0.004200549 0.0013804481 -0.0010917691
-0.0043421406 -0.00478313 -0.004889675 0.0035200561 0.0047644344 0.0016657623 -0.0019286076 -0.006777163
0.004452158 0.0075564757 0.0045724395 -0.00070768245 -0.006013386 0.005815713 0.006448599 0.0039163083
0.00052110595 -0.004114561

exp_avg_sq f4 [10, 1, 5, 5]
00000000: 51b8 3039 70d0 4639 6136 4f39 44e6 5039
00000010: 8fcd 2739 1f41 1b39 26cb 2139 4802 3d39
00000020: cff6 2e39 073b 1739 374d 2c39 7e8d 4139
00000030: afdc 5339 5f51 3d39 31da 4739 1002 2439
00000040: 3b14 5a39 2691 6a39 21bc 5a39 7390 5c39
00000050: 4e62 1139 dd01 3339 3caf 4339 3286 5139
00000060: be0b 3739 4f7d 1439 1eb8 f738 5adb 0b39
00000070: bfc3 1639 7881 e738 fd8f 3b39 55d3 1039
00000080: f5ba 2639 484c 1339 e102 0439 4c4a 5939
00000090: 44b4 4139 1962 5139 0b7a 3339 01c9 3239
000000a0: e69c 2e39 16a9 2939 1654 4b39 dce1 6139
000000b0: 9798 6d39 7184 0039 fb76 1b39 ed29 4239
000000c0: 8154 6339 0af9 5c39 a83f b039 4e45 0a3a
000000d0: a3c9 243a 7edb 103a 6548 be39 1cf6 e339
000000e0: 85ef 2a3a 077c 2e3a a480 ee39 7250 7739
000000f0: 8b39 013a 8aec 323a 6d0b 153a 871c 8339
00000100: ca74 1039 438f 143a bc85 353a 9e9e da39
00000110: c7be 1739 b977 c038 1514 1d3a 3bdb 263a
00000120: ce44 c139 305b 0939 8207 bf38 3797 6538
00000130: 9288 b738 7464 4439 13bd 9239 4fbd 9239
00000140: 7a9a 7138 edd7 d838 76ab 7539 b958 a139
00000150: af6f 8939 edb3 cc38 d726 4339 d850 a539
00000160: 0e45 a939 12de 6a39 63ed 2e39 fe39 9539
00000170: d225 c439 9b9f 9839 069b 2b39 d5f3 6939
00000180: 0ccf b439 819d ad39 cce6 5739 647a 0c39
00000190: 2f18 3738 08cf 0438 819c 0a38 5858 1038
000001a0: de56 3238 1fc6 0438 8c96 0438 dfe0 0638
000001b0: d482 0538 5e9a 0538 be8a 1d38 5271 0638
000001c0: 1777 0438 f723 0538 24bf f937 e545 4338
000001d0: 0d64 1138 7bc0 0438 f1c7 0438 42fd f437
000001e0: 9b8d af38 85f3 5638 80e4 2338 1091 0a38
000001f0: 9e33 2938 503b 2b39 3ed0 f538 cfcf c938
00000200: 3a86 1b39 2302 6839 d432 3139 56f0 d638
00000210: fa34 b138 7beb 4d39 1ae0 9d39 0a70 6239
00000220: fd78 0c39 1f65 2b39 aebe ca39 422c 083a
00000230: 7104 ce39 ed33 ce39 6e69 1d3a 5892 4f3a
00000240: d7d4 513a f0ba 123a f0f5 3d3a 1c71 813a
00000250: dea3 8f3a ff26 613a 6640 0939 e5c8 0239
00000260: 7bb3 0a39 2e1d 1239 a8aa 2e39 5480 0b39
00000270: 91fd 1839 8837 1339 8b77 0439 8c38 eb38
00000280: 647b 2539 ed1b 1e39 c763 0b39 49ef d838
00000290: d096 c638 7a36 f538 d019 0139 6588 1239
000002a0: 727b e438 3ccc b038 0f43 ad38 11f7 e438
000002b0: 2ddf 1339 fa09 ea38 3526 bb38 92de 0939
000002c0: 7507 4a39 8d78 ab39 7e52 a639 5dc0 7339
000002d0: 22f8 4a39 c25b 8c39 d255 9339 d6c4 6739
000002e0: 9dde 4d39 bf68 6139 9411 6d39 4964 5339
000002f0: 6e44 3539 c706 3939 708e 3a39 6ba6 3f39
00000300: 556a 4c39 50b9 5939 c6c4 6939 f688 3639
00000310: 836d 3f39 3f4f 5d39 3bd2 8039 275b 8539
00000320: 90ee 5c39 df49 2539 4b37 0239 fb6b 1739
00000330: b65d 4539 6cd6 7939 a845 1e39 c0d4 a438
00000340: 3e7f 9538 ff90 e438 b624 b539 9321 4439
00000350: 1410 a038 353e a238 4827 c038 f349 ee39
00000360: ebdb af39 6d4f 2e39 2a0d 0f39 bc2a 0b39
00000370: 3f27 f339 26cb ee39 43e5 a639 bc23 7239
00000380: 0aba 4739 d187 193a 4a96 423a 67b9 623a
00000390: 4698 653a bf08 533a 1156 213a c51c 443a
000003a0: da04 503a 0640 4f3a 0cd0 393a 670d 0d3a
000003b0: 77ea ee39 3ebb d039 0da4 e339 40a7 f439
000003c0: e505 ac39 7838 5c39 e618 6d39 4f06 9639
000003d0: 1e16 cf39 2744 6039 fa9b 2f39 6db6 6639
000003e0: d6df 9b39 e0c8 ee39
0.00016853331 0.000189604 0.00019761316 0.00019922206 0.00016002938 0.00014806211 0.00015429835 0.00018025294
0.00016685876 0.00014422472 0.00016431963 0.00018458624 0.00020204739 0.00018054758 0.00019059402 0.00015641027
0.00020797637 0.00022370051 0.00020860184 0.00021034646 0.00013864899 0.00017071464 0.00018661929 0.00019981785
0.00017456614 0.00014161061 0.00011812172 0.00013337788 0.00014378036 0.00011039054 0.0001788735 0.00013811637
0.0001590064 0.0001404743 0.00012589573 0.0002072241 0.00018473068 0.00019968337 0.00017116235 0.00017050283
0.00016652382 0.00016180085 0.00019390913 0.00021541811 0.00022658925 0.0001225637 0.00014826276 0.000185169
0.00021679887 0.00021073609 0.00033616764 0.00052746094 0.000628615 0.0005525871 0.00036293562 0.0004348018
0.00065206765 0.0006656055 0.00045490742 0.00023585724 0.0004929534 0.0006825408 0.00056856015 0.00025007522
0.00013776417 0.00056670996 0.000692453 0.0004169838 0.00014471552 9.1775735e-05 0.0005992067 0.00063650653
0.00036863092 0.00013099308 9.108988e-05 5.4738684e-05 8.751558e-05 0.00018729438 0.0002798816 0.00027988336
5.7602745e-05 0.00010339902 0.00023428895 0.00030774417 0.00026213887 9.760992e-05 0.00018611118 0.00031531486
0.00032285642 0.00022398707 0.00016682367 0.00028462702 0.00037412212 0.00029110615 0.00016365582 0.00022311446
0.00034486537 0.0003311448 0.00020589976 0.00013397034 4.3653123e-05 3.1664065e-05 3.304752e-05 3.4414552e-05
4.251941e-05 3.1655767e-05 3.161146e-05 3.2157517e-05 3.1831514e-05 3.1853437e-05 3.756093e-05 3.2053627e-05
3.1582164e-05 3.1743166e-05 2.977212e-05 4.6556717e-05 3.4663874e-05 3.1650514e-05 3.1657462e-05 2.9204999e-05
8.371026e-05 5.124837e-05 3.9075036e-05 3.3036864e-05 4.0340812e-05 0.00016329926 0.000117212985 9.623134e-05
0.00014831955 0.0002212604 0.0001689897 0.00010249081 8.449885e-05 0.00019638047 0.00030112342 0.00021594777
0.00013396512 0.00016345501 0.0003867051 0.0005194583 0.0003929469 0.0003933007 0.0006004785 0.000791823
0.0008004433 0.0005597314 0.00072464254 0.0009875628 0.001095887 0.000858888 0.00013089328 0.00012472605
0.00013227567 0.00013934515 0.00016657508 0.00013303879 0.0001459031 0.000140397 0.00012633034 0.00011216206
0.00015781593 0.00015078457 0.00013293243 0.00010344253 9.469467e-05 0.000116926574 0.00012312015 0.00013974456
0.00010894881 8.4303756e-05 8.2617735e-05 0.00010917907 0.00014102152 0.00011159848 8.9239715e-05 0.00013148252
0.00019266999 0.0003270548 0.0003172345 0.00023245947 0.00019356658 0.00026771246 0.00028101966 0.00022103204
0.00019633253 0.00021496693 0.0002260863 0.00020159887 0.00017286997 0.000176455 0.00017791404 0.00018277175
0.00019494568 0.00020763767 0.00022293915 0.00017407894 0.00018255976 0.00021105724 0.00024570696 0.0002543565
0.00021069706 0.00015763145 0.00012418364 0.00014440708 0.00018822294 0.00023826369 0.00015094003 7.859757e-05
7.128574e-05 0.00010898895 0.00034550362 0.00018704524 7.632389e-05 7.736349e-05 9.16259e-05 0.00045449994
0.00033542453 0.00016623522 0.00013642447 0.00013271993 0.00046377812 0.00045546255 0.000318328 0.0002309223
0.00019047424 0.0005856725 0.00074229075 0.0008648843 0.0008758347 0.00080503145 0.00061544875 0.00074810936
0.0007935293 0.00079059636 0.00070881913 0.000538072 0.00045569587 0.00039812358 0.0004341904 0.00046663918
0.00032810788 0.00021001871 0.00022611357 0.0002861493 0.00039498595 0.00021387693 0.00016747406 0.00022002468
0.00029730675 0.0004554456

max_exp_avg_sq f4 [10, 1, 5, 5]
00000000: 51d4 3039 2e02 4b39 b131 5139 37ef 5139
00000010: 474d 2939 a864 1b39 e3a9 2339 3657 3f39
00000020: 8bdf 3139 df19 1839 69db 2c39 ff30 4239
00000030: 0f08 5439 afe0 3e39 2126 4839 f27c 2439
00000040: 4282 5a39 14d2 6a39 adf3 5a39 d5bd 5c39
00000050: ebf8 1139 550f 3339 bab8 4339 dabb 5139
00000060: 7d8f 3739 4d97 1439 51f2 f738 0601 0c39
00000070: 9f02 1739 7cef e738 fd8f 3b39 c006 1139
00000080: a003 2739 f871 1339 8830 0439 4c4a 5939
00000090: 33e6 4139 2482 5139 84ad 3339 01c9 3239
000000a0: 0d1e 2f39 90cf 2939 d258 4b39 dce1 6139
000000b0: 9798 6d39 7184 0039 bd88 1b39 d330 4239
000000c0: 8154 6339 0af9 5c39 a83f b039 4e45 0a3a
000000d0: a3c9 243a 7edb 103a 6548 be39 1cf6 e339
000000e0: 85ef 2a3a 077c 2e3a a480 ee39 1a87 7739
000000f0: 8b39 013a 8aec 323a 6d0b 153a 871c 8339
00000100: ca74 1039 438f 143a bc85 353a 9e9e da39
00000110: acfc 1739 b977 c038 1514 1d3a 3bdb 263a
00000120: ce44 c139 a9b3 0939 4952 bf38 d907 6638
00000130: acd9 b738 7464 4439 13bd 9239 4fbd 9239
00000140: 89d6 7138 670e d938 cfd1 7639 b958 a139
00000150: af6f 8939 fd17 cd38 9908 4439 787e a539
00000160: 0e45 a939 12de 6a39 8b91 2f39 f448 9539
00000170: d225 c439 9b9f 9839 069b 2b39 a56d 6a39
00000180: 6e4d b539 819d ad39 cce6 5739 647a 0c39
00000190: 2f18 3738 301c 0538 54f2 0a38 8587 1038
000001a0: 296d 3238 1fc6 0438 66ca 0438 230f 0738
000001b0: cbb6 0538 97c4 0538 f8aa 1d38 26bf 0638
000001c0: 88bc 0438 3f5d 0538 de55 fa37 dd5f 4338
000001d0: b6b2 1138 6b01 0538 fcfe 0438 73a1 f537
000001e0: 9b8d af38 5912 5738 f82c 2438 6374 0b38
000001f0: de5d 2938 503b 2b39 3ed0 f538 4f02 ca38
00000200: 9b89 1b39 2302 6839 d432 3139 a678 d738
00000210: fa34 b138 9006 4e39 1ae0 9d39 0a70 6239
00000220: 0ace 0c39 f5cf 2b39 aebe ca39 422c 083a
00000230: 7104 ce39 0162 ce39 6e69 1d3a 5892 4f3a
00000240: d7d4 513a f0ba 123a f0f5 3d3a 1c71 813a
00000250: dea3 8f3a ff26 613a 6640 0939 e5c8 0239
00000260: 7bb3 0a39 d240 1239 a8aa 2e39 5480 0b39
00000270: 91fd 1839 8837 1339 c395 0439 6f51 eb38
00000280: 647b 2539 ed1b 1e39 c763 0b39 a018 d938
00000290: 0aa0 c638 7a36 f538 d019 0139 6588 1239
000002a0: afb5 e438 9a3b b138 0f43 ad38 11f7 e438
000002b0: 9ef3 1339 fc3c ea38 ac4d bb38 a931 0a39
000002c0: e32f 4a39 8d78 ab39 7e52 a639 82db 7339
000002d0: 9c24 4b39 995e 8c39 5057 9339 2605 6839
000002e0: 8010 4e39 c997 6139 2223 6d39 16bd 5339
000002f0: bb7a 3539 023f 3939 ecbd 3a39 3c2f 4039
00000300: b497 4c39 dd3e 5a39 bd4d 6a39 0e3e 3739
00000310: d6a4 3f39 4f94 5d39 5318 8139 beb9 8539
00000320: 90ee 5c39 df49 2539 4b37 0239 daf1 1739
00000330: 7c83 4539 6cd6 7939 1e52 1e39 a310 a538
00000340: e0fa 9538 1a98 e438 b624 b539 aa24 4439
00000350: 0c51 a038 90d8 a238 4827 c038 f349 ee39
00000360: 6fe4 af39 3978 2e39 44bc 0f39 bc2a 0b39
00000370: 9575 f339 765a ef39 303d a739 9a33 7239
00000380: 0aba 4739 d187 193a 4a96 423a 67b9 623a
00000390: 4698 653a bf08 533a 1156 213a c51c 443a
000003a0: da04 503a 0640 4f3a 0cd0 393a 670d 0d3a
000003b0: 77ea ee39 3ebb d039 0da4 e339 40a7 f439
000003c0: e505 ac39 f75a 5c39 fa52 6d39 9c0c 9639
000003d0: 2141 cf39 2744 6039 e8c8 2f39 58d8 6639
000003e0: c48a 9d39 914d ef39
0.00016863762 0.000193604 0.00019950305 0.00020020908 0.00016145884 0.0001481945 0.00015608179 0.00018247668
0.00016963312 0.00014505487 0.00016484935 0.00018519534 0.00020220898 0.00018203513 0.0001908769 0.00015686805
0.00020838625 0.00022394239 0.00020880876 0.00021051553 0.00013921007 0.00017076482 0.00018665465 0.00020001773
0.00017505694 0.00014170744 0.00011823013 0.00013351822 0.00014401459 0.00011059546 0.0001788735 0.00013830792
0.00015927712 0.00014061469 0.0001260658 0.0002072241 0.0001849167 0.00019980274 0.0001713541 0.00017050283
0.00016700495 0.00016194419 0.00019392677 0.00021541811 0.00022658925 0.0001225637 0.00014832891 0.0001851947
0.00021679887 0.00021073609 0.00033616764 0.00052746094 0.000628615 0.0005525871 0.00036293562 0.0004348018
0.00065206765 0.0006656055 0.00045490742 0.00023606085 0.0004929534 0.0006825408 0.00056856015 0.00025007522
0.00013776417 0.00056670996 0.000692453 0.0004169838 0.0001449461 9.1775735e-05 0.0005992067 0.00063650653
0.00036863092 0.00013132267 9.1229165e-05 5.4843582e-05 8.7666645e-05 0.00018729438 0.0002798816 0.00027988336
5.765868e-05 0.00010350049 0.00023538548 0.00030774417 0.00026213887 9.77963e-05 0.0001869522 0.0003156548
0.00032285642 0.00022398707 0.0001674352 0.0002847385 0.00037412212 0.00029110615 0.00016365582 0.00022356825
0.000345807 0.0003311448 0.00020589976 0.00013397034 4.3653123e-05 3.1735923e-05 3.312745e-05 3.4458488e-05
4.254017e-05 3.1655767e-05 3.165975e-05 3.2200605e-05 3.187991e-05 3.189276e-05 3.7590944e-05 3.212611e-05
3.1646836e-05 3.1796513e-05 2.9842307e-05 4.6580903e-05 3.473713e-05 3.171099e-05 3.1708725e-05 2.9281457e-05
8.371026e-05 5.1277082e-05 3.9142527e-05 3.3248576e-05 4.038016e-05 0.00016329926 0.000117212985 9.6325406e-05
0.00014833214 0.0002212604 0.0001689897 0.000102744714 8.449885e-05 0.00019648136 0.00030112342 0.00021594777
0.00013428196 0.00016385301 0.0003867051 0.0005194583 0.0003929469 0.000393644 0.0006004785 0.000791823
0.0008004433 0.0005597314 0.00072464254 0.0009875628 0.001095887 0.000858888 0.00013089328 0.00012472605
0.00013227567 0.00013947792 0.00016657508 0.00013303879 0.0001459031 0.000140397 0.00012644292 0.000112208414
0.00015781593 0.00015078457 0.00013293243 0.00010351953 9.471185e-05 0.000116926574 0.00012312015 0.00013974456
0.000109057284 8.451119e-05 8.2617735e-05 0.00010917907 0.00014109767 0.00011169349 8.9313224e-05 0.00013179205
0.0001928206 0.0003270548 0.0003172345 0.00023256059 0.00019373227 0.00026773362 0.00028103078 0.00022127162
0.00019651838 0.00021514216 0.0002261517 0.00020192968 0.00017307226 0.00017666447 0.00017809094 0.00018328143
0.0001951147 0.00020813518 0.00022344939 0.00017475357 0.00018276586 0.00021131452 0.0002462292 0.00025506126
0.00021069706 0.00015763145 0.00012418364 0.00014490579 0.00018836366 0.00023826369 0.00015098645 7.870912e-05
7.151603e-05 0.00010900218 0.00034550362 0.00018705675 7.644491e-05 7.7651e-05 9.16259e-05 0.00045449994
0.00033548797 0.0001663872 0.00013707677 0.00013271993 0.00046436177 0.0004565303 0.0003189831 0.00023098142
0.00019047424 0.0005856725 0.00074229075 0.0008648843 0.0008758347 0.00080503145 0.00061544875 0.00074810936
0.0007935293 0.00079059636 0.00070881913 0.000538072 0.00045569587 0.00039812358 0.0004341904 0.00046663918
0.00032810788 0.00021014722 0.00022632992 0.00028619624 0.00039530642 0.00021387693 0.00016764144 0.00022015104
0.00030048762 0.00045643424

exp_avg f4 [10]
00000000: 7943 f3b9 1ae9 3aba 08bd 1e3b 9885 633b
00000010: 369c dd3b 7c8e a1bb af9b 883a ed26 283b
00000020: 5e5c 8c3b 5282 d5bb
-0.00046398843 -0.0007130072 0.0024221558 0.003471708 0.0067630066 -0.0049303155 0.0010422374 0.0025657967
0.004283472 -0.0065157795

exp_avg_sq f4 [10]
00000000: 728d 7c38 73e4 8838 0407 3339 a91f 9638
00000010: a30b 3a39 6cdb e339 1162 5838 1e60 7538
00000020: 0915 1339 f5aa f439
6.0213213e-05 6.527537e-05 0.00017073384 7.1584545e-05 0.00017742677 0.00043460296 5.1589745e-05 5.8502068e-05
0.00014026849 0.0004666668

max_exp_avg_sq f4 [10]
00000000: b195 7d38 73e4 8838 0407 3339 a91f 9638
00000010: e951 3a39 6cdb e339 2e9c 5838 d79d 7538
00000020: 0915 1339 f5aa f439
6.045931e-05 6.527537e-05 0.00017073384 7.1584545e-05 0.00017768856 0.00043460296 5.1643867e-05 5.855955e-05
0.00014026849 0.0004666668
